trained_model.pth (torch, 64291 bytes, 8 tensors)

embedding.weight f4 [100, 64]
0.490942 2.578826 -0.21668638 0.04570744 -1.5575298 -0.41600135 0.57727575 0.83676916
0.72811615 0.33858502 -0.84734327 1.8688775 0.21618332 1.32934 0.159316 -0.7576958
0.10053535 0.55946046 -1.5958982 0.63088423 -2.0117543 -1.5466635 -1.3074576 1.0025061
0.7590207 0.60497564 -0.4244334 -0.3412718 -1.2635587 0.70026374 0.71693885 2.5188448
-1.2135046 -0.24457389 -1.8532866 -0.50931513 0.006569075 2.5562818 -0.17737798 -0.31930792
0.38272667 -0.69675344 -0.5342806 -0.5603638 -1.4197891 -1.6388936 1.1648304 -1.9826086
-1.0209305 0.15251696 -0.5137653 -1.0420072 -0.9774753 0.8717435 -1.3127911 -0.67607385
-0.379635 1.569376 0.0026977258 0.46682847 0.21801598 -1.3999273 1.4450936 1.0281608
-0.17321701 0.3464289 0.34196776 -1.042818 -0.008842404 0.9835654 1.0513431 -1.0539656
1.6827859 -0.119092025 -0.34100372 -0.76424044 0.8968246 0.8292764 -0.28842616 1.438189
1.4330522 0.82775843 -0.18393412 0.65430635 0.50039214 -0.07093632 -0.6017318 -0.8043332
-0.19170934 -0.030400071 2.4939976 1.8623797 1.0149869 0.19056089 0.9615525 0.07701162
-0.31219748 0.32155704 1.016073 0.8313154 0.2243183 1.8199699 0.7847711 0.63094944
-0.43903393 -1.59889 2.9281845 -0.5918453 -0.1392391 1.2282307 1.3312404 0.6576213
-0.5546583 -1.7293943 -0.4223537 0.10832638 0.5913868 0.69037396 -0.11602145 0.8142958
-0.24522735 3.0627017 1.1361339 0.23770182 -0.2149326 0.42813176 1.0446731 1.776893
0.13079815 0.5849481 0.40253234 1.7889992 0.6497291 -0.5073092 0.32254896 -0.85613966
-0.16971776 -0.20393264 -0.9278205 1.3910846 -0.47046444 1.3606057 0.7098496 0.013398205
1.0609492 -2.0614176 1.3710524 1.0292008 1.5322542 0.21018274 -0.29294991 -0.3834598
-0.93036807 -1.9370918 -0.15723316 1.0515499 -0.7392282 0.21189609 0.25861016 0.31336373
-2.373052 -0.6337427 -0.22168614 -1.3121988 2.3605263 0.6661967 0.5172543 -2.114007
0.2780245 0.39516258 2.510853 -0.19285329 -1.499743 0.12726729 0.7885442 -1.2008541
0.68365055 -0.17366445 0.09364612 1.414601 0.40406418 0.46989328 0.66282046 0.6343295
0.3414074 -1.2959391 1.1355304 2.3660195 -0.05236657 0.40672052 -0.5422468 1.0415807
2.4818628 -0.29316506 0.102773316 0.8069771 0.013502246 1.06787 -0.8803322 0.73724115
0.8819252 1.1296382 1.0197477 0.95881045 1.2664932 -1.0114058 -0.042575534 -0.93223053
2.1331236 1.39278 0.075345725 0.5375895 0.94721955 -0.064561635 -0.1169562 1.2676122
0.06415021 0.40865415 0.41270447 0.06649196 0.972976 -0.19703741 0.24555969 1.1041822
0.12969895 0.20961906 -1.8586323 -0.59802675 -0.6300225 -0.6174225 0.06689463 0.6795288
1.7053499 0.10992486 -0.71378887 1.2929633 -0.21673684 -1.5743985 0.5037997 0.26279348
0.46431458 -0.46001145 -0.5478673 -0.6897155 -0.19363867 -0.2830538 0.71823424 -0.061524745
0.58490014 -0.9472322 -0.8655035 0.81582624 0.29675236 -1.298988 -0.6839948 -0.30380452
00000000: c05c fb3e 7c0b 2540 09e3 5dbe b937 3b3d
00000010: 235d c7bf 21fe d4be 58c8 133f 8136 563f
00000020: d265 3a3f 045b ad3e 7deb 58bf 6137 ef3f
00000030: 295f 5d3e d027 aa3f bc23 233e 5af8 41bf
00000040: 7ae5 cd3d cd38 0f3f 6446 ccbf a181 213f
00000050: 95c0 00c0 12f9 c5bf c55a a7bf 1f52 803f
00000060: 2e4f 423f afdf 1a3f 564f d9be 2dbb aebe
00000070: 4bbc a1bf 7c44 333f 4e89 373f c134 2140
00000080: 1e54 9bbf 9471 7abe 7f38 edbf 7a62 02bf
00000090: 6541 d73b 1f9a 2340 93a2 35be 547c a3be
000000a0: c0f4 c33e 6f5e 32bf 9dc6 08bf 0174 0fbf
000000b0: a6bb b5bf 44c7 d1bf 2a19 953f 1ec6 fdbf
000000c0: daad 82bf 682d 1c3e 1f86 03bf 7e60 85bf
000000d0: d23b 7abf 952a 5f3f 8a09 a8bf 2d13 2dbf
000000e0: 855f c2be 50e1 c83f 54cc 303b 2404 ef3e
000000f0: 953f 5f3e d130 b3bf d4f8 b83f c69a 833f
00000100: cd5f 31be 215f b13e 6616 af3e 0f7b 85bf
00000110: bbdf 10bc f1ca 7b3f 6992 863f 58e8 86bf
00000120: 8765 d73f 85e6 f3bd 0a98 aebe 43a5 43bf
00000130: 4c96 653f 754b 543f 98ac 93be 9416 b83f
00000140: 416e b73f fae7 533f 3a59 3cbe 9f80 273f
00000150: b319 003f 1047 91bd 180b 1abf c8e8 4dbf
00000160: 744f 44be 9209 f9bc a89d 1f40 7562 ee3f
00000170: 17eb 813f 6522 433e 4e28 763f 45b8 9d3d
00000180: 59d8 9fbe 20a3 a43e ae0e 823f 16d1 543f
00000190: b2b3 653e c6f4 e83f c2e6 483f e785 213f
000001a0: 0ec9 e0be 6da8 ccbf 6067 3b40 2c83 17bf
000001b0: b294 0ebe aa36 9d3f 1666 aa3f df59 283f
000001c0: 16fe 0dbf cb5c ddbf bf3e d8be 39da dd3d
000001d0: 2065 173f 59bc 303f a79c edbd b175 503f
000001e0: e11c 7bbe 4e03 4440 d66c 913f 1b68 733e
000001f0: 4b17 5cbe 1634 db3e d9b7 853f 3b71 e33f
00000200: f3ef 053e 29bf 153f b818 ce3e edfd e43f
00000210: a554 263f 04df 01bf 2325 a53e f82b 5bbf
00000220: 7eca 2dbe b8d3 50be a585 6dbf 0f0f b23f
00000230: b7e0 f0be 5428 ae3f b4b8 353f 2584 5b3c
00000240: 2fcd 873f 44ee 03c0 a57e af3f dabc 833f
00000250: e820 c43f 253a 573e 88fd 95be d854 c4be
00000260: 9a2c 6ebf a0f2 f7bf bb01 21be 3099 863f
00000270: 0f3e 3dbf 4afb 583e 8d68 843e 3671 a03e
00000280: 15e0 17c0 f63c 22bf b101 63be 21f6 a7bf
00000290: dd12 1740 de8b 2a3f c76a 043f e44b 07c0
000002a0: 3a59 8e3e c052 ca3e d1b1 2040 557b 45be
000002b0: 94f7 bfbf 5b52 023e 08de 493f 96b5 99bf
000002c0: b903 2f3f 18d5 31be 89c9 bf3d a511 b53f
000002d0: 80e1 ce3e da95 f03e 9aae 293f 6b63 223f
000002e0: f3cc ae3e 55e1 a5bf 0f59 913f dd6c 1740
000002f0: 547e 56bd ac3d d03e b0d0 0abf 8452 853f
00000300: d7d6 1e40 bb19 96be d17a d23d 0d96 4e3f
00000310: 8638 5d3c f7af 883f 735d 61bf d6bb 3c3f
00000320: dac5 613f fc97 903f 1887 823f 9a74 753f
00000330: 731c a23f bf75 81bf af63 2ebd a9a6 6ebf
00000340: 1985 0840 9d46 b23f dc4e 9a3d 779f 093f
00000350: fb7c 723f e438 84bd bb86 efbd 1e41 a23f
00000360: 2f61 833d 1e3b d13e 004e d33e f02c 883d
00000370: f514 793f 2dc4 49be 0074 7b3e d855 8d3f
00000380: cdcf 043e 61a6 563e aae7 edbf 4818 19bf
00000390: 2849 21bf 670f 1ebf 0d00 893d 99f5 2d3f
000003a0: e848 da3f 4920 e13d deba 36bf d27f a53f
000003b0: 43f0 5dbe e485 c9bf 04f9 003f de8c 863e
000003c0: a4ba ed3e 9f86 ebbe 0841 0cbf 3291 30bf
000003d0: 3749 46be 6dec 90be 33de 373f 5f01 7cbd
000003e0: 04bc 153f cf7d 72bf a391 5dbf fdd9 503f
000003f0: edef 973e 3d45 a6bf 491a 2fbf 448c 9bbe

coord_mlp.0.weight f4 [64, 3]
0.22256888 -0.23159733 -0.39258647 -0.143559 0.28889462 0.30652952 -0.27829698 -0.48979247
0.15453659 0.025938347 0.4752815 0.51707643 0.35741296 -0.5358631 0.28661188 -0.00018848639
-0.04037229 -0.20023406 -0.36711004 0.13579376 0.51136196 0.062070157 -0.4124789 -0.016433576
0.46566826 -0.46435085 0.46097645 -0.034421667 -0.275294 0.5571835 -0.51570857 -0.5020083
0.47607526 0.009939271 0.13299792 0.05481336 0.5378909 0.018006276 -0.20719145 0.14997104
0.15555522 -0.10328284 -0.2890344 0.41088808 0.117263295 0.46069467 0.13660611 -0.5683924
0.3054858 -0.06838424 0.16397785 -0.21002701 0.45654985 -0.09026027 -0.20888777 -0.098746926
-0.2754965 0.06960004 -0.28598517 0.033904362 0.40568286 -0.12870468 0.56892294 -0.26712745
0.05618949 -0.4637424 -0.016795116 -0.05427541 0.113641135 0.0026468611 -0.25235316 0.042335693
-0.3847713 0.43361312 -0.45152542 0.27432695 -0.5365501 0.4322558 -0.016059821 0.05596483
-0.5316164 0.04115426 0.16867332 0.29912 0.013636845 -0.5355067 0.29871902 0.1647926
0.06173124 0.23668262 -0.24746124 -0.0050405636 0.0077526267 -0.23275927 -0.0049810256 0.1195524
-0.40061134 -0.03313884 -0.17699656 -0.45341456 -0.021896392 0.14264956 -0.11152684 0.06746427
0.027970767 0.5745632 -0.08383035 0.30883121 -0.32343018 0.024906144 0.4937388 -0.33332828
-0.45486778 -0.36830363 0.329197 -0.18126981 0.36176932 -0.5681664 -0.41231233 -0.02348992
-0.39310384 -0.16286464 -0.56795627 0.07501103 -0.18181579 0.52020407 -0.09784289 -0.24698517
0.3968978 0.49158582 -0.2649075 -0.4685745 0.4238263 0.5430993 -0.2056575 0.32666948
0.45951894 -0.28008243 -0.4572635 -0.27921852 0.32360658 -0.14176162 0.1479517 0.5232623
0.16393127 -0.35978127 0.28722426 -0.5262553 0.001034267 0.13682617 -0.40393996 0.020808894
0.30014914 0.48625448 0.5519664 -0.14065285 -0.1944854 0.3010771 -0.2852345 0.33619925
-0.26922563 0.12578982 -0.069919944 0.15935864 -0.110143445 -0.056273505 -0.45903867 0.539574
-0.18926857 -0.4588535 0.22404134 0.55340594 -0.3115593 0.048156176 0.09299132 0.005807675
0.22073169 -0.15869778 -0.33977264 0.3345563 -0.568074 0.17179057 -0.41305774 0.13051423
0.09662065 0.055864736 0.34467077 0.3444954 -0.4751491 -0.2492808 0.09728627 -0.4942824
00000000: 19e9 633e da27 6dbe 1801 c9be 2101 13be
00000010: ffe9 933e 70f1 9c3e f17c 8ebe 14c6 fabe
00000020: d73e 1e3e a87c d43c 1958 f33e 1f5f 043f
00000030: d5fe b63e 532e 09bf cbbe 923e 6ea4 45b9
00000040: 6a5d 25bd 280a 4dbe d9f5 bbbe 850d 0b3e
00000050: 9ee8 023f 473d 7e3d 6f30 d3be b59f 86bc
00000060: 126c ee3e 65bf edbe 1b05 ec3e bcfd 0cbd
00000070: 56f3 8cbe 94a3 0e3f 7a05 04bf 9e83 00bf
00000080: 23c0 f33e 53d8 223c 9b30 083e f983 603d
00000090: 38b3 093f e681 933c ff29 54be 0292 193e
000000a0: de49 1f3e f485 d3bd 51fc 93be ec5f d23e
000000b0: bd27 f03d 2ce0 eb3e 79e2 0b3e 2a82 11bf
000000c0: a368 9c3e 090d 8cbd cfe9 273e 5211 57be
000000d0: e7c0 e93e 60da b8bd ade6 55be d43b cabd
000000e0: e10d 8dbe 778a 8e3d a66c 92be 4ddf 0a3d
000000f0: aab5 cf3e 29cb 03be efa4 113f eec4 88be
00000100: f326 663d a56f edbe e995 89bc e44f 5ebd
00000110: afbc e83d f676 2d3b 6f34 81be 3168 2d3d
00000120: be00 c5be 8a02 de3e 572e e7be 9574 8c3e
00000130: 595b 09bf a250 dd3e e38f 83bc 613b 653d
00000140: 0318 08bf 5f91 283d b3b8 2c3e 4226 993e
00000150: 136d 5f3c f816 09bf b3f1 983e 64bf 283e
00000160: e6d9 7c3d ee5c 723e 7b66 7dbe 502b a5bb
00000170: bf09 fe3b 7258 6ebe df37 a3bb e4d7 f43d
00000180: ee1c cdbe 98bc 07bd 963e 35be f425 e8be
00000190: 1060 b3bc ba12 123e 2f68 e4bd b52a 8a3d
000001a0: f322 e53c 9316 133f 3faf abbd 201f 9e3e
000001b0: a498 a5be f807 cc3c 55cb fc3e 01aa aabe
000001c0: 6ee4 e8be 4b92 bcbe 828c a83e cb9e 39be
000001d0: d439 b93e 5a73 11bf 9a1a d3be ef6d c0bc
000001e0: e844 c9be fdc5 26be 9565 11bf 629f 993d
000001f0: eb2d 3abe 182c 053f da61 c8bd aee9 7cbe
00000200: 3036 cb3e 23b1 fb3e f5a1 87be ffe8 efbe
00000210: c3ff d83e 8e08 0b3f e197 52be 3941 a73e
00000220: 1146 eb3e f766 8fbe 711e eabe bbf5 8ebe
00000230: c3af a53e f529 11be a780 173e 85f4 053f
00000240: 99dd 273e 4035 b8be 0f0f 933e abb8 06bf
00000250: 3e90 873a 291c 0c3e 38d1 cebe 6a77 aa3c
00000260: 26ad 993e 59f6 f83e ac4d 0d3f 4d07 10be
00000270: 2e27 47be c726 9a3e 420a 92be 4f22 ac3e
00000280: f1d7 89be 0ccf 003e 3032 8fbd e92e 233e
00000290: e392 e1bd 0c7f 66bd 1e07 ebbe 8621 0a3f
000002a0: 9fcf 41be d9ee eabe 186b 653e 03ac 0d3f
000002b0: b384 9fbe 693f 453d 3c72 be3d 4f4e be3b
000002c0: 7d07 623e ac81 22be aef6 adbe f74a ab3e
000002d0: 4c6d 11bf dee9 2f3e 4e7c d3be 86a5 053e
000002e0: 0ce1 c53d 6cd2 643d b078 b03e b361 b03e
000002f0: be46 f3be 7743 7fbe 063e c73d 9512 fdbe

coord_mlp.0.bias f4 [64]
-0.35244903 -0.17973483 -0.25033012 -0.15186284 0.0853577 -0.3310317 0.53906655 0.39007863
0.517051 0.39368623 0.12307947 0.52666587 -0.338676 -0.03857874 0.20248592 0.54939395
-0.14873916 0.44428867 0.28729987 0.46823037 0.23098545 0.54117876 -0.5699392 0.4966759
0.027998857 -0.035894774 0.16505077 -0.39511418 0.43197256 -0.5548813 -0.4883639 -0.18267438
0.5732257 0.16036204 -0.19450456 0.37854198 0.26082084 -0.22052374 -0.055538453 0.14180335
-0.20167458 0.21211794 -0.041628093 0.47406778 -0.30536196 -0.30843535 -0.5135316 0.32737768
0.54911995 0.30239385 0.04554977 0.46383676 0.5661272 -0.07873107 0.5669667 -0.2613903
0.24705103 0.113393955 0.29310483 -0.068620265 0.03881163 -0.5564731 -0.2980287 -0.34978956
00000000: 3374 b4be 680c 38be 452b 80be ef81 1bbe
00000010: 05d0 ae3d fd7c a9be 4400 0a3f 63b8 c73e
00000020: 745d 043f 3e91 c93e 1711 fc3d 93d3 063f
00000030: f166 adbe be04 1ebd 7858 4f3e 15a5 0c3f
00000040: 144f 18be ce79 e33e f818 933e e4bb ef3e
00000050: 7387 6c3e b18a 0a3f 89e7 11bf 4e4c fe3e
00000060: dc5d e53c 6606 13bd 1203 293e 684c cabe
00000070: 822b dd3e b30c 0ebf d50a fabe fe0e 3bbe
00000080: ebbe 123f f235 243e 342c 47be 41d0 c13e
00000090: 4f8a 853e fad0 61be 4a7c 63bd e634 113e
000000a0: c883 4ebe 7235 593e 3882 2abd 03b9 f23e
000000b0: 6758 9cbe 3deb 9dbe cf76 03bf 0c9e a73e
000000c0: 2093 0c3f 5ed3 9a3e 6592 3a3d 037c ed3e
000000d0: b6ed 103f c13d a1bd bb24 113f f3d4 85be
000000e0: f2fa 7c3e 173b e83d d611 963e c888 8cbd
000000f0: f2f8 1e3d 0575 0ebf 3897 98be 9e17 b3be

coord_mlp.2.weight f4 [64, 64]
-0.06677764 0.007671757 -0.022085384 -0.037031874 -0.01816334 -0.019105855 -0.058159135 0.05502206
0.057368193 0.046425402 -0.07045405 -0.017592104 0.048500985 -0.0025078936 -0.052750338 0.026452806
0.08535645 -0.01890597 0.061142728 -0.08786088 0.12353465 -0.02106649 0.024961486 -0.12223268
-0.07176709 -0.11393589 -0.1282693 0.0074680666 0.09058652 -0.058823895 -0.0469236 0.10609606
0.10432582 0.08726387 0.108026676 -0.091802225 -0.066747285 -0.10155114 -0.058570553 -0.032404553
0.07634117 0.12420008 -0.007046861 0.00804631 0.10798278 -0.061278474 -0.059794288 -0.07480164
-0.07440796 0.020048741 0.0031746451 0.10064623 0.051296048 0.1133036 0.016929824 0.055615224
-0.043213356 -0.009911394 -0.11673369 0.013727704 0.0143931685 -0.050919373 0.048475303 -0.11303331
-0.039784037 0.031773023 0.02337536 0.05635398 -0.061718 -0.113632925 0.081574 0.06009126
0.08912361 0.10223609 0.11935019 0.08018553 -0.1238725 0.0027723075 0.10358834 -0.089338005
-0.0078356555 0.0499633 0.043998264 -0.07993711 0.017106865 -0.021310005 -0.024497423 -0.03191102
0.06930412 -0.13118124 -0.03637676 -0.11692428 0.11469186 0.024124317 -0.113484904 0.044538293
-0.07064082 -0.029616667 -0.065946065 0.0052979575 0.090313 -0.013358499 0.035505958 -0.0130876405
-0.07864287 -0.10865054 -0.060875766 -0.03239203 -0.0302437 -0.10978813 0.037482318 0.04902315
0.046640806 0.052691136 0.12713705 0.039659683 -0.09400305 -0.101920046 -0.080841586 0.07373716
-0.11201517 -0.041637152 0.07805259 0.03612247 -0.017023543 -0.07310839 -0.03301461 0.022954814
0.08463151 -0.061977636 -0.09552499 -0.05041384 -0.09660836 0.002359869 0.015307645 -0.02218018
-0.020555882 -0.12710734 -0.100504085 0.06461662 0.016657755 0.104723945 -0.09499451 0.14193198
0.10887823 0.10403479 -0.11767401 -0.12282558 0.09866344 0.0182672 -0.08393517 -0.03587321
-0.035110198 0.055163033 -0.012332418 -0.007903294 -0.040809836 -0.07902504 -0.040458757 -0.006709708
-0.02838436 -0.06092892 0.015726686 0.05554189 -0.12044089 -0.05736081 0.11798621 -0.026849825
-0.01575016 0.027507694 0.063075446 -0.063671485 0.048150644 0.08788541 0.022672184 -0.010449374
-0.057191294 -0.08945984 -0.16792502 -0.10575195 0.02622734 0.025941247 -0.050787702 0.11509511
-0.017054472 -0.09663079 -0.11749218 0.11536847 -0.036071792 0.006781851 -0.051505066 -0.116713166
0.04375878 -0.043420117 0.0910219 -0.01024277 0.041181035 0.007865705 0.05534405 -0.1257387
-0.08436857 -0.0941258 -0.012970878 0.11323896 0.025528524 -0.03467634 0.027781565 -0.059576742
0.015445234 0.0846534 -0.11760795 -0.098032534 -0.04180232 -0.084910154 0.06677255 0.01932206
-0.11420083 0.082364954 -0.11492467 -0.011329853 0.062426124 0.024150891 -0.12143484 0.112274006
0.04057102 -0.12964518 0.11007247 0.095910214 -0.06303724 -0.0049913255 -0.10285566 -0.045289736
0.01191876 0.039127998 0.100499086 0.054917745 -0.098128125 0.0821709 -0.10364287 0.06493303
-0.09388961 0.012798074 -0.07238589 0.017911728 0.083936654 0.0037825133 -0.044261415 0.08401621
-0.030962782 0.092932366 0.043449778 -0.042206988 0.08782275 -0.0039862413 -0.057351444 0.09661523
00000000: b7c2 88bd 5d63 fb3b 68ec b4bc bcae 17bd
00000010: 49cb 94bc e283 9cbc 4638 6ebd d05e 613d
00000020: e9fa 6a3d 9028 3e3d 374a 90bd 511d 90bc
00000030: f8a8 463d 795b 24bb bd10 58bd 8eb3 d83c
00000040: 5dcf ae3d b1e0 9abc cc70 7a3d 68f0 b3bd
00000050: bcff fc3d a293 acbc 087c cc3c 2155 fabd
00000060: a0fa 92bd 3857 e9bd 0759 03be afb6 f43b
00000070: 6d85 b93d 53f1 70bd f632 40bd e448 d93d
00000080: c7a8 d53d 66b7 b23d 173d dd3d ce02 bcbd
00000090: cdb2 88bd 0bfa cfbd ade7 6fbd a3ba 04bd
000000a0: c258 9c3d 9d5c fe3d 5be9 e6bb acd4 033c
000000b0: 1326 dd3d 23ff 7abd dbea 74bd 9a31 99bd
000000c0: 3363 98bd 423d a43c b50d 503b 9c1f ce3d
000000d0: ce1b 523d b80b e83d 6ab0 8a3c cacc 633d
000000e0: 7d00 31bd 6663 22bc 1312 efbd 2aea 603c
000000f0: 53d1 6b3c d590 50bd 0a8e 463d 027e e7bd
00000100: 96f4 22bd 6e24 023d af7d bf3c 6ed3 663d
00000110: 03cc 7cbd 61b8 e8bd 4510 a73d 4122 763d
00000120: 7086 b63d 2861 d13d df6d f43d 5038 a43d
00000130: deb0 fdbd 9aaf 353b 2026 d43d d8f6 b6bd
00000140: 1f61 00bc 51a6 4c3d 8637 343d 11b6 a3bd
00000150: b223 8c3c 5292 aebc d2ae c8bc 21b5 02bd
00000160: 52ef 8d3d 6054 06be ccff 14bd ff75 efbd
00000170: 91e3 ea3d 5ca0 c53c c66a e8bd c96d 363d
00000180: 22ac 90bd a79e f2bc bb0e 87bd 7d9a ad3b
00000190: 06f6 b83d 9bdd 5abc b26e 113d 8b6d 56bc
000001a0: 830f a1bd 2d84 debd de58 79bd 81ad 04bd
000001b0: a3c1 f7bc 99d8 e0bd 0f87 193d 80cc 483d
000001c0: 6e0a 3f3d a9d2 573d 3730 023e 3172 223d
000001d0: ac84 c0bd 75bb d0bd 4690 a5bd 8203 973d
000001e0: 3668 e5bd b88b 2abd 09da 9f3d 28f5 133d
000001f0: f574 8bbc dab9 95bd 543a 07bd bc0b bc3c
00000200: 4953 ad3d 43dc 7dbd 9ba2 c3bd be7e 4ebd
00000210: 9bda c5bd 08a8 1a3b ebcc 7a3c 35b3 b5bc
00000220: cf64 a8bc 6d28 02be 16d5 cdbd b855 843d
00000230: d875 883c 8279 d63d 7b8c c2bd 9e56 113e
00000240: 8dfb de3d 3110 d53d 12ff f0bd fa8b fbbd
00000250: 0f10 ca3d 18a5 953c 34e6 abbd c9ef 12bd
00000260: b6cf 0fbd a2f2 613d e90d 4abc d17c 01bc
00000270: 3728 27bd e1d7 a1bd 15b8 25bd 1cdd dbbb
00000280: 5186 e8bc 9a90 79bd 40d5 803c e57f 633d
00000290: b7a9 f6bd 2bf3 6abd c1a2 f13d 2af4 dbbc
000002a0: 7b06 81bc d157 e13c b32d 813d 3266 82bd
000002b0: 9c39 453d 44fd b33d 04bb b93c da33 2bbc
000002c0: 6b41 6abd b836 b7bd 89f4 2bbe 7a94 d8bd
000002d0: b8da d63c bd82 d43c c406 50bd fcb6 eb3d
000002e0: d2b5 8bbc 5de6 c5bd bd9f f0bd 4e46 ec3d
000002f0: 04c0 13bd 4a3a de3b faf6 52bd 5007 efbd
00000300: 683c 333d 4bd9 31bd b169 ba3d 4bd1 27bc
00000310: 72ad 283d 28df 003c 71b0 623d a5c1 00be
00000320: 6ec9 acbd 07c5 c0bd ce83 54bc d4e9 e73d
00000330: 3221 d13c c708 0ebd 2a96 e33c be06 74bd
00000340: 020e 7d3c c35e ad3d 70dc f0bd 48c5 c8bd
00000350: e938 2bbd 60e5 adbd 0cc0 883d 4c49 9e3c
00000360: 20e2 e9bd f5ae a83d a05d ebbd d9a0 39bc
00000370: 89b2 7f3d 17d8 c53c d4b2 f8bd eaef e53d
00000380: cc2d 263d b5c1 04be ad6d e13d 936c c43d
00000390: ab19 81bd 468e a3bb fda5 d2bd bb81 39bd
000003a0: e746 433c ae44 203d 77d2 cd3d 6ef1 603d
000003b0: 66f7 c8bd 3849 a83d b742 d4bd 9cfb 843d
000003c0: 3249 c0bd 03af 513c 0e3f 94bd 9ebb 923c
000003d0: fbe6 ab3d 0be4 773b 754b 35bd b110 ac3d
000003e0: a9a5 fdbc 5353 be3d 65f8 313d 3ce1 2cbd
000003f0: 6adc b33d 049f 82bb 59e9 6abd 35de c53d

coord_mlp.2.bias f4 [64]
-0.035580907 0.0843439 -0.1092965 -0.025057275 -0.04324846 -0.05555672 0.018693283 -0.015749598
-0.10304896 -0.08780459 0.087655224 0.07729543 -0.063270375 0.055290613 -0.011496543 0.043576658
-0.10466294 0.0855845 0.036535192 0.037174612 0.102779776 0.003027647 0.012441797 0.064383045
-0.045660518 -0.09354645 0.09168264 -0.010074374 0.019883027 -0.10730603 0.06976768 -0.030436534
-0.11209566 -0.034544043 -0.061114147 -0.12150834 0.059641615 -0.03248697 -0.0932357 0.107028395
-0.11669512 0.031457704 0.04137189 -0.06829222 -0.0029833568 -0.029568348 -0.098016866 -0.0614712
-0.037648093 0.02923339 0.044479337 0.055394802 0.06688791 -0.10694551 -0.060577374 0.10974661
0.035504114 0.02105891 -0.08120223 0.10051981 -0.015016583 0.004242148 -0.09810849 0.0530321
00000000: 49bd 11bd 7fbc ac3d d8d6 dfbd ea44 cdbc
00000010: 4c25 31bd 718f 63bd a822 993c 4d05 81bc
00000020: 550b d3bd e5d2 b3bd 9584 b33d 114d 9e3d
00000030: e693 81bd 6978 623d ff5b 3cbc 707d 323d
00000040: 8659 d6bd ed46 af3d eda5 153d 6844 183d
00000050: 347e d23d 7d6b 463b aed8 4b3c 42db 833d
00000060: 8606 3bbd 4895 bfbd 1cc4 bb3d fd0e 25bc
00000070: bbe1 a23c 44c3 dbbd 5be2 8e3d 0a56 f9bc
00000080: 6992 e5bd 0e7e 0dbd d452 7abd 5dd9 f8bd
00000090: c44a 743d 0f11 05bd 5cf2 bebd b431 db3d
000000a0: dafd eebd cbd9 003d 9275 293d cbdc 8bbd
000000b0: 6c84 43bb 5239 f2bc 11bd c8bd 3ac9 7bbd
000000c0: e334 1abd dd7a ef3c f72f 363d a9e5 623d
000000d0: 87fc 883d 3f06 dbbd fb1f 78bd d5c2 e03d
000000e0: c36c 113d bc83 ac3c 5b4d a6bd 55dd cd3d
000000f0: 1d08 76bc b701 8b3b 1bed c8bd 3038 593d

energy_mlp.0.weight f4 [64, 64]
0.09081702 0.109152585 -0.06647973 -0.06363243 -0.03913507 0.040025707 -0.0032079676 0.085582405
0.028877147 -0.10882802 -0.016798856 0.02796417 0.08957197 -0.118164875 -0.06251875 -0.05397232
-0.0056463173 0.11135463 0.03814502 0.120401956 -0.08336325 0.1181705 0.11695947 0.04086339
-0.068595074 0.021120243 0.0063749743 0.04370734 -0.07266467 -0.03369941 -0.077982485 -0.007909985
0.10290713 0.054591414 -0.110091254 -0.028209133 -0.024447745 0.048828416 0.047446012 -0.046019442
-0.027572336 0.11061461 0.092552796 0.063016765 0.02446706 0.09120221 -0.12708284 0.06713316
-0.05447256 0.0027031687 -0.11110198 0.014653995 0.09947366 0.053963225 0.052760888 -0.12020048
0.060133636 -0.015227288 0.07121319 0.059470642 -0.043505564 0.095189296 0.11348349 -0.05192593
0.052041136 0.0074768676 0.079124354 0.10183407 -0.09564921 -0.0057414873 -0.01578447 -0.014937267
-0.090534575 0.0049474826 -0.082051024 -0.1068846 -0.033823553 0.0033663271 0.0948419 0.0075922734
-0.066595376 -0.09580465 0.10090669 0.026193036 0.038148496 0.025981145 -0.10332481 0.122023046
-0.04559899 -0.01475365 -0.07577142 -0.04999306 -0.03658514 0.050751597 0.09152693 0.096378006
0.009058501 -0.05006779 -0.10632596 -0.11249238 0.054938864 -0.058848485 -0.02403838 -0.07816213
0.04612979 0.11226474 0.11571939 0.020735092 -0.092403434 -0.08111557 0.085174985 0.035376996
0.04328461 0.11261248 0.12717628 0.11707944 0.11081198 -0.064398214 -0.06480742 0.06588865
0.10876179 0.038855325 0.06826196 0.06533169 0.13364375 -0.0688508 -0.0062812194 0.030296262
-0.052089404 0.09186168 -0.06521223 0.08333484 -0.02810722 0.011052476 -0.08808423 0.0388032
0.014017797 0.077274516 0.07812487 -0.060925927 -0.005538852 -0.0004594094 -0.10621154 -0.10145017
-0.09013113 0.011565735 0.03238877 -0.01882629 -0.054618023 -0.052003823 -0.013088291 0.05308703
-0.095821284 0.08584559 -0.053721204 0.03574759 -0.10524086 0.036659364 0.031270705 0.03928229
-0.09038516 -0.07439784 0.08157259 -0.033797875 -0.10196484 0.11094929 -0.04364852 0.04414206
0.09815521 -0.036414508 -0.048469108 -0.1175508 -0.032548785 -0.02319749 -0.06370423 -0.010012765
-0.0047316267 -0.028364953 0.043663 -0.116197415 -0.012952531 -0.05198844 0.10791363 -0.09363765
-0.020383924 0.08552217 0.04149114 0.024994718 0.0050729956 -0.120368585 -0.020260582 0.031824015
-0.108435415 -0.033976644 0.090165466 -0.049414128 -0.12483062 0.12062249 0.0064474633 -0.066748284
-0.04733364 0.0017767259 -0.09304418 -0.003455066 -0.058604486 0.08815602 0.09018461 0.09814401
-0.031320516 0.08535887 -0.06935525 0.0007405465 0.082698226 -0.11313779 0.04952119 0.035586838
-0.06048152 0.009590902 -0.10853407 -0.07079764 0.07748074 -0.039738983 0.06975149 -0.11945757
0.005477665 -0.11571341 0.020442173 0.12247104 -0.03363486 -0.11632808 0.010200352 -0.08167218
0.053175338 -0.045138918 -0.012729914 -0.047744922 0.08985779 -0.07163639 -0.10166085 -0.102490135
-0.0091443 -0.09201292 -0.021561 0.04213504 0.0063617523 -0.048460837 -0.10965378 0.11494534
0.11460542 0.10702514 -0.012995485 -0.08577891 0.07939775 -0.06953654 0.07037726 -0.08202245
00000000: 46fe b93d 648b df3d 8626 88bd b851 82bd
00000010: 184c 20bd fff1 233d c43c 52bb d445 af3d
00000020: c48f ec3c 3ae1 debd c19d 89bc 1d15 e53c
00000030: 8271 b73d 6d00 f2bd d509 80bd 1412 5dbd
00000040: be04 b9bb e50d e43d f43d 1c3d 4d95 f63d
00000050: 5aba aabd 6003 f23d 7288 ef3d 5f60 273d
00000060: 937b 8cbd 5c04 ad3c 29e5 d03b 7806 333d
00000070: 37d1 94bd 6408 0abd 48b5 9fbd e298 01bc
00000080: f9c0 d23d 3f9b 5f3d 8677 e1bd d716 e7bc
00000090: a346 c8bc 4e00 483d c056 423d e27e 3cbd
000000a0: 61df e1bc ea89 e23d 528c bd3d ef0e 813d
000000b0: 256f c83c 39c8 ba3d 0122 02be 1c7d 893d
000000c0: 9e1e 5fbd a527 313b 6f89 e3bd 4f17 703c
000000d0: d9b8 cb3d 8b08 5d3d cd1b 583d ab2b f6bd
000000e0: b04e 763d e07b 79bc 39d8 913d 7d97 733d
000000f0: e432 32bd 9bf2 c23d 086a e83d 49b0 54bd
00000100: 1629 553d 8300 f53b f30b a23d 628e d03d
00000110: bce3 c3bd 1623 bcbb 6f4e 81bc 70bb 74bc
00000120: 316a b9bd 7e1e a23b 5e0a a8bd 50e6 dabd
00000130: 918a 0abd 999d 5c3b 783c c23d 9bc8 f83b
00000140: 2863 88bd 3a35 c4bd 2ba8 ce3d c792 d63c
00000150: 9941 1c3d 69d6 d43c f59b d3bd 38e7 f93d
00000160: 02c6 3abd 4bb9 71bc 0c2e 9bbd 86c5 4cbd
00000170: 4dda 15bd e8e0 4f3d 7972 bb3d d561 c53d
00000180: 1b6a 143c e213 4dbd 6dc1 d9bd 6862 e6bd
00000190: 9307 613d 1c0b 71bd 23ec c4bc 7813 a0bd
000001a0: 97f2 3c3d 0eeb e53d 4afe ec3d a4dc a93c
000001b0: 033e bdbd ec1f a6bd 3970 ae3d 78e7 103d
000001c0: 344b 313d 5fa1 e63d 803a 023e 58c7 ef3d
000001d0: 64f1 e23d 36e3 83bd c1b9 84bd a1f0 863d
000001e0: 80be de3d c326 1f3d edcc 8b3d 9fcc 853d
000001f0: e8d9 083e a601 8dbd b0d2 cdbb de2f f83c
00000200: b35b 55bd fa21 bc3d fd8d 85bd 75ab aa3d
00000210: 1d41 e6bc 7215 353c 8165 b4bd 1bf0 1e3d
00000220: e7aa 653c 1a42 9e3d efff 9f3d 778d 79bd
00000230: 427f b5bb e3dc f0b9 7085 d9bd 1bc5 cfbd
00000240: ab96 b8bd 357e 3d3c 16aa 043d 9739 9abc
00000250: 26b7 5fbd f601 55bd 4570 56bc c971 593d
00000260: f33d c4bd d0cf af3d c40a 5cbd 116c 123d
00000270: 8588 d7bd 2128 163d b615 003d 77e6 203d
00000280: db1b b9bd e55d 98bd 880f a73d a46f 0abd
00000290: f1d2 d0bd 6239 e33d cac8 32bd 4ece 343d
000002a0: 9905 c93d 6127 15bd 8b87 46bd 79be f0bd
000002b0: e051 05bd aa08 bebc 5d77 82bd 950c 24bc
000002c0: c30b 9bbb 9e5d e8bc f9d7 323d e9f8 edbd
000002d0: da36 54bc d5f1 54bd d201 dd3d 19c5 bfbd
000002e0: 30fc a6bc 3f26 af3d 9df2 293d b9c1 cc3c
000002f0: 5f3b a63b ce83 f6bd 85f9 a5bc e659 023d
00000300: 6313 debd 182b 0bbd aca8 b83d 7866 4abd
00000310: 32a7 ffbd ed08 f73d 3e45 d33b 53b3 88bd
00000320: ebe0 41bd 07e1 e83a f28d bebd 636e 62bb
00000330: 420b 70bd 258b b43d b5b2 b83d baff c83d
00000340: f149 00bd a2d0 ae3d 200a 8ebd 3c21 423a
00000350: b05d a93d c9b4 e7bd bbd6 4a3d 81c3 113d
00000360: 78bb 77bd 2923 1d3c 1c47 debd 5afe 90bd
00000370: 39ae 9e3d 58c5 22bd dfd9 8e3d 2ca6 f4bd
00000380: fc7d b33b 27fb ecbd 5876 a73c 19d2 fa3d
00000390: b5c4 09bd 6b3d eebd 611f 273c be43 a7bd
000003a0: 62ce 593d 96e3 38bd 2191 50bc 2e90 43bd
000003b0: 5c07 b83d 1ab6 92bd 9033 d0bd 59e6 d1bd
000003c0: f9d1 15bc 4571 bcbd b2a0 b0bc cb95 2c3d
000003d0: 3f76 d03b df7e 46bd 2992 e0bd 7668 eb3d
000003e0: 3fb6 ea3d ff2f db3d 04eb 54bc daac afbd
000003f0: 4a9b a23d 2c69 8ebd f421 903d 63fb a7bd

energy_mlp.0.bias f4 [64]
-0.01242396 0.0031932797 -0.017728692 0.11964268 -0.065819554 0.06742973 -0.010522887 0.047971874
-0.07127928 0.016011238 0.039016467 0.10072364 0.013344215 -0.0033856188 -0.004737161 -0.004927395
-0.015540862 -0.10757398 -0.04512516 0.0134170465 -0.074240156 0.055485044 0.10745733 0.090675905
0.09863944 -0.048743922 0.024974968 -0.12062513 -0.014512082 -0.12181662 -0.0429846 0.011572675
0.06212652 0.07062048 0.10080615 -0.060604263 0.08699612 0.062201053 0.12617168 -0.037778
0.11620482 0.024961328 -0.06815451 0.0471395 -0.007163543 0.050955884 0.024887217 0.03983657
-0.10049934 0.014393503 -0.0075263 0.058651656 0.0596655 0.0077416124 -0.033850163 -0.11230269
-0.025925573 -0.027630897 0.063340954 -0.06455531 0.088337265 0.027506068 -0.06181645 -0.12158828
00000000: dd8d 4bbc 5846 513b c33b 91bc 3907 f53d
00000010: 67cc 86bd 9918 8a3d 3068 2cbc 287e 443d
00000020: dffa 91bd 002a 833c bbcf 1f3d 3248 ce3d
00000030: b2a1 5a3c 42e1 5dbb 303a 9bbb fc75 a1bb
00000040: 1a9f 7ebc bf4f dcbd 29d5 38bd 2cd3 5b3c
00000050: 390b 98bd 4944 633d 9712 dc3d 4ab4 b93d
00000060: 7a03 ca3d b5a7 47bd 4e98 cc3c 4f0a f7bd
00000070: 15c4 6dbc fe7a f9bd 9f10 30bd 519b 3d3c
00000080: 6178 7e3d 78a1 903d 7473 ce3d 2d3c 78bd
00000090: 062b b23d 88c6 7e3d 2633 013e 1bbd 1abd
000000a0: cbfc ed3d b37b cc3c 9794 8bbd 5915 413d
000000b0: 27bc eabb 1eb7 503d 47e0 cb3c ac2b 233d
000000c0: 99d2 cdbd bad2 6b3c 2e9f f6bb b83c 703d
000000d0: d063 743d 5aad fd3b 78a6 0abd f4fe e5bd
000000e0: de61 d4bc 315a e2bc e7b8 813d 9335 84bd
000000f0: 2bea b43d 6854 e13c 3f33 7dbd 4703 f9bd

energy_mlp.2.weight f4 [1, 64]
0.0023396122 -0.007556365 0.115279995 0.032781262 -0.00017164543 0.015972648 -0.05168418 0.026276963
-0.030181535 0.047288846 0.039753523 0.04315747 0.076989375 -0.054473173 -0.07710571 0.02669164
0.07863309 0.09334933 -0.10298734 -0.07993631 -0.046673425 -0.00010314038 -0.052554477 0.00021083129
-0.023070727 0.030750757 -0.008657455 -0.07833123 -0.038273085 -0.037619907 0.08399779 -0.0018806086
0.02399456 0.09860886 0.019941188 0.026787056 -0.111583754 -0.056072798 0.08279124 0.0032782233
-0.03479052 -0.09612674 -0.02971569 -0.0037581357 0.090287834 0.09429422 -0.108854935 -0.086647786
0.005529397 -0.004891743 -0.04017586 0.04184129 0.051009953 -0.07103945 -0.015604955 0.101770766
0.015579593 0.00035396346 -0.10974836 0.018238155 -0.00021013837 0.047191158 -0.03316852 0.012074708
00000000: 2e54 193b 629b f7bb eb17 ec3d a545 063d
00000010: b8fb 33b9 12d9 823c cab2 53bd c942 d73c
00000020: 443f f7bc f3b1 413d 97d4 223d e3c5 303d
00000030: 9bac 9d3d 431f 5fbd 99e9 9dbd 6da8 da3c
00000040: 630a a13d ef2d bf3d 07eb d2bd a6b5 a3bd
00000050: a22c 3fbd 124d d8b8 5d43 57bd 9812 5d39
00000060: d2fe bcbc 03e9 fb3c 00d8 0dbc 206c a0bd
00000070: 3dc4 1cbd 5517 1abd 0907 ac3d c17e f6ba
00000080: 3d90 c43c 71f3 c93d b45b a33c 8770 db3c
00000090: 0686 e4bd 97ac 65bd 748e a93d 76d7 563b
000000a0: 8180 0ebd 19de c4bd 526e f3bc 0e4b 76bb
000000b0: d4e8 b83d 541d c13d 56ef debd 6574 b1bd
000000c0: f22f b53b ea4a a0bb 718f 24bd c661 2b3d
000000d0: d0ef 503d 227d 91bd edab 7fbc 316d d03d
000000e0: 8d41 7f3c 2c94 b939 c0c3 e0bd 2f68 953c
000000f0: 9758 5cb9 844b 413d b7db 07bd ffd4 453c
