trained_model_minimal.pth (torch, 38545 bytes, 7 tensors)

coord_mlp.0.weight f4 [64, 3]
00000000: 8e03 963e cf79 ee3d cf29 e63e 2de8 003f
00000010: 85c0 b43d 730a c5be f6ce 783e 7518 fcbb
00000020: 4652 0abe a789 a03e 585f c33e 5f2f b0be
00000030: 781d 053f 4e77 aabe 9ee7 083f 84d8 d5be
00000040: 9b67 f5be 4edf 973d b1bf d9be 5ff6 813d
00000050: a5b1 fd3e 5753 e2be daf7 c4be 17df 17bc
00000060: 507c 0a3e 20d4 8a3e 0384 e4be 4e83 a23e
00000070: e33c e13e 2cf2 d1be e2f7 8ebe a653 0d3e
00000080: 9cff 8ebe fe98 7d3e d3aa 033f 2a95 423e
00000090: 3931 4d3e c79c 1ebe 8415 92be 65c3 2bbd
000000a0: 788f 03bf 4ca6 33bd 3575 083f 6a46 38bd
000000b0: 4116 0cbd 859c 0fbe 020f d7bd ab10 ccbe
000000c0: 3f4f 0e3e 70ac b13e c41e 3f3d c89a 0abe
000000d0: f273 8d3e 8ef7 9c3d d119 a83e 550e 0bbd
000000e0: 6fbe 6dbe ab18 c93d 812c eb3e de74 bbbe
000000f0: f165 90bd d589 263e c054 babe 1a27 4dbb
00000100: 7cf8 7c3e a0e2 d3be c209 31be cf8a c03e
00000110: 95ef 47be a621 e53e 4d7e c93d f9e3 12bf
00000120: b717 0f3f eadb fdbe 6233 d03e 4fad aabb
00000130: 9a85 223e 691c 09bf 7ae4 ce3e 2b39 bdbe
00000140: 616e e2bd 1bdc e13e b890 1c3e 95fa 3abe
00000150: f233 cfbe d9ed 6f3c bdc3 d63e e115 203e
00000160: 4156 3abe 85b5 333e f4bd 26be 5bf7 d63d
00000170: fd89 c8be 9d9a 163b f4de 1a3e e49d c53e
00000180: 7206 bebe 7f37 00bf f13a b1be c040 13be
00000190: 2c2a 643e 9992 36be e96d a53d 1987 d7be
000001a0: 514a 433e e870 ea3d 8f25 5e3d 478b edbd
000001b0: 95a6 e2bd 0011 e03e 494e 883e 0267 6f3e
000001c0: 6941 ac3e 709f b6be 3d26 83bd 8e8f dd3e
000001d0: 712d 82be 20b9 e83d 6805 b53e cfbc b93e
000001e0: 72b1 8d3e ebea 103f 4084 983e 6138 20be
000001f0: 3745 f73e 596a 123f f542 333e f324 8b3e
00000200: acb5 93be 2880 e0be cad0 11be 1e7a a43e
00000210: 1e60 78be d331 06bf 52b8 99be a8d7 023e
00000220: c9c0 e23e 6474 6b3e 2630 d9be a56c 043f
00000230: 8c1f 02bd f6a1 e93e 9bf3 3b3e 0d6f 87bc
00000240: 8491 02bd ee16 44be 3396 adbe b4d4 cdbc
00000250: a43b 08bf ea45 1a3e 6098 013f 06f8 dcbe
00000260: 21e9 223d 876f 0ebe 3c24 cf3e 831e 82be
00000270: 0c3e 2fbe 5328 0a3e ef54 b43d e71c 6f3e
00000280: 2a6c a63e 9e56 44be 525b 3a3e 99f4 9fbe
00000290: 1cc1 38be 53ed 7dbe 0a84 9ebe 9644 66bd
000002a0: 16e4 bbbe b702 93bd dade a6be e06e 743e
000002b0: 86d2 b83e 5251 eabe 407d fa3e 051e 463c
000002c0: e29a 13bf bc6f ac3e b55d fdbe a552 74be
000002d0: 886d 773e 716e 033f d412 823d 5c5b b6bc
000002e0: c38a 8cbe 37d8 f3be 7cd7 a63e a87d 013f
000002f0: 7cc4 00bf b355 e83e 3946 ef3e e149 08bf
0.29299587 0.11644327 0.44953772 0.5035427 0.08825783 -0.38484535 0.242977 -0.007693345
-0.13507947 0.3135502 0.3815868 -0.3441114 0.5199809 -0.33294147 0.5347842 -0.4176675
-0.47930607 0.07415639 -0.4252906 0.0634582 0.49549595 -0.44204208 -0.38470346 -0.009269497
0.13523984 0.27114964 -0.44631967 0.31740803 0.43991765 -0.41005075 -0.27923495 0.1380144
-0.2792939 0.24765393 0.5143253 0.19002214 0.20038308 -0.15489493 -0.2853204 -0.04193439
-0.5139079 -0.043859765 0.53303844 -0.044989027 -0.03420091 -0.14024551 -0.105009094 -0.39856467
0.13897417 0.34701872 0.0466602 -0.13535607 0.27627522 0.07664405 0.32832196 -0.033949215
-0.23217176 0.09819158 0.4593239 -0.366126 -0.07050694 0.16263516 -0.36392784 -0.0031303824
0.24704164 -0.4138384 -0.17288879 0.37605903 -0.19524987 0.44752234 0.09838543 -0.5737911
0.5589556 -0.49581844 0.40664202 -0.0052086483 0.15871277 -0.53558975 0.4040869 -0.36957678
-0.11056209 0.4411324 0.15289581 -0.18259652 -0.4046932 0.01464411 0.4194621 0.15633346
-0.18196966 0.17549713 -0.16283399 0.10496398 -0.39167777 0.002298034 0.15124112 0.38597023
-0.37114292 -0.5008468 -0.3461528 -0.14380169 0.22281712 -0.1782936 0.08077604 -0.4209526
0.19071318 0.114473164 0.054235037 -0.11598831 -0.11066929 0.4376297 0.26622227 0.23379138
0.33643654 -0.35668516 -0.06403778 0.43273586 -0.25425294 0.11363435 0.35355687 0.36276862
0.27674443 0.56608456 0.297884 -0.15646507 0.48294994 0.57193524 0.17506011 0.27176628
-0.28849542 -0.43847775 -0.14239803 0.32124418 -0.24255416 -0.52419776 -0.30023438 0.12777579
0.44287708 0.22993618 -0.42419547 0.5172828 -0.031768367 0.4563138 0.18354647 -0.016532445
-0.031877056 -0.19149372 -0.33903655 -0.025125839 -0.53216004 0.15065733 0.5062313 -0.43157977
0.03977311 -0.13909732 0.40457332 -0.25413904 -0.17113513 0.13491945 0.08805262 0.23350869
0.32504398 -0.19173667 0.18198898 -0.312413 -0.18042415 -0.24797563 -0.30960113 -0.056217752
-0.36697453 -0.07178252 -0.32591897 0.2387042 0.36098117 -0.45765167 0.48923683 0.012092118
-0.5765821 0.33678997 -0.49485555 -0.23859651 0.24162877 0.51340395 0.063512474 -0.02226036
-0.27449617 -0.47625896 0.32586277 0.5058236 -0.5029981 0.45377883 0.46733263 -0.5323773

coord_mlp.0.bias f4 [64]
00000000: 663a 9ebe 66a9 903e e6da c53e febf 093f
00000010: b356 a9bd 9bc3 d43e 65be f73e 6cef eabd
00000020: a85b 013f 1761 a3be c744 4d3e 61a5 cfbe
00000030: a04d c43e dc58 82bd 1191 513a a32a 05bf
00000040: 97a0 8a3e 435f f73e b4c3 d0be e9d1 90be
00000050: aed2 e0be 93ee 0ebf f05b 94bd e9d7 e83d
00000060: e016 a13e 2975 39be 6a55 fd3e dea8 a0be
00000070: 9f45 66bd efd8 d3be 7931 203e 1cc5 903e
00000080: aa6f 40be 3a0d 0f3d a455 6bbe cdb5 bbbe
00000090: 8050 d6be 782f 7e3e e7e3 08bf 00b7 073f
000000a0: 6b9e 3b3d 0f0a 0b3e c6c3 acbe bdee 41bc
000000b0: f549 0f3f 438c 013e a0fe 68be 47cc 11bf
000000c0: 571e 0e3f 26d3 f0be 2c5c d63e e67b 043e
000000d0: 7522 07bf cff8 e43d 2775 36be 60c4 9c3d
000000e0: 6358 ab3e 45f2 b4be b49a 853e 39f3 86be
000000f0: f9ab fbbe 16a1 f63e 17a6 713e 9f82 7f3e
-0.3090393 0.2825424 0.3864357 0.5380858 -0.0826849 0.41555485 0.48387447 -0.11471447
0.5053048 -0.3191001 0.20045768 -0.40555862 0.38340473 -0.06364605 0.0007994334 -0.52018183
0.27075645 0.48314866 -0.4077431 -0.2828515 -0.43910736 -0.55832785 -0.07244098 0.113693066
0.31462765 -0.181111 0.49479228 -0.31378835 -0.05621874 -0.41376445 0.15643872 0.28275383
-0.18792596 0.034924723 -0.22981888 -0.3666214 -0.41858292 0.24822795 -0.5347275 0.5301361
0.045805376 0.13578056 -0.33743113 -0.011836705 0.55972224 0.12651162 -0.22753382 -0.5695233
0.55515045 -0.47036093 0.41867197 0.12937889 -0.5278695 0.11180269 -0.17818128 0.07654643
0.3346587 -0.35341087 0.26094592 -0.2635744 -0.49154642 0.48169774 0.23598514 0.24952172

coord_mlp.2.weight f4 [64, 64]
00000000: ae16 c43d 6436 e63d c8b7 bcbd df53 7c3d
00000010: c51e a0bd d743 b9bd b6ad dcbd 2b1a 56bc
00000020: ba3a 2dbd f0ba da3d 8697 1c3c 83fe c2bb
00000030: 9c9c d2bd e18e a7bb 1506 dcbd c5b8 883d
00000040: 1f5b a93c 5fe5 2bbc c362 5a3d eea2 d33d
00000050: 5e83 883d 1cb1 e43d a5a6 c7bd ad44 df3a
00000060: d669 3bbd 32cd 063c 90f2 2a3c b5e8 583d
00000070: 6401 26bd 8655 cdbd fb2b 6eba 3378 cc3c
00000080: bf13 bbbd 1bfe f43d ed38 cfbd 6adf 3a3d
00000090: fe90 d43c f46e fd3c 357b 333d ae40 e53d
000000a0: 3101 cabd 0160 0abd 4246 943c 722b a93d
000000b0: 663b 8b3c 4891 debd a113 dbbd f431 913d
000000c0: 1ac7 4cbd 7568 ddbc 0fb0 e8bd 3079 3cbd
000000d0: 83cf e2bd 387a b73d 401a 11bd 06dc db3d
000000e0: 99bf 36bc 793a 93bd e0cc 823c 00b0 f3bc
000000f0: 1909 813d a18d c83c abf8 95bd ddbe 143c
00000100: 9c9d b93d 6ae0 2fbc 69b6 373b 4b39 d4bd
00000110: 33da 29bd a222 e3bc 02ce bfbd c80e a83d
00000120: 13e3 283d 3bd1 cfbd 6696 efbd ab3e acbd
00000130: 9f56 50bd 57fc 9fbd 6695 0dba 44cc 013c
00000140: 05e9 41bb 5177 003e c793 3c3d 076a 163c
00000150: 44f4 1f3c a30a fcbd b604 a73d 74bc 7c3c
00000160: 9661 65bd 2eeb 51bc 14c9 bc3d 0519 db3d
00000170: b936 bf3d b410 5c3d 7e04 f43d 331c 793c
00000180: ee9a eb3d acfc e1bd 1a3f 3abd bcb6 79bd
00000190: bd19 b0bd 0a53 f63d b3d9 5c3d d6e6 ec3d
000001a0: c5ea c3bb c477 b73d 3a45 adbd 83b7 9cbc
000001b0: c8e2 58bd e773 96bd 7b37 7c3d f255 67bd
000001c0: 5bd2 be3d 5407 e63c 9208 813d 0288 633d
000001d0: 2c64 e0bd 64cc 133d 1f0b e13d 7e23 01be
000001e0: fcc0 143d 4351 60bd 4611 f33c 282f b93d
000001f0: b6bd 86bd 0499 4abd 81c4 86bd 53d6 c93c
00000200: daa8 f9bb 497a 923b 05b4 223d 28d0 06bd
00000210: 7470 bb3d 1015 c8bc e4f1 c63d 2f20 b3bc
00000220: 4c7c 693b 4ecd 8bbd 48fa 293d 79fa 23bd
00000230: d829 dc3d c6be c63d 1443 723d 9c3c 773d
00000240: c470 843d 9546 54bd 2f55 aa3d c023 d13d
00000250: 7e61 33bd bac5 f93d fedf 8fbd 0257 95bd
00000260: f095 8fbd 25e7 cdbd ec02 623d b4a4 00be
00000270: 27d1 f6bd 6ead 4d3d 8de1 80bd 9439 10bd
00000280: d414 cabd 9664 573d 6b2c 653d c006 13bd
00000290: 0663 e5bd cbe8 ba3a b89d bebd cc15 21bc
000002a0: 7a22 a03d 59bd 7c3d 6351 903d 057a 36bd
000002b0: fdcf 37bc aee3 a2bb 10b1 c33d 7d07 823c
000002c0: 0d48 20bd b4fd b8bd 41ff cf3d 6e46 0cbb
000002d0: af4f 043e c87e e63b f01d f2bd c2f4 c23b
000002e0: 01e6 f73b d9d2 963b 866c 5fbd afff b33d
000002f0: 8f10 733d 1692 873d 3fb1 b43d 858b 36bd
00000300: 4d0d b7bd 81bf 933d f3d0 eb3d 306b b93d
00000310: c0fd 863d b942 e5bd e0b5 643d c304 613d
00000320: 1f53 3e3d 5308 463d 88e9 b8bd 37f8 b9bd
00000330: 6252 d5bd 1ee5 3fbd ef28 a9bd 5a57 6ebd
00000340: 6dcc b23d 21eb f13a cc00 953d 81dd a63b
00000350: 9500 f2bd e8a8 bfbd 1578 cfbd 92e6 efbd
00000360: 1474 6bbd 6fd7 82bd f924 063d 67df d4bd
00000370: 51ea 453d 59e9 ba3b 7487 3b3d 28e4 523b
00000380: 73f6 7fbd 282a d1bd 4885 453d b95a 98bc
00000390: 5370 5f3c f43f a33d 4d2b e0bd 6f0c 9a3d
000003a0: c2cf de3d e8b5 ab3d 9476 373d 5a29 cdbd
000003b0: bf06 b5bd 5054 863c 553c 123d 8083 a4bc
000003c0: 1f11 a13c e522 f03c f58b d6bd 8161 9ebc
000003d0: a91f 4a3c ddf9 af3d 06bb a43d 1bc2 6e3c
000003e0: d732 8fbd beba 41bc 1dac 823c bb44 cebd
000003f0: cce9 673d ae84 903d b4c3 e1bd 73a8 94bd
0.09574638 0.11240843 -0.09214741 0.061603423 -0.07818369 -0.090461425 -0.1077532 -0.013067762
-0.042292334 0.10680187 0.00955761 -0.0059507503 -0.10283777 -0.005113468 -0.107433476 0.06675867
0.020673333 -0.010491698 0.053316843 0.10333811 0.06665681 0.111665934 -0.09748582 0.0017034017
-0.04575523 0.008227633 0.010433808 0.0529563 -0.04052867 -0.10026078 -0.0009085533 0.02495966
-0.09134626 0.11962529 -0.101182796 0.04562322 0.025948044 0.030936696 0.04381867 0.11193977
-0.098635085 -0.033782963 0.018099908 0.0826024 0.016996097 -0.10867554 -0.10697103 0.07089606
-0.049994566 -0.027027348 -0.113617055 -0.04601401 -0.11074736 0.08958858 -0.035425425 0.107353255
-0.011154079 -0.07188887 0.015966833 -0.02974701 0.06300563 0.024481596 -0.0732282 0.0090787085
0.09063265 -0.010734657 0.002803231 -0.1036249 -0.041467857 -0.027726475 -0.09365465 0.08205944
0.04123218 -0.101473294 -0.11698608 -0.084103905 -0.05086386 -0.07811802 -0.0005400985 0.007922236
-0.0029588353 0.12545516 0.04603937 0.009180552 0.009762827 -0.12306716 0.081551954 0.01542579
-0.05600127 -0.012812419 0.0921804 0.106981315 0.093366094 0.053726867 0.11914919 0.015204477
0.1150416 -0.110345215 -0.045470335 -0.060965285 -0.08598659 0.12027557 0.05391855 0.11567466
-0.0059789144 0.0895839 -0.084604695 -0.019130474 -0.05295065 -0.07346325 0.061576348 -0.05647845
0.09317466 0.028079666 0.06300463 0.05554963 -0.10956606 0.036083594 0.10988449 -0.12611195
0.036316857 -0.054764997 0.029671323 0.090421975 -0.06579153 -0.049462333 -0.06580449 0.02463833
-0.0076190056 0.004470144 0.03972246 -0.032913357 0.09152308 -0.024424106 0.09714106 -0.021865932
0.0035627065 -0.06826268 0.041498452 -0.04003379 0.107501686 0.09704356 0.059146002 0.060360536
0.06466821 -0.051825125 0.08317029 0.10211897 -0.043794148 0.121959165 -0.07025145 -0.07291986
-0.0701102 -0.10053853 0.055178568 -0.1256283 -0.120516114 0.050214224 -0.062930204 -0.03521116
-0.09867254 0.05258616 0.055950563 -0.03589511 -0.11200528 0.0014260052 -0.09307426 -0.009831857
0.07819076 0.061704013 0.07046773 -0.04454996 -0.011219022 -0.004970989 0.09555256 0.015872711
-0.039131213 -0.09032765 0.10156108 -0.0021404284 0.12921022 0.0070341565 -0.118221164 0.0059495876
0.0075652604 0.0046027717 -0.054546855 0.08789002 0.059341963 0.066196606 0.088228695 -0.04456665
-0.08938084 0.07214261 0.11514463 0.090536475 0.06591368 -0.11194367 0.055837512 0.05493618
0.04646599 0.048347782 -0.090289176 -0.09080546 -0.10416104 -0.046849363 -0.082597606 -0.058188774
0.087303974 0.0018456915 0.072755426 0.0050923233 -0.11816517 -0.09358388 -0.10130326 -0.117139
-0.057483748 -0.06388747 0.032750104 -0.10394173 0.048319165 0.0057040867 0.045783475 0.0032179449
-0.06249089 -0.10213119 0.04822281 -0.018597947 0.01363762 0.079711825 -0.10945759 0.07521903
0.108794704 0.08384305 0.04479082 -0.10017653 -0.08839177 0.016397625 0.03570207 -0.020082235
0.019661484 0.029313514 -0.104759134 -0.019333603 0.01233665 0.085925795 0.080434844 0.014572646
-0.06992119 -0.011824308 0.01595121 -0.10071703 0.05661945 0.07056557 -0.110236555 -0.07258692

coord_mlp.2.bias f4 [64]
00000000: dffa 09bc ea09 473d cd6e babd cfb2 af3d
00000010: 6ea5 95bb 350e a23d e043 d5bd 1be1 a4bb
00000020: 032a 963d 56f9 52bd f586 9fbc e7f3 893d
00000030: 5eb7 8b3c f692 a9bd b47e 6f3d 16e4 80bc
00000040: a133 063d 8128 e03c 27ff 09bc e170 953b
00000050: 34e4 f93c a248 a4bd 3d88 cbbd 2b4c be3d
00000060: f7c0 263d f8a6 5e3c 0cbe 893d 8006 f0bd
00000070: fa59 dc3c 0252 6abd d6a8 8ebd 016b db3d
00000080: 9b0b 14bd 02e8 b93c c013 5bbd 6335 5e3d
00000090: bc1b 5e3d 630f b8bc 5d44 923d 0d98 09bc
000000a0: 0073 593d cb77 ab3c 8f6f 913d 2b5a a33c
000000b0: acfc 233d bc4b e03d 2e9e 4b3d 975b a0bd
000000c0: 480c 7bbd a1d0 963d a384 89bc fdaa d33d
000000d0: 200d 1d3d 148f 9c3d b17d ca3d 2fb5 053d
000000e0: c0a7 93bc 7a2b 713d 6537 02bd f42b 65bd
000000f0: 4a20 a8bd bd84 573a 5327 2c3d 323d 553d
-0.008421629 0.04859344 -0.09103165 0.08579027 -0.00456684 0.07912866 -0.10413337 -0.0050317175
0.07332232 -0.051507317 -0.019473532 0.06735974 0.01705521 -0.08279984 0.058470443 -0.01573376
0.03276408 0.027363064 -0.008422649 0.0045605754 0.030504324 -0.08021666 -0.09938095 0.09291872
0.04071137 0.013589613 0.06725702 -0.1171999 0.026898373 -0.057207115 -0.06965797 0.10713769
-0.03614388 0.022693638 -0.053485632 0.054250132 0.05422567 -0.022468274 0.071419455 -0.008398068
0.05308819 0.020931145 0.07101356 0.019940456 0.04003589 0.10951945 0.0497114 -0.078299694
-0.06129101 0.073640116 -0.016786879 0.10335348 0.038342595 0.076444775 0.09887255 0.032643493
-0.018024325 0.058879353 -0.03179111 -0.05595012 -0.08209284 0.00082213787 0.04202969 0.052060314

energy_mlp.0.weight f4 [64, 64]
00000000: 689e 4b3d e84a 323d f5f7 b7bd 518c e0bd
00000010: 52f6 cc3d ec39 8abd 8c01 b23d cf91 1d3d
00000020: 1399 84bd c201 dfba 4ef6 41bd 82a4 813d
00000030: 76c6 8bbd 29d3 1dbc ee86 583d 09e0 e63d
00000040: 261e e23c 8464 c33d 7170 853d c67c 7f3d
00000050: 0d36 cdbc a438 a0bd d72f 453d 4e5f eebd
00000060: ea90 17bd 8909 f13d c72e 043e e9f8 45bd
00000070: 6a0e d6bc cc55 d23d 45f5 84bd 654f ebbb
00000080: fd09 c63d 1a8e aabd 00ab 073c f1b6 ea3c
00000090: d900 afbd e14e e63b 52bb 90bd 7c42 47bd
000000a0: 48bc 6e3d e796 e9bd 4a40 6abd 3ed3 9fbd
000000b0: 6a09 dcbb 716a 103d db22 16bd e38a 873b
000000c0: 81be f23d 75e2 17bc ff22 833c d0a0 d13d
000000d0: ced4 b7bd fa74 a33b d997 ad3c 539e e53d
000000e0: 7977 3fbd 8464 9ebd 8645 a63d c269 023e
000000f0: bd30 9e3d 1197 263d bbbb e63c 6e3e 6cbc
00000100: 3a92 fd3d 048b 503d 74a5 eb3d 4113 e03d
00000110: 3cea 93bc 1df2 e1bd 2e86 fe3d 77ae b8bd
00000120: 4eab 913c d25d 7b3d 329e ca3d 12ec f4bd
00000130: e8f0 143c 639a 96ba 1af0 10bd 0d9c ab3d
00000140: 9924 fa3d fabb cebd 66a5 a1bd 92f4 f3bd
00000150: e303 ffbd e2dc d9bd 6eb8 73bb 5084 e3bd
00000160: 0688 f9bc a45d 243c b831 8fbd 5a19 c2bc
00000170: 1f0f 8d3d 88fc b0bd a2b7 d2bd ab3c 033d
00000180: 66f9 a13d 75e8 abbd 9c1a abbc 0101 8c3b
00000190: 8281 1a3d 78aa ea3c e147 b73d c6dc bbbd
000001a0: 5d66 b93c e7c5 cc3d 5fe2 883d 6bbc ca3d
000001b0: 984f 96bd a3be 18bd 8783 ff3d 1689 4bbd
000001c0: 91b9 fc3d 7a29 efbd b5ee d9bd 4520 e63d
000001d0: 8303 21bd 4cb4 b53d 1f2d 853c 13f0 8b3d
000001e0: a22b 4b3d 26cd d1bd b78d 2ebd 3d5a ddbd
000001f0: 7db3 fb3a 443e ab3d 0c12 ecbc e133 aebd
00000200: 30b6 a2bd b34c 44bd 797e 723c 839e 91bd
00000210: e292 66bd 639a 6e3d 654b ca3d 2adc e53d
00000220: 3c24 dc3d 2e43 cb3d d82d ddbd 2a37 a53d
00000230: f89d ddbd 3fc0 833d d3aa e23d e57b 58bd
00000240: 9ff7 e8bd 354a f5bd 4ce1 bbbd 0129 ebbd
00000250: 4af4 963c dcc8 ecbc 5f8e c2bb 39dc 01be
00000260: 72f5 80bd 4647 983c 37f9 13bc 1063 b6bd
00000270: dd30 cf3c c1f2 e53d e95a c7bd e0c9 293d
00000280: 0edf f7bd b47d 14bc 382e 78bd e549 803d
00000290: 20d1 19bd e9f7 943d e67c 4b3d a95c b43d
000002a0: 9adc 893d 929c 7f3d d009 893d 6f1e 5cbd
000002b0: b855 40bc 3505 203d 2eef 9b3d 1be6 9a3b
000002c0: db1c 48bd 67ca acbc 5f39 f4bd 4d07 c7bd
000002d0: 67f0 98bc 549f 7ebd 7035 d53d 1c59 ffba
000002e0: 24e2 dcbd 38fb 95bd 99a3 ca3d 06b9 b13c
000002f0: 5829 d83d 2cea c13c 112c 9dbd 0a27 ffbd
00000300: 75e0 c5bd 4178 1ebd acf7 e7bd d326 01bd
00000310: d216 7c3d 0064 043d be91 c1bc 6776 14bc
00000320: 3659 293d a8d4 963c a663 8bbd 4e8c 40bd
00000330: ad2b 96bd ae59 823d a3e8 103d 7189 7ebd
00000340: 57c2 83bd 5fc1 c9bd 2be3 67bc 0438 5bbd
00000350: 1337 d7bc baac af3d 2956 543c 024e 5ebd
00000360: b8ff 593d 5f18 a4bd 05ea d3bd 300c 083c
00000370: 5ce0 a6bd 394f d83d 71e9 fbbc 8ed1 033d
00000380: 7e5a f9bd ef32 06bd 00b9 92bd 38e8 a63c
00000390: 5533 be3d ab45 233c 2756 373d 8fd1 e83d
000003a0: e97d dfbd df8a 9e3d e438 bbbd fa64 013e
000003b0: fb0b abbd ca1f d93d a143 c33d 796f 71bd
000003c0: 0604 23bc 623b d7bd eb96 e53d 6e54 40bd
000003d0: a43b 843d d037 71bd 62e8 743d fb6e 3abd
000003e0: 35b9 8f3c b39f ba3d f43a 473d 80fd 3bbd
000003f0: 1416 d63d 520b f53c d275 53bd 00bf 1d3b
0.049711615 0.043528467 -0.08982841 -0.10964263 0.10007919 -0.06749329 0.08691701 0.038469132
-0.06474509 -0.0017014074 -0.047354035 0.063302055 -0.06824963 -0.009632864 0.052863054 0.112732
0.027602267 0.09540656 0.06515587 0.062374853 -0.025050187 -0.07823303 0.048141327 -0.11639272
-0.037003435 0.11769397 0.12908469 -0.048333082 -0.02612992 0.10270271 -0.06492094 -0.0071810954
0.09669874 -0.08327885 0.008280516 0.028651686 -0.085450836 0.007028446 -0.070669785 -0.04864739
0.058285028 -0.114057355 -0.057190217 -0.07803963 -0.0067149894 0.03525776 -0.036654335 0.0041364296
0.11852742 -0.0092703 0.016007898 0.10235751 -0.08976136 0.00498831 0.02119057 0.112118386
-0.046744797 -0.077340156 0.08118729 0.12735656 0.0772414 0.040671412 0.028165689 -0.014419181
0.12381406 0.050913826 0.11506167 0.109411724 -0.018056028 -0.110325076 0.124279365 -0.090176515
0.01778188 0.06136877 0.098934546 -0.11959089 0.00909064 -0.0011490103 -0.03538523 0.08379374
0.12214012 -0.100944474 -0.078928754 -0.119118825 -0.12451913 -0.10637833 -0.0037188786 -0.11109221
-0.030460369 0.010032091 -0.06991905 -0.02369373 0.0688765 -0.086419165 -0.102889314 0.03204028
0.07908897 -0.08393947 -0.020886712 0.0042725806 0.037721165 0.028645739 0.08949257 -0.091729686
0.022631818 0.099986844 0.06683802 0.09899219 -0.073394 -0.03729118 0.12476259 -0.049691282
0.123400815 -0.11677833 -0.10641233 0.11236624 -0.03930999 0.088722795 0.016256867 0.068329
0.04960216 -0.10244207 -0.04261562 -0.10808227 0.0019203272 0.083614856 -0.0288172 -0.08505989
-0.07944906 -0.04792471 0.014800661 -0.07110312 -0.056292422 0.058252703 0.098776616 0.112236336
0.10749099 0.09924923 -0.107997596 0.08067162 -0.10821146 0.064331524 0.110677384 -0.05285253
-0.11375355 -0.119770445 -0.09173831 -0.1148243 0.018427033 -0.028904371 -0.005937382 -0.12681665
-0.06296815 0.018588673 -0.009031585 -0.089056134 0.025291855 0.11227942 -0.097341366 0.04145229
-0.12103091 -0.009063173 -0.060590953 0.06264094 -0.037552953 0.072738476 0.04967966 0.08806736
0.067315295 0.062405176 0.06691325 -0.05373996 -0.011739187 0.039067466 0.07613979 0.0047271377
-0.048855644 -0.021092607 -0.11925005 -0.097181894 -0.01866932 -0.062163666 0.10410583 -0.0019481513
-0.107853204 -0.07323307 0.09894485 0.021694671 0.10554761 0.023671232 -0.076744206 -0.12458618
-0.096619524 -0.0386889 -0.113265365 -0.031531166 0.0615452 0.03232193 -0.023629066 -0.009061432
0.041344844 0.01841195 -0.06806116 -0.047008805 -0.07332549 0.06364761 0.03537811 -0.062142793
-0.06433552 -0.09851336 -0.014153282 -0.053520218 -0.026271379 0.08577867 0.012959995 -0.054273613
0.053222388 -0.08012461 -0.1034737 0.008303687 -0.08148262 0.105619855 -0.030750962 0.03218227
-0.12175463 -0.032763418 -0.07164192 0.020374402 0.092871346 0.009965341 0.044759896 0.11368095
-0.10912687 0.07741331 -0.091417104 0.12636176 -0.083518945 0.106017664 0.095343836 -0.0589442
-0.00994969 -0.10509373 0.11210426 -0.04695552 0.06456688 -0.058891118 0.05979193 -0.045515995
0.017544368 0.091124915 0.048640206 -0.045896053 0.1045343 0.029912625 -0.051626034 0.0024070144

energy_mlp.0.bias f4 [64]
00000000: ff43 e5bc 1aa0 fcbd 3e9b 83bd 40bf a9bd
00000010: 3e83 45bd 5ba6 d3bd 3fda babd c1a0 a7bd
00000020: c1e3 b53d a88f 8b3c c080 6bbd 27cd 9d3d
00000030: 31c4 b13d dfb6 3ebd 1c12 603d 1216 dc3a
00000040: d0d4 a93d 8111 f73b fb51 4f3d b49c 0c3d
00000050: bdb9 f03d d4bf f63a bde7 62bd d6b2 87bd
00000060: e051 f4bc 1b1f dfbd 594b 3dbd 4ceb 12bc
00000070: c232 3e3d 16e9 3ebd 854c 47bd 825c 913d
00000080: 36aa d2bb c0f8 873d 767a 57bd df3b 67bd
00000090: 0dae c33d b2ee c13d 69a2 bbbd 5bdb 033d
000000a0: f60a 6d3d ee0d 8ebd 302f 883d c274 1fbc
000000b0: 623a 12bd 1a5e d3bc 4182 89bd 6feb d4bd
000000c0: 904f 9d3d 1793 353c 8f81 2bbd 245b 4abd
000000d0: 58f6 4d3d 8fca e9bd 3ce9 aabd 9dfa e63d
000000e0: 2496 dbbd 4ea9 c0bd 49b3 efbc 7ed0 fd3d
000000f0: 0d82 d83d e42d 953d 996f 8c3c 3136 f6bb
-0.027986525 -0.123352244 -0.064260945 -0.08288431 -0.048220865 -0.10334464 -0.091236584 -0.08184958
0.08881331 0.017036274 -0.057495832 0.07705145 0.08679999 -0.04656112 0.05470477 0.0016791245
0.08292544 0.0075399284 0.050615292 0.03432913 0.11754177 0.001882548 -0.055396784 -0.06625907
-0.029824197 -0.10894605 -0.046214435 -0.008967232 0.046435125 -0.046609007 -0.04865696 0.070977226
-0.006428982 0.06639242 -0.052607022 -0.056453582 0.09554682 0.09469356 -0.09161837 0.032191616
0.05787178 -0.069362506 0.06649625 -0.009732427 -0.03570021 -0.025801707 -0.06714297 -0.10396468
0.07681191 0.011082432 -0.041871604 -0.049403325 0.05028376 -0.11415588 -0.08345267 0.112782694
-0.107219964 -0.09407292 -0.029260295 0.12393282 0.1057168 0.072841436 0.017143058 -0.0075137843

energy_mlp.2.weight f4 [1, 64]
00000000: 725f 9cbd 68c0 b7bd e8db 64bd dccb 7cbd
00000010: 0a4b a5bd 303d 32bd 829f 6ebd 3917 f0bd
00000020: 6a9a ba3b 5269 a93d 5382 793d 7e7b 4f3d
00000030: 4c69 aa3d 8a7d 0f3a 962f cebc 55f8 c3bd
00000040: f348 ea3d 027c e03c 448f c53d 2ffb f03d
00000050: 2bb1 2e3d 2c1f b6bd dd4b f5bd 4015 b63d
00000060: e93b debd 50b8 31bd 39ae 27bb 6793 e23c
00000070: 6392 debc 35b7 93bd 77f7 d43d eb18 953c
00000080: 249e 93bd 0748 e13d 1dcf f43d df37 f43a
00000090: 00d8 f5ba ac2b d23c 7761 04bc 2083 92bd
000000a0: ed48 993d a9d4 82bd a1f7 e03d 3aff 79bd
000000b0: 0eaf c3bd 1f67 513c 331d 503d 468a fe3c
000000c0: d483 96bc c4a7 373d a4df bd3d e44f bd3c
000000d0: a007 ee3d 304e 50bb 5d52 b33c fda5 77bd
000000e0: b57e dc3d 1baa 2f3c fc84 b63d bff0 063d
000000f0: bf7e 0f3b c4b8 55bd 5552 c5bd 2d7c 793d
-0.07635392 -0.089722455 -0.05587378 -0.061717853 -0.08070953 -0.043515384 -0.058257587 -0.11723179
0.005694677 0.082720414 0.060915302 0.05065488 0.08320865 0.0005473724 -0.025169175 -0.0956885
0.11439695 0.027402882 0.096464664 0.117666595 0.04264943 -0.08892664 -0.119773604 0.08890772
-0.10851271 -0.043388665 -0.0025586023 0.027658178 -0.027169412 -0.07212678 0.10398763 0.018200358
-0.07207897 0.11000066 0.11953566 0.0018632374 -0.001875639 0.02565559 -0.008079878 -0.07153916
0.074846126 -0.06388218 0.109847315 -0.06103442 -0.095548734 0.012780934 0.050809097 0.031071793
-0.018373407 0.04483773 0.09271172 0.023109384 0.11622548 -0.0031784885 0.02188986 -0.060461033
0.10766355 0.010721709 0.089120835 0.032944437 0.0021895615 -0.05217816 -0.09634844 0.06090944
