trained_model.pth (torch, 43809 bytes, 7 tensors)

rbf_centers f4 [32]
000000 00 00 00 00 8c 31 46 3e 8c 31 c6 3e 29 a5 14 3f
       0.0 0.19354838 0.38709676 0.58064514
000010 8c 31 46 3f ef bd 77 3f 29 a5 94 3f 5a 6b ad 3f
       0.7741935 0.9677419 1.1612903 1.3548386
000020 8c 31 c6 3f be f7 de 3f ef bd f7 3f 10 42 08 40
       1.548387 1.7419355 1.9354838 2.1290321
000030 29 a5 14 40 42 08 21 40 5a 6b 2d 40 73 ce 39 40
       2.3225806 2.516129 2.7096772 2.9032257
000040 8d 31 46 40 a6 94 52 40 be f7 5e 40 d7 5a 6b 40
       3.0967743 3.2903228 3.483871 3.6774194
000050 f0 bd 77 40 84 10 82 40 10 42 88 40 9d 73 8e 40
       3.8709679 4.064516 4.2580643 4.451613
000060 2a a5 94 40 b6 d6 9a 40 42 08 a1 40 ce 39 a7 40
       4.6451616 4.83871 5.032258 5.225806
000070 5b 6b ad 40 e7 9c b3 40 74 ce b9 40 00 00 c0 40
       5.419355 5.612903 5.806452 6.0

embedding.weight f4 [100, 16]
000000 57 6a bd bf 2c 80 f9 3e 9d d1 40 c0 fd 40 e3 3e
       -1.4798077 0.487306 -3.0127938 0.4438552
000010 f7 31 b8 3e d0 4f 4a bc 59 c4 5f 3e 28 07 a4 bf
       0.3597562 -0.01234813 0.21852244 -1.2814684
000020 08 51 1a 40 6d e3 ff 3f b7 e7 48 3f 08 7e 82 bf
       2.4111958 1.999128 0.7847857 -1.0194712
000030 2e a1 57 be 7c 78 20 3f fe 87 6e 3f a2 3c 3f 3e
       -0.21057579 0.62683845 0.9317626 0.18675473
000040 78 22 76 3f b6 c4 8f bf 4e 11 aa 39 b7 3e a7 3f
       0.96146345 -1.1231906 0.0003243782 1.3066014
000050 79 1b 82 bf 89 47 0e bf 25 9f dc 3e 9f d8 f4 bf
       -1.0164634 -0.55577904 0.43090168 -1.9128608
000060 44 3a a3 3f 72 40 91 bf 86 dd 5a 3f 5d 3a 35 3f
       1.2752156 -1.1347792 0.8549427 0.7079218
000070 c2 7e 46 3e 97 33 6a bf 87 fa eb 3d a7 1c e0 be
       0.19384292 -0.9148497 0.11522394 -0.4377186
000080 f6 61 5a bf fd 3a 57 bf 6b eb ca be be ac 84 be
       -0.85305727 -0.84074384 -0.39632735 -0.25913042
000090 54 64 2d bf 8c 3a 91 3d 6b b0 ea be ae a4 d7 3f
       -0.67731214 0.07091245 -0.4583772 1.6847131
0000a0 d4 c4 11 3e 51 89 24 3f 41 83 33 bf 9c 49 85 3f
       0.1423524 0.6427203 -0.7012215 1.0413089
0000b0 1c 6c 16 c0 70 d6 3c 3e 51 33 22 3f 11 ce c3 bf
       -2.3503485 0.18441176 0.6335955 -1.5297261
0000c0 7d ce 99 bf 5e c3 8a 3d e4 1e 3b 3d e3 57 f0 3e
       -1.201614 0.067755446 0.045683756 0.46942052
0000d0 7f 41 49 3f f9 ee 95 bf c5 ab 23 3f 7d fa 19 3f
       0.78615564 -1.1713554 0.63933975 0.6014784
0000e0 52 7e c5 3e 0a 14 ee be b3 b7 e5 bf 97 2d c4 3e
       0.38572937 -0.46499664 -1.7946686 0.38316032
0000f0 19 4f 4d bf a7 43 bc bd bc a1 fe be bc 57 be bf
       -0.8019882 -0.09192591 -0.4973277 -1.4870524
000100 d5 f4 e6 be 17 c4 64 bf ca 34 8d be d2 ba 43 3f
       -0.45108667 -0.8936171 -0.27579337 0.7645694
000110 62 ae a6 3f bc 0e e3 3f bd 5d bc bf ac 45 4a bf
       1.3021967 1.7738872 -1.4716107 -0.7901256
000120 25 1d 51 bf b6 a5 f3 be 08 27 54 3f 5f af 26 be
       -0.81685096 -0.47587365 0.82872057 -0.16277836
000130 20 2d d1 3f 96 d8 f3 bf d2 d2 1f 3f 2b d1 13 40
       1.6341896 -1.9050472 0.6243106 2.3096416
000140 c6 7a 8e 3f ad e6 06 bf 45 b5 1d 3d 87 f6 f9 be
       1.1131217 -0.52695733 0.03850295 -0.48820898
000150 26 a5 05 3f c4 35 8b bd 39 70 86 bf 91 d6 ad bd
       0.5220512 -0.06797364 -1.0502998 -0.08488191
000160 dd fc bd 3e 5c 45 de 3f 6c 57 ae 3e 8c 97 01 3c
       0.37106982 1.7364917 0.34051073 0.007909667
000170 1a bf 61 bf 21 a8 85 3d a7 2a 42 bf e5 2a 0e bf
       -0.8818222 0.06526209 -0.7584633 -0.555342
000180 fd 18 13 3f f8 ef 7b 3f 0d 0f 81 bf d5 af e2 bf
       0.57460004 0.9841304 -1.0082718 -1.770991
000190 e9 ef a2 3e 87 18 25 bf 22 55 10 c0 39 8e 74 3f
       0.31823662 -0.6449055 -2.255196 0.95529515
0001a0 fe 0b a6 bf 73 5a 38 3f 98 1b 5a bf a2 07 27 3e
       -1.297241 0.72013015 -0.85198355 0.16311505
0001b0 65 da 7b 3d d3 35 0c bf ea ca 47 3f fe 3c b5 3d
       0.061487574 -0.5476963 0.78044 0.08849524
0001c0 46 52 b4 bd e9 16 ae 3f 3d 6f 13 3e c2 5e e1 3e
       -0.08804755 1.3600742 0.14397903 0.44017607
0001d0 df 40 3e bf 91 a3 42 3f dc bb 25 3f c5 52 2a 3e
       -0.74317735 0.7603083 0.64739776 0.16633137
0001e0 f4 2c 6a 3f 0f 10 de bf 1f 5e ac bf 11 71 fa be
       0.91474843 -1.7348651 -1.3466223 -0.48914388
0001f0 19 74 2a bd 3e 53 73 be 7e 16 ba 3e 57 93 aa 3f
       -0.041614626 -0.23762223 0.36345285 1.3326215
000200 1e 95 d8 3e 80 33 6d bf 6b fa bd bd 24 53 49 bf
       0.42301267 -0.9265671 -0.09276279 -0.7864249
000210 2e b7 b6 bf 5c 48 24 40 1f 5a 5c 3f 9e 03 bc bf
       -1.4274652 2.5669165 0.86075014 -1.4688604
000220 c9 01 0d 3f 5f 33 aa bf a1 cf 3f 3e 45 b6 10 be
       0.5508085 -1.3296927 0.18731548 -0.1413203
000230 fc af 18 3f 96 9c 02 bf 33 68 d4 bf c8 af ff be
       0.5964353 -0.5102018 -1.6594299 -0.49938798
000240 0b 97 1b bd 4c 5d fc bf e1 5b ed 3f 9f 26 35 bf
       -0.037985843 -1.9715972 1.8543664 -0.70762056
000250 f2 82 1d 3c 78 d0 a3 be d0 78 18 be ad 1a 0b 3d
       0.009613739 -0.31994987 -0.14889836 0.033960987
000260 6a 6a 26 be c0 73 3f bf 43 8a 03 bf 3d b0 a7 bf
       -0.16251531 -0.74785995 -0.51382846 -1.3100659
000270 93 0e dd bd 3d c6 03 bf 3a 6f d8 3f cd 35 7e 3e
       -0.107937954 -0.5147436 1.6908944 0.24825211
000280 03 ba 24 3e 31 d6 3b 3d e7 d2 2c bf db 53 63 3f
       0.16086583 0.045858566 -0.6750931 0.8879983
000290 e3 75 b6 3f 24 00 f6 bf 0d 27 9f bf 39 37 2b 3f
       1.4254726 -1.9218793 -1.2433792 0.6688114
0002a0 8e e8 8c 3d 13 e4 85 3f 15 e7 7a bf af 85 47 3e
       0.06880294 1.0460228 -0.98008853 0.1948459
0002b0 99 b6 eb 3c 84 9b a9 be fe 4d cd bd 2f 17 08 3f
       0.028773593 -0.33126462 -0.100246415 0.53160375
0002c0 b8 fd 92 3e 5f 88 39 3d ff e5 5e 3e c2 c5 48 3f
       0.28709197 0.04529607 0.21767424 0.78426754
0002d0 cb 70 e1 bf e7 d1 e1 3f e7 18 b2 3e a6 7b 25 3f
       -1.7612547 1.7642182 0.34784624 0.646418
0002e0 7c bf ad 3f e4 c8 cb 3f 87 b8 dd 3e e3 fd 33 bf
       1.3574061 1.5920682 0.43304846 -0.70309275
0002f0 21 c5 90 3e 93 4c d3 3f 19 ac e7 3e 56 65 a8 3e
       0.28275397 1.6507744 0.45248488 0.32889813
000300 1b be 34 3e b1 7d 96 bf ec 77 7d bf 51 ba de bf
       0.17650644 -1.1757108 -0.9901111 -1.7400609
000310 c8 49 0d c0 ca 96 c3 3e 4b 2b 06 40 d2 92 70 be
       -2.2076283 0.3820098 2.0963924 -0.23493508
000320 cd 68 31 3e c6 a3 b3 3e 7a 7c 4b 3f d7 fb 85 3e
       0.17325135 0.35085887 0.7948681 0.261687
000330 c5 57 2a be d2 a4 f5 3f 53 bf 84 3f 05 57 52 3f
       -0.16635044 1.9190924 1.0370888 0.8216403
000340 5d 8d 5a be 8f a2 b9 bf be 46 83 3e 47 08 0f 3e
       -0.21342988 -1.4502734 0.2563991 0.13968001
000350 1f 9e 8a 3f de a5 5b bf 2a 99 1d bf 3e 21 40 3d
       1.0829505 -0.8579997 -0.61561835 0.046906702
000360 1b a9 a9 bf 56 07 59 3f 3f 4b 4d be 1a 50 95 3e
       -1.3254732 0.8477682 -0.20048235 0.29162675
000370 fd ab a3 3e 17 58 0f 3d 85 9e 11 bf 6d 3b 34 be
       0.31967154 0.03499612 -0.56882507 -0.17600794
000380 56 88 87 3f b6 d1 21 be e4 9b 06 bf 02 4e b2 be
       1.0588481 -0.15802655 -0.5258162 -0.3482514
000390 d7 66 9f be d8 09 f6 be 38 19 28 bf 2d e4 ea bf
       -0.31133148 -0.48054385 -0.6566348 -1.8350884
0003a0 42 e6 50 be bc 7a 04 40 36 47 fa 3e ec 14 47 3e
       -0.20400336 2.069991 0.48882455 0.19441575
0003b0 9a b6 32 bf 85 ee 31 3f 18 01 ac 3f 77 9a 8e bf
       -0.6980988 0.69504577 1.3437834 -1.1140889
0003c0 9e ff 21 bf 78 e3 09 c0 5c 4b b7 3e 37 ed 37 be
       -0.63280666 -2.1545086 0.35799682 -0.17961584
0003d0 a5 5d 10 bf 7a 6a c3 3e 1b 2d 89 be 5a 6c d8 bf
       -0.5639289 0.38167173 -0.26792225 -1.6908066
0003e0 52 e0 12 bc 64 9a 4d 3f 2c 03 a8 3d 48 bc 97 3e
       -0.008964615 0.80313706 0.0820373 0.29635835
0003f0 79 32 7b 3f 91 38 d4 be 84 d3 44 bf ce 28 00 3f
       0.9812389 -0.41449407 -0.7688525 0.50062263

pair_mlp.0.weight f4 [64, 64]
000000 52 e5 f2 bd bd 4b 9f 3d 0d df d6 3d d6 08 93 3c
       -0.11860146 0.07778118 0.10491762 0.01794855
000010 24 5f 85 3d 5f a5 16 bd c5 3e 00 bd bb f5 8d bc
       0.06512287 -0.036778804 -0.03130986 -0.017329087
000020 3d 01 b9 3c 1c fc 85 3d 31 2f 2a 3d be 00 28 bd
       0.022583598 0.06542227 0.04154891 -0.041016333
000030 6f 87 a9 bd 12 ee e2 bd 11 c5 bd 3d db 93 e6 bc
       -0.08277785 -0.110805646 0.09266103 -0.028146675
000040 53 ac 83 bd 63 e4 d1 bd 11 b9 b3 bd 48 11 e1 3c
       -0.064293526 -0.102486394 -0.08775533 0.02747406
000050 39 95 0b 3d 17 a1 e7 3d ef 39 98 bd 53 47 e9 3d
       0.034077857 0.11310022 -0.07432925 0.11390557
000060 ad 76 6a bd b2 9f cc bc dc 57 df bc ee 83 df bd
       -0.057242084 -0.024978492 -0.027263574 -0.109138355
000070 f5 19 7e bd 8b 8e dc 3c d6 38 d8 3a 8f 88 d0 bd
       -0.062036473 0.026923439 0.0016496431 -0.101822965
000080 fc 6d 15 3c 90 60 3f bc 40 c8 b5 bd cf 41 a8 bd
       0.009120461 -0.011680737 -0.08876085 -0.08215677
000090 83 dd 3b 3d 48 9c 0e 3d fe b1 03 3d 21 9d d1 bd
       0.045865547 0.03481701 0.03215217 -0.10235048
0000a0 cc e2 5a 3d f1 fc e8 38 85 43 58 bd 22 fa 7b 3d
       0.053438947 0.00011109736 -0.052798767 0.061517842
0000b0 07 7e 99 bc 46 33 ed bd 22 bd 33 bd 4f 9c 24 3d
       -0.018736852 -0.11582045 -0.043881543 0.04018813
0000c0 3a 75 27 bd 41 bc d0 bd 0f e1 76 3b 49 83 c5 bd
       -0.04088328 -0.101921566 0.0037670766 -0.09644181
0000d0 dc 04 ad bc 2a d7 ee bc fb 2a b0 3d 90 c6 a6 3d
       -0.021120481 -0.029155333 0.08601948 0.081433415
0000e0 96 c8 f0 3d d3 9e fe bd dd a0 e7 3d d9 e5 92 3c
       0.11757009 -0.12432637 0.11309979 0.017931866
0000f0 fb 6c ff bd 3d 63 16 3c 94 ab 85 3d 00 9d 28 bd
       -0.12471958 0.009178934 0.065268666 -0.041165352
000100 c3 50 87 3d cb 4f e0 3d 37 ab f6 bd af 18 92 3d
       0.06607201 0.10952719 -0.120443754 0.07133614
000110 85 20 9a 3d 37 36 ba bd c8 55 33 bd 86 17 a4 bd
       0.07525734 -0.09092372 -0.04378298 -0.08012299
000120 4f 67 44 3c 0e 75 f3 bd 0d d8 fd bc 44 d2 af bd
       0.011987521 -0.11887561 -0.03098681 -0.08585027
000130 8e 0f 57 bc fb c9 b3 3d bb d7 6b 3d 91 7d cd 3c
       -0.013126267 0.08778759 0.057578783 0.025084289
000140 2b 09 7a bc 66 cf 57 3d 0a 5e f9 3d e1 e1 0e 3c
       -0.015260975 0.052688025 0.1217614 0.008720846
000150 89 d7 8b 3d 83 a3 9f bd b0 d5 94 bd 92 dc 99 3d
       0.068282194 -0.07794859 -0.0726732 0.075127736
000160 76 ed b6 3c 67 bc 0b 3d 33 c8 9a 3d cd fd e5 bc
       0.022330027 0.03411522 0.07557716 -0.028075123
000170 78 68 8d 3d 2a c6 09 bd 39 e5 45 bd 4f 2d ae 3d
       0.069046915 -0.03363625 -0.048314307 0.08504736
000180 3c 9b 16 bd 8a 44 f7 3d e6 4b 76 bd c1 81 a5 3d
       -0.036769137 0.1207362 -0.060130976 0.08081389
000190 bf 3c 01 be 93 c5 2e bd 04 0c 09 bd 47 61 d4 bd
       -0.12620829 -0.04266889 -0.033458725 -0.10370117
0001a0 0d 26 5f 3d fb 85 8a 3d 93 25 ac 3d 1c d3 95 bd
       0.054479647 0.06763836 0.08405604 -0.073156565
0001b0 56 b5 ee bd 7f b9 c8 bc cd c4 4e bd bc 22 da bd
       -0.11655681 -0.024502514 -0.050480653 -0.10651156
0001c0 97 4c a1 bd 24 cf 85 3d 49 55 99 ba 79 59 ee 3d
       -0.078759365 0.065336496 -0.0011698391 0.11638159
0001d0 86 17 97 bd 78 d7 4e 3d 20 41 00 bd aa 16 bf bd
       -0.073775336 0.050498456 -0.031312108 -0.09330495
0001e0 eb a9 a6 3d 06 44 ae bd fd f4 92 bd 88 73 b5 bb
       0.08137878 -0.08509068 -0.07175634 -0.005537454
0001f0 5a 36 9d bd 36 93 21 3d 72 f4 9d 3d f7 d9 8c 3c
       -0.07676382 0.039447032 0.0771264 0.017193777
000200 a3 74 48 3d d3 84 a6 bd 36 10 27 3d ee 17 1e bd
       0.04893936 -0.08130803 0.040786944 -0.03859704
000210 f9 c2 cd 3d ee 95 62 bc 2c d2 87 bd 84 f9 85 bd
       0.10046954 -0.013829691 -0.06631884 -0.06541732
000220 45 2b 27 bd d8 64 c1 3c 6f c4 19 bc 31 57 3c 3d
       -0.04081275 0.023607656 -0.009385212 0.04598159
000230 6b 1e b2 bd 43 56 77 bd b0 03 72 bd 9c 6d fd 3d
       -0.08697208 -0.060385 -0.059085548 0.12374422
000240 1b 35 93 3d c1 ce 9d 3d a9 81 0b bd d1 06 3e bd
       0.071878634 0.07705451 -0.0340592 -0.04639322
000250 1f b6 2d bd 4d ab e7 3c 12 ae d6 3d 41 d6 f2 3d
       -0.042410012 0.028279925 0.1048242 0.11857272
000260 c1 e1 a1 3d be 90 e6 3d 3c 8f 82 3d 15 f2 89 bd
       0.07904387 0.11258076 0.06374976 -0.067356266
000270 27 80 ae 3d c4 54 97 bd 32 3c b1 3d fc 7d 35 bd
       0.08520537 -0.07389215 0.086540595 -0.0443096
000280 b9 71 97 3d 91 7c eb 3d d1 26 5b bc ff 8d 5f bc
       0.07394738 0.114983685 -0.013375954 -0.013644694
000290 81 b8 fe bd 3d a0 25 3d be ee af 3c 7d aa be bd
       -0.12437535 0.04043602 0.021476146 -0.09309862
0002a0 cc 30 fc bd 8c fb 85 bd d1 54 fd 3c 10 31 c5 3b
       -0.12313995 -0.065421194 0.030924233 0.0060178116
0002b0 4a 7c 0b bd 6f 24 93 bd 49 49 f9 3d 29 da 86 3d
       -0.03405408 -0.071846835 0.12172181 0.065845795
0002c0 64 79 6d bd 0c dc c2 3d c2 e2 89 3c 85 1f 82 3d
       -0.057977095 0.09514627 0.01683176 0.06353668
0002d0 2c 5c 84 bc fd f3 a8 3d 92 86 da bd a9 a4 6f 3d
       -0.016157232 0.08249662 -0.106701985 0.05850664
0002e0 b1 5a 58 bd bc fa 00 bb 82 97 e3 bd 25 e2 cf 3c
       -0.052820865 -0.00196807 -0.11112882 0.025376389
0002f0 c2 e8 e8 bd 29 b7 ec bd 41 76 be bd 1a 78 c8 bb
       -0.1137252 -0.115583725 -0.09299899 -0.006117833
000300 0e e7 cc 3d b7 e7 63 3d 0b 30 e3 3d 9a ae b5 bd
       0.10005008 0.055640902 0.11093148 -0.08871193
000310 5c 15 fa 3d 43 2a ac 3c 22 9e 9a 3c 06 34 ab bd
       0.12211105 0.021016246 0.018874232 -0.08359532
000320 f5 a1 97 3d 2d 3c d2 3d d4 4e a5 bd 90 b2 0b 3d
       0.07403938 0.10265384 -0.08071676 0.034105837
000330 5c 3c fd bd 34 e5 89 bd d6 16 c1 bd 04 95 9b bc
       -0.12365028 -0.0673317 -0.09428184 -0.018991955
000340 5c 63 8c 3d e0 2a e9 3d 79 db 1d bc 94 e0 85 3c
       0.06854889 0.11385131 -0.009634846 0.016342439
000350 b8 c8 ab bd d5 23 a3 3d 1d 91 36 bd c7 87 70 bb
       -0.083878934 0.07965819 -0.044571985 -0.0036702023
000360 65 76 8c bd 73 15 95 bd 24 f1 3d bd 1e 44 a1 3d
       -0.068585195 -0.07279482 -0.046372548 0.078743204
000370 6e 2d fb bc 72 98 5a bc 06 67 4e bd 59 a5 ed 3d
       -0.030661311 -0.01334201 -0.05039122 0.11603803
000380 b5 52 01 be 27 ff 5d bd 7b b1 08 3c ef b5 36 3c
       -0.12629206 -0.05419841 0.008343096 0.011151775
000390 a4 bd 00 3d 23 f4 ee 3d 94 9b e5 bd 7e c6 0d 3b
       0.031430855 0.11667659 -0.11211315 0.0021633203
0003a0 4f d7 db 3d 9d 72 61 bd bc a7 e2 bc 99 5f a7 bb
       0.10734426 -0.055040944 -0.027667873 -0.0051078317
0003b0 68 47 c6 3d 73 da f5 bd ec 53 d3 bd 1e 30 69 3d
       0.096815884 -0.120045565 -0.10318741 0.056930654
0003c0 6e 16 0b 3d 05 74 a9 3d 31 dd 07 3c 90 1a 51 bd
       0.033956937 0.08274082 0.008292482 -0.051050723
0003d0 9c 3f 51 bc b5 97 e8 bd de 07 db 3d 68 d1 12 3d
       -0.012771513 -0.11357061 0.1069486 0.035844237
0003e0 f4 fd 70 bd 61 ba e8 bd bf 17 39 bd f2 f2 81 3c
       -0.05883594 -0.11363674 -0.04518866 0.015862916
0003f0 50 58 c8 bd da 22 a6 3d 91 16 67 bd 2c f1 b5 bd
       -0.09782469 0.08112116 -0.056418005 -0.088838905

pair_mlp.0.bias f4 [64]
000000 7c 8b 91 3c e2 74 e1 3c 3d 3b 81 3d e2 c1 99 bc
       0.017766707 0.027521554 0.06310127 -0.018769208
000010 36 f7 c5 bd d3 eb d4 3d a1 c6 eb 3c 41 bc 92 bd
       -0.09666292 0.103965424 0.028781237 -0.07164813
000020 cd 44 c4 3d 65 69 c2 bd 60 3a 5c bd fa d4 cf bd
       0.09583435 -0.09492759 -0.05376661 -0.10148044
000030 76 26 87 3d ee df 16 3d 8f 8a b7 bd f5 ce c5 bd
       0.06599133 0.03683465 -0.08961975 -0.096586145
000040 1d b2 5b 3d b7 45 43 bd 18 88 04 3b c0 07 bc bd
       0.05363666 -0.047673907 0.002022272 -0.09181166
000050 23 ce b4 bd 73 c5 f3 3c 4b cf 59 bc 18 93 40 3c
       -0.0882838 0.029757237 -0.013294051 0.01175382
000060 9f 10 af 3d a6 7f 12 bd d5 0a af bd 31 96 cd bd
       0.08548092 -0.035766266 -0.08546988 -0.10038412
000070 97 77 2e bd 31 e8 73 bd c3 74 8f bd 09 6e 88 bc
       -0.04259452 -0.059547607 -0.070046924 -0.016654031
000080 67 91 18 bc 0a d7 54 bd 95 11 78 3d 89 c1 c8 bc
       -0.00931201 -0.05196289 0.060563643 -0.024506347
000090 49 07 a1 3b 0a 98 4e bd a3 71 4e 3d 54 ae 9a 3d
       0.0049141985 -0.050437964 0.05040134 0.07552782
0000a0 47 75 80 bd 9c a5 97 bd 75 99 57 3d e3 30 50 3d
       -0.06272369 -0.07404634 0.052636582 0.050827872
0000b0 17 b5 de bd b4 9e bc 3d d7 38 09 3d c1 81 fe bd
       -0.10874384 0.09209958 0.033501472 -0.12427092
0000c0 dc 18 8b bd c4 40 1c bb 76 08 7c bd ee ee 4f bd
       -0.06791851 -0.0023842314 -0.061531506 -0.05076497
0000d0 5a 99 41 bd ba 29 3a 3d 06 e7 93 bd 43 f8 2d 3d
       -0.047265388 0.04544995 -0.072217986 0.04247309
0000e0 a0 f5 86 3c 3a 7f 1a bd 17 f2 c6 bd f5 8e bf 3c
       0.016474545 -0.03771899 -0.09714144 0.023383597
0000f0 c6 6d a4 bd 8f ec d1 3d 34 2a 97 3d c2 24 49 3d
       -0.0802875 0.10250198 0.073810965 0.04910732

pair_mlp.2.weight f4 [64, 64]
000000 7c c0 92 bd 50 22 68 3d 30 8c 8f 3d 49 34 41 bd
       -0.0716562 0.056673348 0.070091605 -0.047169004
000010 9f f9 64 3d 0b 47 e4 3d b0 ee f6 3d 97 67 4c 3d
       0.05590212 0.11146363 0.12057245 0.04990348
000020 fe e5 af 3d d0 ed 56 3d 6e 8a b6 3d 9c 7c 60 3d
       0.085887894 0.05247289 0.08913122 0.054806337
000030 ae 36 fc b8 1a 30 63 3c cd 23 e0 3d d2 c2 b1 3c
       -0.00012026481 0.013866449 0.109443285 0.021699343
000040 3e da b3 3a 8b ae 4a 3b f3 d4 89 bd b0 ac f8 3c
       0.0013721657 0.003092679 -0.0673007 0.030355781
000050 35 55 a7 3c ad ab ff 3d 97 3c 50 bd 83 59 e0 3d
       0.020426372 0.124839164 -0.050839033 0.10954573
000060 da 4a 07 3e cf 1f ad bd 41 14 d6 bd 61 98 a6 3d
       0.13212147 -0.08453333 -0.10453082 0.08134533
000070 2e 8e 38 bd 98 13 c0 bd a0 c9 48 3d 9a 19 a6 3d
       -0.045057468 -0.09378737 0.04902041 0.08110352
000080 0a f6 a2 3b 96 6a 29 bd 38 72 a2 bc 7e d1 02 bd
       0.004973178 -0.041361414 -0.019829854 -0.03193807
000090 21 f8 01 3e e5 7b a0 bc bc df db 3d e6 7c 9c bd
       0.1269231 -0.019590328 0.10736033 -0.0764101
0000a0 56 69 eb 3d 0c 7d 9e bd 56 0f 19 3d 9f 2c 81 bc
       0.114947006 -0.077386945 0.03736814 -0.015768347
0000b0 a3 ca ab 3c 88 ac 54 3d 06 a3 a1 bc be 35 ec 3d
       0.020970648 0.05192235 -0.019731056 0.11533688
0000c0 f5 1e e8 3d ad c8 6d bd f3 b5 b8 bd 1c ba 0c 3d
       0.113340296 -0.058052707 -0.09019079 0.034357175
0000d0 79 57 f1 bb 6e 18 86 3c ed 8c 47 3d 19 ac cc bd
       -0.007365164 0.01636907 0.04871838 -0.099937625
0000e0 2b 06 8b bc 7b f8 8c bd 87 ad 38 3c b0 7d d8 3b
       -0.016970715 -0.068833314 0.011271841 0.00660678
0000f0 31 a8 e1 3d ea 0d 21 bd 8e 61 04 bd 37 ce a9 bd
       0.11018408 -0.03931991 -0.032319598 -0.082912855
000100 f0 ab c2 3d 28 28 1b 3d 5c 03 21 3d f0 57 1c bd
       0.09505451 0.037880093 0.039309844 -0.0381698
000110 4e 6f c3 bd 03 08 4a 3c cc 5e 5c bd 15 f2 9a 3d
       -0.09542714 0.012331012 -0.053801343 0.07565705
000120 fe 89 96 bc bb e1 eb 3c cb 19 93 bc f7 0a c3 3c
       -0.018376347 0.02879416 -0.017956635 0.02380894
000130 b2 ec 7b 3d d7 9a a9 3d 59 45 63 bd f3 93 fb 3c
       0.061505027 0.082814865 -0.055486057 0.030710196
000140 ce db e2 bd 7a 30 ad 3d b0 a8 58 3d 70 40 a2 3c
       -0.11077081 0.08456512 0.052895248 0.019806117
000150 d7 ef d7 bd 99 1e 36 bc ec 82 e8 3d a6 16 bc bd
       -0.10543793 -0.0111156935 0.11353096 -0.09184007
000160 d0 bb 07 bd 43 cf cf bc 24 3d b6 bd 80 e1 66 3d
       -0.033138096 -0.025367385 -0.088983804 0.056367397
000170 d6 a4 a5 3b 82 fb 01 bd 48 a0 b5 bd 08 0e 41 bd
       0.0050550504 -0.031733997 -0.08868462 -0.047132522
000180 02 2e da bd ef 39 cf 3d b7 b8 ea 3d 25 6b a1 3c
       -0.106533065 0.10118472 0.11461013 0.01970441
000190 9c e1 fb bd 57 ea 99 bd 3a 81 21 3d 32 61 a9 bd
       -0.12298891 -0.075154 0.03942988 -0.08270492
0001a0 4b cd 43 3d 48 88 d0 3d 16 14 bb 3c 64 f9 dc bc
       0.047803205 0.101822436 0.022836726 -0.026974387
0001b0 79 f0 96 bb 7b 55 76 bd b0 25 01 be 28 06 d0 bd
       -0.0046063033 -0.060140114 -0.12612033 -0.10157424
0001c0 57 ad bb bd 49 1e a0 bc da 2a c3 3d 0c cc d6 3d
       -0.09163921 -0.019545691 0.09529658 0.104881376
0001d0 09 4b 7f 3d 4d ca e6 bd 23 d9 6b 3c 25 f4 e3 bd
       0.06232742 -0.112690546 0.014395031 -0.11130551
0001e0 eb 90 56 3d 18 4c cd bd a5 e8 31 bd a2 4f 80 3d
       0.0523843 -0.10024279 -0.043434758 0.06265189
0001f0 03 82 b8 3a 7d 03 92 3d 82 50 ed bd a5 1a a0 3d
       0.0014076832 0.071295716 -0.11587621 0.07817582
000200 e8 ac 02 be 5b 96 9f 3d 1e 63 7c 3d 65 0b c1 3c
       -0.12761271 0.0779235 0.061617963 0.023565004
000210 9b 9c 8b 3d df 13 aa 3d f0 47 68 3d 20 29 1f 3d
       0.068169795 0.08304571 0.05670923 0.03885758
000220 53 db eb bd 8e 7b ed bd 65 39 c2 3c 26 71 3a 3d
       -0.11516442 -0.11595832 0.023709008 0.045518063
000230 99 a0 ee bc 1e 87 75 bb 06 65 82 3c 7d 7b f7 3d
       -0.029129313 -0.003746457 0.015917312 0.120841004
000240 86 04 60 3c 21 4b bd bd f3 ed c7 bc f6 e2 b9 3d
       0.0136729535 -0.09242845 -0.024405455 0.090764925
000250 ca 33 e5 3d 6b bc ca bd c5 37 9d bc 1b 57 30 bc
       0.111915186 -0.09899219 -0.019191632 -0.010762955
000260 84 dc 62 3d a3 6d e9 bd 2f 1c 00 be f3 a7 bf bd
       0.05538608 -0.11397865 -0.12510751 -0.09358206
000270 af 97 9b bd d3 f7 84 3c 59 7d 95 bd 0c bf bb bd
       -0.07597291 0.016231453 -0.07299299 -0.09167299
000280 0d 8e 73 3c 70 ce 75 3d 40 eb dd bd 78 a5 59 3d
       0.0148654105 0.060011327 -0.10835886 0.05313632
000290 4e 71 30 bd 31 6f b5 3d 16 b0 cb bd 85 c3 35 bd
       -0.043076806 0.08859099 -0.09945695 -0.044375915
0002a0 13 86 1c b9 e3 ad 88 3c d9 f6 0d 3d 5a 8b bc 3d
       -0.00014927266 0.016684478 0.03465924 0.09206267
0002b0 40 93 b6 3d 7f 51 1a 3d 07 22 96 3d c0 cb 8d 3d
       0.089148045 0.037675377 0.07330709 0.06923628
0002c0 8b e9 da bd 33 43 6d bc c8 7e 88 bd 43 ea f0 3d
       -0.10689076 -0.014481354 -0.066648066 0.11763432
0002d0 03 24 6e 3d e7 56 ed bd c7 4a 90 bd 4c 5d 1c bd
       0.058139812 -0.11588841 -0.07045513 -0.038174912
0002e0 13 d4 07 3d 5f 3f ac bd e9 63 45 bd 42 de c3 3d
       0.033161234 -0.084105246 -0.048190985 0.09563877
0002f0 96 8d be bd 09 e4 3c 3d 6c 08 22 bd bf 6c dd bd
       -0.09304349 0.04611591 -0.039558813 -0.10811757
000300 b1 b2 2a 3c 4e 49 c7 3d 92 65 7e bd c8 38 38 bc
       0.01041858 0.09730779 -0.062108584 -0.011244006
000310 a6 22 cc bc 35 f3 b9 bd 40 71 2c 3d 10 a2 03 3d
       -0.024918865 -0.09079591 0.04210019 0.032136977
000320 e2 e7 cc 3d 12 46 ec bd ae 5f b3 3c 9e eb 5b 3d
       0.10005166 -0.11536802 0.02189621 0.0536915
000330 05 9b 42 bc bd 29 a8 3d 8b 29 7b 3d f9 22 c3 bc
       -0.01187778 0.08211086 0.061318915 -0.023820387
000340 c0 0d 8a 3d 51 e1 94 3d 81 a8 b0 3d 38 ef d4 3d
       0.06740904 0.07269538 0.086258896 0.1039719
000350 e5 f8 42 3c 7b 51 f3 bc 0e 2e 68 bd 1d d1 b7 bd
       0.011900161 -0.029701939 -0.056684546 -0.08975432
000360 7a 21 cb bc ee 75 e0 3d 53 6e 82 3d 0f c4 16 bd
       -0.024796236 0.10959993 0.06368699 -0.03680807
000370 68 6a 45 bd 12 6b 5d 3d 04 e5 57 3d 38 41 73 3d
       -0.04819718 0.05405719 0.05270864 0.05938837
000380 ca 38 33 3d 03 56 45 3c ea 46 55 3d 33 d7 67 bd
       0.04375533 0.012044433 0.052069582 -0.056601714
000390 41 94 81 3d 8f ad ee 3d ff d1 83 bd 3d 48 5e bc
       0.06327105 0.116541974 -0.06436538 -0.013567028
0003a0 fe 6c 27 bd 91 fe ec bd fc 52 7e bd a3 b7 a8 3c
       -0.040875427 -0.11571992 -0.06209086 0.020595377
0003b0 e1 80 b4 3d 02 c3 f1 bc 46 a6 bb bd 9a a5 5c bd
       0.08813644 -0.029511932 -0.091625735 -0.053868867
0003c0 d9 ce bd bd 33 c0 df bd 75 55 cb bd 7b ef d1 bd
       -0.09267969 -0.10925331 -0.09928409 -0.102507554
0003d0 a2 7c 0b 3d 85 05 8e bd 71 21 ad bd 70 79 8e 3d
       0.034054406 -0.069346465 -0.08453644 0.06956756
0003e0 c9 1a c6 bd 8e 33 c8 bd 61 e9 f3 3b 3b c1 ae bc
       -0.096730776 -0.09775458 0.0074435924 -0.021332374
0003f0 f4 64 e3 bd d1 59 8c bd 84 c7 21 bd dc 3b 87 3d
       -0.1110324 -0.068530686 -0.039496914 0.06603214

pair_mlp.2.bias f4 [64]
000000 94 a3 d5 bc ec ce eb bd 81 eb 3f 3b b4 47 2c bc
       -0.026078977 -0.115140766 0.0029284658 -0.010515142
000010 f3 e6 8e bd dd 66 4a 3d 38 99 50 3c 84 8c 37 bd
       -0.06977644 0.049414504 0.012731843 -0.04481174
000020 03 7a d9 bd df eb 54 bd 3b 21 1b bd 1f 20 ad bd
       -0.10618975 -0.051982757 -0.037873488 -0.08453392
000030 d4 fb b3 bd be 5e 66 bd cf 58 96 3c 1b fa 33 3d
       -0.08788267 -0.056242697 0.018352894 0.04393969
000040 83 17 ca bd 7c e1 07 3c 0a a4 46 bd 44 64 aa bd
       -0.09867766 0.008293506 -0.048496284 -0.083199054
000050 65 3f a4 bd 82 02 c6 bd 15 cc 6e 3d 94 d1 62 3d
       -0.08019904 -0.09668447 0.058300097 0.05537565
000060 2d 22 a6 bc eb 9d 54 bc 81 65 c7 3d db 4d 10 3c
       -0.020279968 -0.012977104 0.09736157 0.008807625
000070 8e f4 90 3d 3b 0e 5e 3d 44 ca 87 3d 20 9e 02 3d
       0.07077895 0.05421279 0.06630376 0.03188908
000080 7e 61 6e 3d 19 7f 9f bd e4 05 1f 3d f9 73 fc 3c
       0.058198445 -0.07787914 0.038823977 0.030817019
000090 87 a5 46 bc 65 3d ce bc 6f 53 40 bd 30 ca 8c bc
       -0.012124426 -0.02517576 -0.04695457 -0.017186254
0000a0 cf 0e 83 bd d4 c8 04 be 90 1c 1e 3d 16 b8 51 3c
       -0.06399309 -0.12967235 0.038601458 0.012800237
0000b0 c4 c8 d1 3d 02 e0 f6 3d 45 f2 81 3d 2d 6d 4e bd
       0.10243371 0.12054445 0.06345037 -0.050397087
0000c0 61 01 b4 3d bf d2 fa bc f3 29 92 3b bd 66 eb bd
       0.087893255 -0.03061807 0.004460567 -0.11494205
0000d0 c1 72 e0 3d 5c d4 10 bc ec ed fa bc 6a d4 e2 bd
       0.109593876 -0.008839693 -0.030631028 -0.11075671
0000e0 78 53 7a 3d e7 a7 74 3b be 88 9c bc bc 2e 4a bd
       0.06111476 0.0037331523 -0.019108173 -0.049360976
0000f0 dd d3 f6 3c a9 db 38 bd 1f d6 cd 3d e2 57 3f 3d
       0.030130321 -0.04513136 0.10050606 0.04671467

pair_mlp.4.weight f4 [1, 64]
000000 cd 4b d7 3d 47 39 91 bd 0c 06 5d bd e0 23 fa bb
       0.10512505 -0.07091003 -0.053960845 -0.007633671
000010 dc 54 ec 3c 79 dc 18 3d 0b 88 60 bd 6e c7 18 bd
       0.028849058 0.037319634 -0.05481724 -0.037299566
000020 0c ed 9f 3d de 31 03 3c 7b 24 ae bd ac 56 74 3d
       0.07808885 0.008007495 -0.08503052 0.05965297
000030 b8 77 b4 3d 6b a5 06 3b 84 c5 44 3d 0d c2 e9 3c
       0.08811897 0.0020545374 0.048039928 0.028534913
000040 5a fc 65 3d 34 16 33 bd 34 5a 21 ba f9 b1 52 bd
       0.056148864 -0.043722346 -0.0006155104 -0.05143926
000050 6a 46 9d bd 7e b1 a4 bd 2e 4d 4a 3d 8c 39 d0 bd
       -0.07679446 -0.080416664 0.04939001 -0.10167226
000060 b7 e0 ca bd 8b 0d d6 bd 3e 0d e9 bd 71 d9 9c bd
       -0.09906142 -0.10451802 -0.11379479 -0.07658661
000070 8e 0c 81 bd 17 43 b9 bd 71 73 8f bd 0f 45 a2 3d
       -0.06301223 -0.090459995 -0.070044406 0.07923328
000080 b4 b6 a8 bd 17 e2 c9 3d 20 72 c3 3d 0c 0c 96 3d
       -0.08237973 0.09857576 0.09543252 0.073265165
000090 72 51 a5 3d b8 54 84 bd 1a 5e 20 3d 8e 32 9f 3a
       0.08072175 -0.06461471 0.039152242 0.0012145804
0000a0 03 44 d0 3d 82 bf 2d 3d b5 14 de bc 49 f1 9f bc
       0.10169222 0.042418964 -0.027109483 -0.019524233
0000b0 b2 31 87 bd ab 15 78 bd 54 59 f2 bc f2 54 ce bd
       -0.066012755 -0.06056754 -0.02958361 -0.10074796
0000c0 bf 7c e5 3d f9 ed 87 bd 52 8c d1 bd a6 6b 80 3d
       0.11205434 -0.066371866 -0.10231842 0.06270532
0000d0 c6 d3 7d 3d 5a 0b c8 3d 73 3a e5 bc ae 80 75 bd
       0.06196954 0.0976779 -0.027981972 -0.05993717
0000e0 b9 7b 13 3b d0 1c 8c bd 7e f2 97 3a 3f 59 38 bd
       0.0022504164 -0.06841433 0.0011592654 -0.045006987
0000f0 30 cc 01 bc 68 09 11 bd f6 4f c3 bd b1 2a da bd
       -0.007922217 -0.03540936 -0.09536736 -0.10652674
