checkpoints/run_20251208_104126.pt (torch, 130736 bytes, 19 tensors)

rbf_centers f4 [32]
0	0x00000000	0.0
1	0x3e46318c	0.19354838
2	0x3ec6318c	0.38709676
3	0x3f14a529	0.58064514
4	0x3f46318c	0.7741935
5	0x3f77bdef	0.9677419
6	0x3f94a529	1.1612903
7	0x3fad6b5a	1.3548386
8	0x3fc6318c	1.548387
9	0x3fdef7be	1.7419355
10	0x3ff7bdef	1.9354838
11	0x40084210	2.1290321
12	0x4014a529	2.3225806
13	0x40210842	2.516129
14	0x402d6b5a	2.7096772
15	0x4039ce73	2.9032257
16	0x4046318d	3.0967743
17	0x405294a6	3.2903228
18	0x405ef7be	3.483871
19	0x406b5ad7	3.6774194
20	0x4077bdf0	3.8709679
21	0x40821084	4.064516
22	0x40884210	4.2580643
23	0x408e739d	4.451613
24	0x4094a52a	4.6451616
25	0x409ad6b6	4.83871
26	0x40a10842	5.032258
27	0x40a739ce	5.225806
28	0x40ad6b5b	5.419355
29	0x40b39ce7	5.612903
30	0x40b9ce74	5.806452
31	0x40c00000	6.0

embedding.weight f4 [100, 16]
0	0xbfbd6a57	-1.4798077
1	0x3ef9802c	0.487306
2	0xc040d19d	-3.0127938
3	0x3ee340fd	0.4438552
4	0x3eb831f7	0.3597562
5	0xbc4a4fd0	-0.01234813
6	0x3e5fc459	0.21852244
7	0xbfa40728	-1.2814684
8	0x401a5108	2.4111958
9	0x3fffe36d	1.999128
10	0x3f48e7b7	0.7847857
11	0xbf827e08	-1.0194712
12	0xbe57a12e	-0.21057579
13	0x3f20787c	0.62683845
14	0x3f6e87fe	0.9317626
15	0x3e3f3ca2	0.18675473
16	0x3f753201	0.95779425
17	0xbf9103cd	-1.1329285
18	0x3b38ee1d	0.0028218098
19	0x3fa84de3	1.3148769
20	0xbf81b196	-1.013232
21	0xbf0ba225	-0.5454429
22	0x3edb38ac	0.42816675
23	0xbff5e59e	-1.9210699
24	0x3fa24502	1.267731
25	0xbf90aca4	-1.1302686
26	0x3f5d4f90	0.8644953
27	0x3f33d158	0.7024131
28	0x3e46db4c	0.19419593
29	0xbf6d4a41	-0.9269143
30	0x3df1f5d5	0.11814467
31	0xbee334cc	-0.44376218
32	0xbf5a61f6	-0.85305727
33	0xbf573afd	-0.84074384
34	0xbecaeb6b	-0.39632735
35	0xbe84acbe	-0.25913042
36	0xbf2d6454	-0.67731214
37	0x3d913a8c	0.07091245
38	0xbeeab06b	-0.4583772
39	0x3fd7a4ae	1.6847131
40	0x3e11c4d4	0.1423524
41	0x3f248951	0.6427203
42	0xbf338341	-0.7012215
43	0x3f85499c	1.0413089
44	0xc0166c1c	-2.3503485
45	0x3e3cd670	0.18441176
46	0x3f223351	0.6335955
47	0xbfc3ce11	-1.5297261
48	0xbf99ce7d	-1.201614
49	0x3d8ac35e	0.067755446
50	0x3d3b1ee4	0.045683756
51	0x3ef057e3	0.46942052
52	0x3f49417f	0.78615564
53	0xbf95eef9	-1.1713554
54	0x3f23abc5	0.63933975
55	0x3f19fa7d	0.6014784
56	0x3ec57e52	0.38572937
57	0xbeee140a	-0.46499664
58	0xbfe5b7b3	-1.7946686
59	0x3ec42d97	0.38316032
60	0xbf4d4f19	-0.8019882
61	0xbdbc43a7	-0.09192591
62	0xbefea1bc	-0.4973277
63	0xbfbe57bc	-1.4870524
64	0xbee6f4d5	-0.45108667
65	0xbf64c417	-0.8936171
66	0xbe8d34ca	-0.27579337
67	0x3f43bad2	0.7645694
68	0x3fa6ae62	1.3021967
69	0x3fe30ebc	1.7738872
70	0xbfbc5dbd	-1.4716107
71	0xbf4a45ac	-0.7901256
72	0xbf511d25	-0.81685096
73	0xbef3a5b6	-0.47587365
74	0x3f542708	0.82872057
75	0xbe26af5f	-0.16277836
76	0x3fd12d20	1.6341896
77	0xbff3d896	-1.9050472
78	0x3f1fd2d2	0.6243106
79	0x4013d12b	2.3096416
80	0x3f8e7ac6	1.1131217
81	0xbf06e6ad	-0.52695733
82	0x3d1db545	0.03850295
83	0xbef9f687	-0.48820898
84	0x3f05a526	0.5220512
85	0xbd8b35c4	-0.06797364
86	0xbf867039	-1.0502998
87	0xbdadd691	-0.08488191
88	0x3ebdfcdd	0.37106982
89	0x3fde455c	1.7364917
90	0x3eae576c	0.34051073
91	0x3c01978c	0.007909667
92	0xbf61bf1a	-0.8818222
93	0x3d85a821	0.06526209
94	0xbf422aa7	-0.7584633
95	0xbf0e2ae5	-0.555342
96	0x3f1318fd	0.57460004
97	0x3f7beff8	0.9841304
98	0xbf810f0d	-1.0082718
99	0xbfe2afd5	-1.770991
100	0x3ea2efe9	0.31823662
101	0xbf251887	-0.6449055
102	0xc0105522	-2.255196
103	0x3f748e39	0.95529515
104	0xbfa60bfe	-1.297241
105	0x3f385a73	0.72013015
106	0xbf5a1b98	-0.85198355
107	0x3e2707a2	0.16311505
108	0x3d7bda65	0.061487574
109	0xbf0c35d3	-0.5476963
110	0x3f47caea	0.78044
111	0x3db53cfe	0.08849524
112	0xbdb45246	-0.08804755
113	0x3fae16e9	1.3600742
114	0x3e136f3d	0.14397903
115	0x3ee15ec2	0.44017607
116	0xbf3e40df	-0.74317735
117	0x3f42a391	0.7603083
118	0x3f25bbdc	0.64739776
119	0x3e2a52c5	0.16633137
120	0x3f6a2cf4	0.91474843
121	0xbfde100f	-1.7348651
122	0xbfac5e1f	-1.3466223
123	0xbefa7111	-0.48914388
124	0xbd2a7419	-0.041614626
125	0xbe73533e	-0.23762223
126	0x3eba167e	0.36345285
127	0x3faa9357	1.3326215
128	0x3ed6cbd5	0.41952386
129	0xbf6fd16d	-0.93678933
130	0xbdb89a41	-0.090137966
131	0xbf4678e4	-0.77528214
132	0xbfb65214	-1.4243798
133	0x40248a8f	2.570957
134	0x3f5ba59e	0.85799587
135	0xbfbcf56f	-1.47624
136	0x3f0a2acd	0.5397156
137	0xbfa9a0cf	-1.32522
138	0x3e4bb94a	0.19894901
139	0xbe16227f	-0.14661597
140	0x3f175a42	0.591221
141	0xbf059d45	-0.521931
142	0xbfd43760	-1.6579399
143	0xbf013f71	-0.5048743
144	0xbd1b970b	-0.037985843
145	0xbffc5d4c	-1.9715972
146	0x3fed5be1	1.8543664
147	0xbf35269f	-0.70762056
148	0x3c1d82f2	0.009613739
149	0xbea3d078	-0.31994987
150	0xbe1878d0	-0.14889836
151	0x3d0b1aad	0.033960987
152	0xbe266a6a	-0.16251531
153	0xbf3f73c0	-0.74785995
154	0xbf038a43	-0.51382846
155	0xbfa7b03d	-1.3100659
156	0xbddd0e93	-0.107937954
157	0xbf03c63d	-0.5147436
158	0x3fd86f3a	1.6908944
159	0x3e7e35cd	0.24825211
160	0x3e24ba03	0.16086583
161	0x3d3bd631	0.045858566
162	0xbf2cd2e7	-0.6750931
163	0x3f6353db	0.8879983
164	0x3fb675e3	1.4254726
165	0xbff60024	-1.9218793
166	0xbf9f270d	-1.2433792
167	0x3f2b3739	0.6688114
168	0x3d8ce88e	0.06880294
169	0x3f85e413	1.0460228
170	0xbf7ae715	-0.98008853
171	0x3e4785af	0.1948459
172	0x3cebb699	0.028773593
173	0xbea99b84	-0.33126462
174	0xbdcd4dfe	-0.100246415
175	0x3f08172f	0.53160375
176	0x3e92fdb8	0.28709197
177	0x3d39885f	0.04529607
178	0x3e5ee5ff	0.21767424
179	0x3f48c5c2	0.78426754
180	0xbfe170cb	-1.7612547
181	0x3fe1d1e7	1.7642182
182	0x3eb218e7	0.34784624
183	0x3f257ba6	0.646418
184	0x3fadbf7c	1.3574061
185	0x3fcbc8e4	1.5920682
186	0x3eddb887	0.43304846
187	0xbf33fde3	-0.70309275
188	0x3e90c521	0.28275397
189	0x3fd34c93	1.6507744
190	0x3ee7ac19	0.45248488
191	0x3ea86556	0.32889813
192	0x3e34be1b	0.17650644
193	0xbf967db1	-1.1757108
194	0xbf7d77ec	-0.9901111
195	0xbfdeba51	-1.7400609
196	0xc00d49c8	-2.2076283
197	0x3ec396ca	0.3820098
198	0x40062b4b	2.0963924
199	0xbe7092d2	-0.23493508
200	0x3e3168cd	0.17325135
201	0x3eb3a3c6	0.35085887
202	0x3f4b7c7a	0.7948681
203	0x3e85fbd7	0.261687
204	0xbe2a57c5	-0.16635044
205	0x3ff5a4d2	1.9190924
206	0x3f84bf53	1.0370888
207	0x3f525705	0.8216403
208	0xbe5a8d5d	-0.21342988
209	0xbfb9a28f	-1.4502734
210	0x3e8346be	0.2563991
211	0x3e0f0847	0.13968001
212	0x3f8a9e1f	1.0829505
213	0xbf5ba5de	-0.8579997
214	0xbf1d992a	-0.61561835
215	0x3d40213e	0.046906702
216	0xbfa9a91b	-1.3254732
217	0x3f590756	0.8477682
218	0xbe4d4b3f	-0.20048235
219	0x3e95501a	0.29162675
220	0x3ea3abfd	0.31967154
221	0x3d0f5817	0.03499612
222	0xbf119e85	-0.56882507
223	0xbe343b6d	-0.17600794
224	0x3f878856	1.0588481
225	0xbe21d1b6	-0.15802655
226	0xbf069be4	-0.5258162
227	0xbeb24e02	-0.3482514
228	0xbe9f66d7	-0.31133148
229	0xbef609d8	-0.48054385
230	0xbf281938	-0.6566348
231	0xbfeae42d	-1.8350884
232	0xbe50e642	-0.20400336
233	0x40047abc	2.069991
234	0x3efa4736	0.48882455
235	0x3e4714ec	0.19441575
236	0xbf32b69a	-0.6980988
237	0x3f31ee85	0.69504577
238	0x3fac0118	1.3437834
239	0xbf8e9a77	-1.1140889
240	0xbf21ff9e	-0.63280666
241	0xc009e378	-2.1545086
242	0x3eb74b5c	0.35799682
243	0xbe37ed37	-0.17961584
244	0xbf105da5	-0.5639289
245	0x3ec36a7a	0.38167173
246	0xbe892d1b	-0.26792225
247	0xbfd86c5a	-1.6908066
248	0xbc12e052	-0.008964615
249	0x3f4d9a64	0.80313706
250	0x3da8032c	0.0820373
251	0x3e97bc48	0.29635835
252	0x3f7b3279	0.9812389
253	0xbed43891	-0.41449407
254	0xbf44d384	-0.7688525
255	0x3f0028ce	0.50062263

pair_mlp.0.weight f4 [64, 64]
0	0xbde90dba	-0.11379571
1	0x3d955a28	0.072925866
2	0x3dcdafb4	0.10043278
3	0x3cb94449	0.022615569
4	0x3d76b55a	0.060231544
5	0xbcfc99bd	-0.030835027
6	0xbcd84b17	-0.026402993
7	0xbcb5b49f	-0.022180853
8	0x3ce056d7	0.027385158
9	0x3d77fe7e	0.060545437
10	0x3d3dccc1	0.046337847
11	0xbd14ca70	-0.036325872
12	0xbd9f75a7	-0.07786112
13	0xbdecd2c7	-0.1156364
14	0x3db305eb	0.08741363
15	0xbd07672e	-0.033057384
16	0xbd731f94	-0.059356287
17	0xbddbe81e	-0.10737632
18	0xbdbc5a42	-0.09196903
19	0x3d06b51b	0.03288756
20	0x3cefa525	0.029253552
21	0x3df0bdcf	0.11754953
22	0xbd8e7514	-0.06955925
23	0x3ddf3ec2	0.10900642
24	0xbd5640ce	-0.052307896
25	0xbcf452ec	-0.029824696
26	0xbcb6753c	-0.022272699
27	0xbdd51e91	-0.10406221
28	0xbd6ad7da	-0.05733476
29	0x3cb42ca4	0.021993943
30	0xbb3dbe2e	-0.0028952467
31	0xbdda8a25	-0.1067088
32	0x3c6c1a15	0.014410515
33	0xbbd27669	-0.006422807
34	0xbdab1481	-0.0835352
35	0xbd9d9edd	-0.076963164
36	0x3d51027f	0.05102777
37	0x3d23a17c	0.039948925
38	0x3d1898f2	0.037255235
39	0xbdc737d5	-0.09727446
40	0x3d6f92f8	0.05848977
41	0x3ba864c4	0.0051389653
42	0xbd43c10d	-0.04779153
43	0x3d88349d	0.0665066
44	0xbc6183de	-0.01376435
45	0xbde30bba	-0.11086221
46	0xbd1f7afb	-0.038935643
47	0x3d38d33f	0.045123335
48	0xbd134845	-0.035957593
49	0xbdc6aa27	-0.09700423
50	0x3c0e2999	0.00867691
51	0xbdbb78be	-0.09153889
52	0xbc84e8b8	-0.01622425
53	0xbcc6c885	-0.024265537
54	0x3dba2b40	0.090902805
55	0x3db0c365	0.086310185
56	0x3dfac1d1	0.12243999
57	0xbdf4a94a	-0.11946352
58	0x3df19276	0.11795513
59	0x3cba9bfa	0.022779454
60	0xbdf583a4	-0.11987999
61	0x3c658a47	0.014010019
62	0x3d8f8beb	0.07009109
63	0xbd14e5ce	-0.03635197
64	0x3d91077a	0.07081504
65	0x3dd67340	0.10471201
66	0xbdffec00	-0.12496185
67	0x3d9b651d	0.07587645
68	0x3d90279d	0.07038806
69	0xbdac28c5	-0.08406214
70	0xbd1f4309	-0.03888229
71	0xbdadf05a	-0.08493109
72	0x3c8904ef	0.016725985
73	0xbdfd620e	-0.12372218
74	0xbcd72b86	-0.02626587
75	0xbda66cc9	-0.08126218
76	0xbc063e09	-0.008193501
77	0x3da9ffc2	0.08300735
78	0x3d55740b	0.05211262
79	0x3ca576f2	0.02019832
80	0xbc2b95b7	-0.0104727065
81	0x3d4408e8	0.047860056
82	0x3df092a4	0.117467195
83	0x3c5c16f3	0.013433206
84	0x3d81ec86	0.063439414
85	0xbd9481b8	-0.072513044
86	0xbd8aea5f	-0.06782984
87	0x3d8ffab8	0.07030243
88	0x3cde1e7e	0.02711415
89	0x3cefddae	0.02928051
90	0x3da495d4	0.0803639
91	0xbcbf7c25	-0.023374626
92	0x3d975041	0.07388354
93	0xbd1d7ec8	-0.038450986
94	0xbd5a7b71	-0.05334038
95	0x3da430b7	0.08017104
96	0xbd010083	-0.03149463
97	0x3e00ff93	0.12597494
98	0xbd60fc89	-0.054928336
99	0x3db0167e	0.0859804
100	0xbdf7f764	-0.12107733
101	0xbd19e595	-0.037572462
102	0xbce89d15	-0.028395215
103	0xbdca12b8	-0.098668516
104	0x3d73a55b	0.059483867
105	0x3d94b81a	0.07261677
106	0x3db64bc4	0.0890117
107	0xbd8bb74a	-0.06822069
108	0xbde4a253	-0.111637734
109	0xbca08ad0	-0.019597441
110	0xbd3ab988	-0.045587093
111	0xbdd021f2	-0.101627246
112	0xbd974fa9	-0.07388241
113	0x3d8fc8dd	0.070207335
114	0x3b723a82	0.0036961143
115	0x3df84e62	0.12124325
116	0xbd8d24cc	-0.06891784
117	0x3d62b89c	0.05535184
118	0xbcd8c949	-0.026463168
119	0xbdb52b01	-0.08846093
120	0x3db092bd	0.08621738
121	0xbda45e71	-0.08025826
122	0xbd891322	-0.066931024
123	0xba3cc088	-0.000720032
124	0xbd935d11	-0.071954854
125	0x3d353c05	0.044246692
126	0x3da7c3b7	0.081916265
127	0x3cb40133	0.021973228
128	0x3d583481	0.052784447
129	0xbdae78c9	-0.08519132
130	0x3d19150f	0.0373736
131	0xbd0e91a5	-0.034806866
132	0x3dc5cd75	0.096583284
133	0xbc1ea81b	-0.009683634
134	0xbd7fbe6b	-0.062437456
135	0xbd8debab	-0.06929716
136	0xbd176de6	-0.03697004
137	0x3ca19a0a	0.019726772
138	0xbbb53c79	-0.0055308905
139	0x3d4bc3a8	0.04974714
140	0xbdaa2920	-0.08308625
141	0xbd839af8	-0.06426042
142	0xbd8127ab	-0.06306394
143	0x3df56349	0.11981828
144	0x3d9b2c2e	0.07576786
145	0x3d95d490	0.07315934
146	0xbd19047b	-0.03735779
147	0xbd2d8d26	-0.042370938
148	0xbd3d8987	-0.046273734
149	0x3d0367ca	0.032081403
150	0x3dde88d0	0.10865939
151	0x3deadb89	0.11467654
152	0x3da9d80a	0.08293159
153	0x3ddea370	0.10871017
154	0x3d8a9821	0.067672975
155	0xbd81f799	-0.06346054
156	0x3db64c81	0.08901311
157	0xbd9f5631	-0.077801116
158	0x3da98570	0.08277404
159	0xbd4589b9	-0.048227046
160	0x3d9fb3b9	0.07797951
161	0x3df3ae78	0.11898512
162	0xbc1a1ad6	-0.009405812
163	0xbc1f0243	-0.009705129
164	0xbdf6b681	-0.120465286
165	0x3d358734	0.044318393
166	0x3ccf8793	0.025333202
167	0xbdb6d00a	-0.08926399
168	0xbdf4603b	-0.11932417
169	0xbd7c6617	-0.061620798
170	0x3d0e2f93	0.03471334
171	0x3c208e69	0.009799578
172	0xbcf804ca	-0.030275721
173	0xbd8b674a	-0.0680681
174	0x3e008442	0.12550452
175	0x3d8e9d13	0.06963553
176	0xbd5de974	-0.054177716
177	0x3dcaaa32	0.098957434
178	0x3ca93826	0.020656656
179	0x3d89fc91	0.06737626
180	0xbc498f59	-0.012302243
181	0x3db0e13e	0.086367115
182	0xbdd29145	-0.10281614
183	0x3d7f9eaf	0.06240719
184	0xbd48524c	-0.04890661
185	0x3b005ce5	0.001958662
186	0xbddb86f8	-0.107191026
187	0x3cf0387b	0.029323807
188	0xbde0cef7	-0.109769754
189	0xbde49a13	-0.111622
190	0xbdb6569e	-0.0890324
191	0xbb0cc2d1	-0.0021478424
192	0x3dd4adfb	0.10384747
193	0x3d54404f	0.051819142
194	0x3ddc653d	0.10761497
195	0xbdadd9bc	-0.08488795
196	0x3df2496a	0.11830409
197	0x3ccbbfaa	0.024871666
198	0x3cb9ab48	0.022664681
199	0xbdb306f5	-0.08741561
200	0x3d9f67ca	0.07783468
201	0x3dca6fe3	0.09884622
202	0xbd9d7be7	-0.07689648
203	0x3d1b10bc	0.037857756
204	0xbdf57d24	-0.11986759
205	0xbd91ba6d	-0.07115636
206	0xbdc8dbd5	-0.09807555
207	0xbcbb2819	-0.022846268
208	0x3d945bde	0.07244085
209	0x3de14a05	0.11000446
210	0xbc4d5b2b	-0.012533943
211	0x3ca90a58	0.020634815
212	0xbdb37b31	-0.08763731
213	0x3da95426	0.08268003
214	0xbd277559	-0.040883396
215	0xbbf69232	-0.007524752
216	0xbd847e3f	-0.06469392
217	0xbd9cd614	-0.0765802
218	0xbd2db5f5	-0.042409856
219	0x3da984f7	0.08277314
220	0xbcdd8b4d	-0.027043963
221	0xbc8d33d6	-0.017236631
222	0xbd5be586	-0.053685687
223	0x3de5ca09	0.11220176
224	0xbdfad0bc	-0.12246844
225	0xbd4e6666	-0.050390624
226	0x3c46d20a	0.012135038
227	0x3c749534	0.014928151
228	0x3d1025e8	0.0351924
229	0x3df6a12f	0.12042462
230	0xbdddf4bc	-0.10837695
231	0x3bc0fed0	0.005889751
232	0x3de3752f	0.11106335
233	0xbd523b98	-0.051326364
234	0xbcc43d46	-0.023954999
235	0xbab6b0f1	-0.0013938231
236	0x3dcde49c	0.100533694
237	0xbdee39d5	-0.11632124
238	0xbdcbaeb0	-0.09945428
239	0x3d7885bd	0.060674418
240	0x3d1a78d2	0.03771288
241	0x3db12c28	0.08651
242	0x3c45d8c5	0.012075608
243	0xbd418cd8	-0.04725346
244	0xbc12ce7c	-0.0089603625
245	0xbde0c294	-0.10974613
246	0x3de2e385	0.11078552
247	0x3d229499	0.039692495
248	0xbd613043	-0.054977667
249	0xbde0cf1a	-0.109770015
250	0xbd2939d4	-0.041314915
251	0x3ca1ba4d	0.019742155
252	0xbdc0646b	-0.09394153
253	0x3dae1808	0.08500677
254	0xbd572b1e	-0.052531354
255	0xbdadfb82	-0.08495237

pair_mlp.0.bias f4 [64]
0	0x3cb98225	0.022645066
1	0x3d049130	0.032365024
2	0x3d8933bf	0.06699323
3	0xbc74ddca	-0.014945457
4	0xbdd44ba7	-0.10365992
5	0x3dd09cae	0.10186134
6	0x3cce09ea	0.025151212
7	0xbd87e57c	-0.066355675
8	0x3db77578	0.08957952
9	0xbdb73467	-0.08945542
10	0xbd4f8bc4	-0.0506704
11	0xbdc72d85	-0.09725479
12	0x3d8fd08a	0.070221975
13	0x3d04fb2d	0.032466102
14	0xbdbae512	-0.09125723
15	0xbdcf50f6	-0.10122864
16	0x3d4ce4a6	0.050022744
17	0xbd45cb56	-0.04828962
18	0xbb9777d9	-0.0046224413
19	0xbdba27cf	-0.09089624
20	0xbdb16b36	-0.08663027
21	0x3d069d79	0.03286502
22	0xbbdaa469	-0.0066724312
23	0x3bb5ee7c	0.005552111
24	0x3da8c4d1	0.08240665
25	0xbd22e909	-0.03977302
26	0xbda1a9e6	-0.07893734
27	0xbdd2b04a	-0.10287531
28	0xbd425945	-0.047448415
29	0xbd7a0808	-0.061042815
30	0xbd9e136c	-0.07718548
31	0xbc449e30	-0.012000605
32	0xbba57a11	-0.005049952
33	0xbd697dc3	-0.0570047
34	0x3d64fda6	0.05590596
35	0xbce22f82	-0.027610544
36	0x3c25c146	0.010116881
37	0xbd3de90c	-0.04636483
38	0x3d704cab	0.058666866
39	0x3dab7bea	0.08373244
40	0xbd8de569	-0.06928522
41	0xbd920449	-0.071297236
42	0x3d5b56a3	0.05354942
43	0x3d67a15d	0.056550372
44	0xbde6ab59	-0.11263151
45	0x3db53e6e	0.08849798
46	0x3d039252	0.032121964
47	0xbdf3774d	-0.11887989
48	0xbd870fec	-0.06594834
49	0x3b2e0aa5	0.0026556638
50	0xbd8a0eca	-0.06741102
51	0xbd676a54	-0.056497887
52	0xbd57d274	-0.052690938
53	0x3d516fdc	0.051132068
54	0xbd89604f	-0.067078225
55	0x3d43a3b1	0.04776353
56	0x3c3e3840	0.011610091
57	0xbd0b0450	-0.03393966
58	0xbdbfe689	-0.09370143
59	0x3ceb0f92	0.028693948
60	0xbd9a9aa6	-0.07549028
61	0x3de35431	0.111000426
62	0x3da32a16	0.07967012
63	0x3d3a0fc9	0.04542521

pair_mlp.2.weight f4 [64, 64]
0	0xbd9bfd6a	-0.07616694
1	0x3d563585	0.052297134
2	0x3d87a92f	0.06624066
3	0xbd4fd333	-0.050738525
4	0x3d4dac41	0.050213102
5	0x3ddcf8d7	0.1078965
6	0x3dfd827c	0.123784035
7	0x3d6c2651	0.05765373
8	0x3da364e5	0.079782285
9	0x3d44254b	0.047887128
10	0x3dc0aa34	0.09407464
11	0x3d528b3e	0.051402323
12	0x3ba2c29f	0.0049670483
13	0x3c8e5606	0.017375004
14	0x3de26083	0.110535644
15	0x3cd1d994	0.025616445
16	0x3b97867c	0.004624186
17	0x3b535640	0.0032247454
18	0xbd9542d0	-0.07288134
19	0x3d007a8b	0.031366866
20	0x3c9c0ed9	0.019050049
21	0x3df90f3b	0.12161108
22	0xbd394522	-0.045231946
23	0x3dea2a2d	0.11433826
24	0x3e0d725b	0.13813154
25	0xbda20608	-0.079113066
26	0xbdded2f7	-0.10880082
27	0x3da0c845	0.078506984
28	0xbd26d33c	-0.040728793
29	0xbdc2e72b	-0.09516748
30	0x3d3159ce	0.043298535
31	0x3d9d2666	0.076733395
32	0x3a72b120	0.0009257961
33	0xbd17a9b5	-0.03702708
34	0xbc7452fa	-0.014912361
35	0xbce214b1	-0.027597757
36	0x3dfacb76	0.12245838
37	0xbcbe4544	-0.023226388
38	0x3de5647e	0.11200808
39	0xbd9458cb	-0.072434984
40	0x3df430b0	0.11923349
41	0xbda8406c	-0.082154125
42	0x3d20329c	0.039110765
43	0xbca9fcf1	-0.020750495
44	0x3ce476b0	0.027888626
45	0x3d444b45	0.047923345
46	0xbcbb762c	-0.022883497
47	0x3df932f5	0.121679224
48	0x3de3e3f4	0.11127463
49	0xbd63cc59	-0.055614803
50	0xbda79c58	-0.08184117
51	0x3ce5fe47	0.02807535
52	0xbc5766dc	-0.013147082
53	0x3cc0a1df	0.023514686
54	0x3d6a1ad9	0.05715451
55	0xbdd40660	-0.103527784
56	0xbcbc937a	-0.023019541
57	0xbda221ef	-0.079166286
58	0x3c02c689	0.007981905
59	0x3b024cf2	0.0019882289
60	0x3dd944b6	0.10608809
61	0xbd0c0bb3	-0.034190845
62	0xbcd3ee52	-0.025870476
63	0xbdb20a6d	-0.08693395
64	0x3dcbe6d4	0.09956136
65	0x3d2d27e4	0.04227437
66	0x3d30ed41	0.043195013
67	0xbd0d754e	-0.0345357
68	0xbdb7bbb4	-0.089713484
69	0x3c841ef8	0.016128048
70	0xbd69a538	-0.05704233
71	0x3d8b2419	0.067939945
72	0xbc4b5fd8	-0.012412988
73	0x3d08f52a	0.03343693
74	0xbcbbb2a6	-0.022912335
75	0x3cdfc0c2	0.027313594
76	0x3d666538	0.056248873
77	0x3da2445b	0.07923194
78	0xbd686cf6	-0.05674454
79	0x3cdb5571	0.02677414
80	0xbde9bed5	-0.114133514
81	0x3dad96ff	0.08476066
82	0x3d6f2130	0.05838126
83	0x3c97dfab	0.01853927
84	0xbdd502e3	-0.10400941
85	0xbc003c48	-0.007826872
86	0x3ddd01a8	0.107913315
87	0xbdc5f5ae	-0.09666
88	0xbd23661a	-0.039892294
89	0xbcfb1b3e	-0.030652639
90	0xbdad67c2	-0.08467056
91	0x3d7409e1	0.059579734
92	0x3a3b8c66	0.0007154405
93	0xbcf6c7c7	-0.030124558
94	0xbdaa1aa6	-0.08305864
95	0xbd2eee71	-0.042707864
96	0xbdd1b149	-0.102388926
97	0x3dc64906	0.09681897
98	0x3de04867	0.1095131
99	0x3c77cc2a	0.01512436
100	0xbdf2bf22	-0.11852862
101	0xbd926e19	-0.07149906
102	0x3d0e1f17	0.03469762
103	0xbdb1df4c	-0.086851686
104	0x3d32082d	0.04346483
105	0x3dd91f0b	0.10601624
106	0x3caa3eb1	0.020781847
107	0xbcb42afd	-0.021993155
108	0xbc29e649	-0.010369846
109	0xbd64c962	-0.055856116
110	0xbdfb4dca	-0.122706965
111	0xbddcca56	-0.1078078
112	0xbdb74c3a	-0.08950086
113	0xbcb552ed	-0.022134269
114	0x3db79280	0.089634895
115	0x3de33ba6	0.110953614
116	0x3d8b6a74	0.06807414
117	0xbdf503f2	-0.11963643
118	0x3bc88804	0.00611973
119	0xbddc73a5	-0.10764245
120	0x3d6f3fc6	0.05841043
121	0xbdb9bbe0	-0.090690374
122	0xbd241441	-0.040058378
123	0x3d89cbfc	0.0672836
124	0x3bb5cd76	0.0055481745
125	0x3d876bb1	0.066123374
126	0xbdfa5894	-0.12223926
127	0x3da7d23a	0.081943944
128	0xbdfc4101	-0.12317086
129	0x3da872d3	0.08225026
130	0x3d85e53e	0.06537865
131	0x3cddd102	0.027077202
132	0x3d96fc99	0.07372398
133	0x3db15256	0.086582825
134	0x3d5b31a3	0.053514134
135	0x3d00713a	0.03135798
136	0xbddf86cb	-0.109143816
137	0xbde46895	-0.1115276
138	0x3c995321	0.018716397
139	0x3d485afc	0.048914894
140	0xbd0c915a	-0.034318306
141	0xbbec37b0	-0.007208787
142	0x3c6d323e	0.014477311
143	0x3defa8ce	0.11702119
144	0x3c2c4d0a	0.010516414
145	0xbdbbd2a6	-0.091710374
146	0xbc99ea2d	-0.018788422
147	0x3db6f15c	0.089327544
148	0x3de7e3e1	0.11322761
149	0xbdc42441	-0.095772274
150	0xbccae911	-0.024769338
151	0xbc7d0e09	-0.015445241
152	0x3d442a1d	0.047891725
153	0xbdf2c725	-0.1185439
154	0xbdf79892	-0.12089647
155	0xbdb88ff7	-0.09011834
156	0xbda45488	-0.080239356
157	0x3c953174	0.018212058
158	0xbd89cd59	-0.0672862
159	0xbdb30296	-0.087407276
160	0x3c997deb	0.0187368
161	0x3d64b497	0.055836286
162	0xbde89f73	-0.113585375
163	0x3d458b30	0.048228443
164	0xbd1e8d1a	-0.038708784
165	0x3dbcabfa	0.092124894
166	0xbdd5215d	-0.10406754
167	0xbd45cc86	-0.048290752
168	0xbb927971	-0.0044700434
169	0x3ca45331	0.0200592
170	0x3d0515ae	0.03249138
171	0x3dc68596	0.09693448
172	0x3dadb657	0.08482044
173	0x3d2a4d4b	0.04157762
174	0x3d9e0767	0.07716256
175	0x3d80f4ac	0.062966675
176	0xbdd6cb66	-0.10488014
177	0xbc8cd1cd	-0.017189885
178	0xbd8ed8e8	-0.06974965
179	0x3dfd98eb	0.123826824
180	0x3d82d1f9	0.06387705
181	0xbdfbc2fc	-0.1229305
182	0xbda159ba	-0.07878442
183	0xbd0dbe4e	-0.034605317
184	0x3d20e11d	0.039277185
185	0xbd9d4a58	-0.076801956
186	0xbd37e01d	-0.044891465
187	0x3dcd232d	0.10016475
188	0xbdb65e5a	-0.08904715
189	0x3d288340	0.041140795
190	0xbd3b7ea2	-0.045775063
191	0xbdd666d5	-0.104688324
192	0x3c81b3f8	0.015832886
193	0x3dd2262b	0.10261186
194	0xbd6a6e4b	-0.05723409
195	0xbbd8b57d	-0.006613432
196	0xbc9c78b3	-0.019100523
197	0xbdb42969	-0.08796961
198	0x3d1ace70	0.03779453
199	0x3ccdb2ae	0.025109615
200	0x3dd995c9	0.106242724
201	0xbde11ee3	-0.10992219
202	0x3c981ebc	0.018569343
203	0x3d6e97e1	0.05825031
204	0xbc877c86	-0.01653887
205	0x3d9ebde5	0.07751063
206	0x3d72b3b5	0.059253413
207	0xbcebef41	-0.028800609
208	0x3d813118	0.06308192
209	0x3d976e69	0.07394106
210	0x3dbcb879	0.09214873
211	0x3dd04fb8	0.10171455
212	0x3c69ae58	0.014262758
213	0xbcd10bef	-0.025518386
214	0xbd80100e	-0.06253062
215	0xbdc3255e	-0.095286116
216	0xbd03994b	-0.032128613
217	0x3dd36be9	0.103233166
218	0x3d8cf978	0.0688352
219	0xbd124d9e	-0.035718553
220	0xbd5b101f	-0.05348217
221	0x3d633bb9	0.055476878
222	0x3d70acac	0.058758423
223	0x3d846b68	0.064657986
224	0x3d47c0bd	0.048767794
225	0x3bdf2c42	0.006810696
226	0x3d3ad6cb	0.045615
227	0xbd807e9e	-0.0627415
228	0x3d8cac87	0.068688445
229	0x3df84f29	0.121244736
230	0xbd8e38b5	-0.0694441
231	0xbc923588	-0.017847791
232	0xbd3c1632	-0.045919605
233	0xbde349db	-0.11098071
234	0xbd8497c4	-0.064742595
235	0x3cd78092	0.026306424
236	0x3daa5894	0.08317676
237	0xbcd380aa	-0.025818188
238	0xbdb5c7b9	-0.08875985
239	0xbd76ff3f	-0.060302015
240	0xbdb7a634	-0.089672476
241	0xbde5ecf8	-0.11226839
242	0xbdccd5dd	-0.10001729
243	0xbdc4ce42	-0.09609653
244	0x3d23aac1	0.039957765
245	0xbd9bab48	-0.07601029
246	0xbdbbcffd	-0.0917053
247	0x3d97d3fe	0.07413481
248	0xbdbaaf70	-0.09115493
249	0xbdb108f9	-0.086442895
250	0x3c420db4	0.011844087
251	0xbc8222a1	-0.015885653
252	0xbdd8fd29	-0.105951615
253	0xbd975ed2	-0.073911324
254	0xbd3c0dc8	-0.04591158
255	0x3d8ade6e	0.06780706

pair_mlp.2.bias f4 [64]
0	0xbcaac024	-0.020843573
1	0xbdf68377	-0.12036794
2	0xbb0fc984	-0.002194018
3	0xbc85eb7c	-0.01634764
4	0xbd852df5	-0.06502906
5	0x3d5e7d8f	0.05431896
6	0x3be8446e	0.0070882356
7	0xbd4b9cf4	-0.04971023
8	0xbdce78ca	-0.100816324
9	0xbd3efc0b	-0.046627086
10	0xbd30cc8a	-0.043163814
11	0xbda23777	-0.07920735
12	0xbda833e0	-0.08213019
13	0xbd796240	-0.060884714
14	0x3cc11f86	0.023574602
15	0x3d48ff54	0.049071625
16	0xbdbf8bde	-0.093528494
17	0x3b528733	0.0032124042
18	0xbd34de18	-0.044157118
19	0xbdb50b8a	-0.088400915
20	0xbdaed66b	-0.08536991
21	0xbdd1bc29	-0.10240967
22	0x3d826334	0.06366578
23	0x3d4d95af	0.050191578
24	0xbcd04997	-0.025425715
25	0xbc96c23d	-0.018403167
26	0x3dbc8b85	0.09206299
27	0x3b66d81c	0.0035224026
28	0x3d863c36	0.06554453
29	0x3d46f8c1	0.048577074
30	0x3d790b82	0.06080199
31	0x3d17612c	0.036957905
32	0x3d59420f	0.053041514
33	0xbd9493e3	-0.0725477
34	0x3d3488dd	0.044075835
35	0x3d1385a7	0.036016133
36	0xbbdb6b8c	-0.00669617
37	0xbcf8baf6	-0.030362587
38	0xbd2b7af2	-0.041865297
39	0xbc599dbf	-0.0132822385
40	0xbd6f0c07	-0.05836108
41	0xbdfec792	-0.12440409
42	0x3d0a0d9d	0.03370439
43	0x3bef014a	0.007293855
44	0x3dc4d6bc	0.0961127
45	0x3deae148	0.1146875
46	0x3d6ab689	0.057302985
47	0xbd651145	-0.055924673
48	0x3dbfd229	0.09366257
49	0xbd126281	-0.035738472
50	0xba4330b7	-0.0007445919
51	0xbde162af	-0.110051505
52	0x3deb412a	0.114870384
53	0xbb69684e	-0.003561515
54	0xbd11963b	-0.03554366
55	0xbdedf843	-0.11619618
56	0x3d850341	0.06494761
57	0xbab67b2e	-0.0013922208
58	0xbcba3a90	-0.022733003
59	0xbd5f4128	-0.054505497
60	0x3ccbff66	0.024902057
61	0xbd4d43ea	-0.050113596
62	0x3dc2d8e0	0.09514022
63	0x3d27a577	0.040929284

pair_mlp.4.weight f4 [1, 64]
0	0x3de6768c	0.1125308
1	0xbdaa46ed	-0.08314309
2	0xbd5ed7af	-0.05440491
3	0xbc660df1	-0.01404141
4	0x3ccefe6e	0.025267806
5	0x3d002936	0.0312893
6	0xbd545952	-0.051842995
7	0xbcf01616	-0.029307406
8	0x3d94d660	0.07267451
9	0x3c5f176b	0.013616423
10	0xbdc10b33	-0.09425964
11	0x3d644fd9	0.05574021
12	0x3dab54e3	0.083658
13	0xbaf05d2c	-0.0018338314
14	0x3d3db450	0.046314538
15	0x3cd70834	0.026249029
16	0x3d4b3282	0.049608715
17	0xbd1991ef	-0.03749269
18	0x3a5c93d5	0.00084143627
19	0xbd7c1c0a	-0.061550178
20	0xbdabb374	-0.08383837
21	0xbd9d7643	-0.07688572
22	0x3d686c74	0.056744054
23	0xbdd3a82a	-0.10334809
24	0xbdc42e06	-0.09579091
25	0xbdea75bc	-0.11448237
26	0xbdd33c4e	-0.103142366
27	0xbdadcc92	-0.08486284
28	0xbd8e1826	-0.069382
29	0xbdb11554	-0.08646646
30	0xbd88e455	-0.06684176
31	0x3d952e60	0.07284236
32	0xbd9dedf1	-0.07711399
33	0x3dd70237	0.10498469
34	0x3dd3a59a	0.1033432
35	0x3d8930e7	0.066987805
36	0x3db194b1	0.08670939
37	0xbd83897e	-0.06422709
38	0x3d129cb8	0.03579399
39	0xb8ca15aa	-9.636146e-05
40	0x3dc8c97b	0.09804054
41	0x3d1d2b55	0.038371403
42	0xbd1b3aa4	-0.03789772
43	0xbcec2e0e	-0.028830554
44	0xbd7c470c	-0.061591193
45	0xbd63bdd5	-0.05560096
46	0xbd08fc02	-0.03344346
47	0xbdbea974	-0.09309664
48	0x3dde2e80	0.10848713
49	0xbd8fb242	-0.07016422
50	0xbde6a3da	-0.11261721
51	0x3d7952d5	0.06087001
52	0x3d72e105	0.059296627
53	0x3ddf5046	0.10903983
54	0xbcea613b	-0.028610816
55	0xbd856ec5	-0.06515268
56	0x3c18d92b	0.009329121
57	0xbd8a95e9	-0.06766874
58	0xbbceb21f	-0.006307855
59	0xbd56f278	-0.05247733
60	0xbca5fae4	-0.020261236
61	0xbd2975f1	-0.041372243
62	0xbdce9fe1	-0.10089088
63	0xbdce3311	-0.10068334

exp_avg f4 [100, 16]
0	0x00000000	0.0
1	0x00000000	0.0
2	0x00000000	0.0
3	0x00000000	0.0
4	0x00000000	0.0
5	0x00000000	0.0
6	0x00000000	0.0
7	0x00000000	0.0
8	0x00000000	0.0
9	0x00000000	0.0
10	0x00000000	0.0
11	0x00000000	0.0
12	0x00000000	0.0
13	0x00000000	0.0
14	0x00000000	0.0
15	0x00000000	0.0
16	0x455e8ec4	3560.9229
17	0x44f226b1	1937.2091
18	0xc4c5c5eb	-1582.1849
19	0xc4cde4b5	-1647.1471
20	0xc52e17d4	-2785.4893
21	0xc4edea89	-1903.3292
22	0x44e4d275	1830.5768
23	0x44989385	1220.61
24	0x44bb6e82	1499.4534
25	0xc5a6282f	-5317.023
26	0xc4ceacd4	-1653.4009
27	0x4489aac1	1101.336
28	0xc314242e	-148.14133
29	0x45279df3	2681.8718
30	0xc25231fa	-52.548805
31	0x451472fb	2375.1863
32	0x00000000	0.0
33	0x00000000	0.0
34	0x00000000	0.0
35	0x00000000	0.0
36	0x00000000	0.0
37	0x00000000	0.0
38	0x00000000	0.0
39	0x00000000	0.0
40	0x00000000	0.0
41	0x00000000	0.0
42	0x00000000	0.0
43	0x00000000	0.0
44	0x00000000	0.0
45	0x00000000	0.0
46	0x00000000	0.0
47	0x00000000	0.0
48	0x00000000	0.0
49	0x00000000	0.0
50	0x00000000	0.0
51	0x00000000	0.0
52	0x00000000	0.0
53	0x00000000	0.0
54	0x00000000	0.0
55	0x00000000	0.0
56	0x00000000	0.0
57	0x00000000	0.0
58	0x00000000	0.0
59	0x00000000	0.0
60	0x00000000	0.0
61	0x00000000	0.0
62	0x00000000	0.0
63	0x00000000	0.0
64	0x00000000	0.0
65	0x00000000	0.0
66	0x00000000	0.0
67	0x00000000	0.0
68	0x00000000	0.0
69	0x00000000	0.0
70	0x00000000	0.0
71	0x00000000	0.0
72	0x00000000	0.0
73	0x00000000	0.0
74	0x00000000	0.0
75	0x00000000	0.0
76	0x00000000	0.0
77	0x00000000	0.0
78	0x00000000	0.0
79	0x00000000	0.0
80	0x00000000	0.0
81	0x00000000	0.0
82	0x00000000	0.0
83	0x00000000	0.0
84	0x00000000	0.0
85	0x00000000	0.0
86	0x00000000	0.0
87	0x00000000	0.0
88	0x00000000	0.0
89	0x00000000	0.0
90	0x00000000	0.0
91	0x00000000	0.0
92	0x00000000	0.0
93	0x00000000	0.0
94	0x00000000	0.0
95	0x00000000	0.0
96	0x00000000	0.0
97	0x00000000	0.0
98	0x00000000	0.0
99	0x00000000	0.0
100	0x00000000	0.0
101	0x00000000	0.0
102	0x00000000	0.0
103	0x00000000	0.0
104	0x00000000	0.0
105	0x00000000	0.0
106	0x00000000	0.0
107	0x00000000	0.0
108	0x00000000	0.0
109	0x00000000	0.0
110	0x00000000	0.0
111	0x00000000	0.0
112	0x00000000	0.0
113	0x00000000	0.0
114	0x00000000	0.0
115	0x00000000	0.0
116	0x00000000	0.0
117	0x00000000	0.0
118	0x00000000	0.0
119	0x00000000	0.0
120	0x00000000	0.0
121	0x00000000	0.0
122	0x00000000	0.0
123	0x00000000	0.0
124	0x00000000	0.0
125	0x00000000	0.0
126	0x00000000	0.0
127	0x00000000	0.0
128	0x44d3a650	1693.1973
129	0x44901444	1152.6333
130	0xc4229c57	-650.4428
131	0xc4636304	-909.5471
132	0xc45ab192	-874.77454
133	0xc474e731	-979.61237
134	0x44474cae	797.1981
135	0x4407d5c9	543.3404
136	0x43c75e0a	398.73468
137	0xc52c3b2a	-2755.6978
138	0xc465bbfd	-918.9373
139	0x44340592	720.08704
140	0x42e3d370	113.912964
141	0x44924a03	1170.3129
142	0xc105b8f6	-8.3576565
143	0x446782c9	926.0435
144	0x00000000	0.0
145	0x00000000	0.0
146	0x00000000	0.0
147	0x00000000	0.0
148	0x00000000	0.0
149	0x00000000	0.0
150	0x00000000	0.0
151	0x00000000	0.0
152	0x00000000	0.0
153	0x00000000	0.0
154	0x00000000	0.0
155	0x00000000	0.0
156	0x00000000	0.0
157	0x00000000	0.0
158	0x00000000	0.0
159	0x00000000	0.0
160	0x00000000	0.0
161	0x00000000	0.0
162	0x00000000	0.0
163	0x00000000	0.0
164	0x00000000	0.0
165	0x00000000	0.0
166	0x00000000	0.0
167	0x00000000	0.0
168	0x00000000	0.0
169	0x00000000	0.0
170	0x00000000	0.0
171	0x00000000	0.0
172	0x00000000	0.0
173	0x00000000	0.0
174	0x00000000	0.0
175	0x00000000	0.0
176	0x00000000	0.0
177	0x00000000	0.0
178	0x00000000	0.0
179	0x00000000	0.0
180	0x00000000	0.0
181	0x00000000	0.0
182	0x00000000	0.0
183	0x00000000	0.0
184	0x00000000	0.0
185	0x00000000	0.0
186	0x00000000	0.0
187	0x00000000	0.0
188	0x00000000	0.0
189	0x00000000	0.0
190	0x00000000	0.0
191	0x00000000	0.0
192	0x00000000	0.0
193	0x00000000	0.0
194	0x00000000	0.0
195	0x00000000	0.0
196	0x00000000	0.0
197	0x00000000	0.0
198	0x00000000	0.0
199	0x00000000	0.0
200	0x00000000	0.0
201	0x00000000	0.0
202	0x00000000	0.0
203	0x00000000	0.0
204	0x00000000	0.0
205	0x00000000	0.0
206	0x00000000	0.0
207	0x00000000	0.0
208	0x00000000	0.0
209	0x00000000	0.0
210	0x00000000	0.0
211	0x00000000	0.0
212	0x00000000	0.0
213	0x00000000	0.0
214	0x00000000	0.0
215	0x00000000	0.0
216	0x00000000	0.0
217	0x00000000	0.0
218	0x00000000	0.0
219	0x00000000	0.0
220	0x00000000	0.0
221	0x00000000	0.0
222	0x00000000	0.0
223	0x00000000	0.0
224	0x00000000	0.0
225	0x00000000	0.0
226	0x00000000	0.0
227	0x00000000	0.0
228	0x00000000	0.0
229	0x00000000	0.0
230	0x00000000	0.0
231	0x00000000	0.0
232	0x00000000	0.0
233	0x00000000	0.0
234	0x00000000	0.0
235	0x00000000	0.0
236	0x00000000	0.0
237	0x00000000	0.0
238	0x00000000	0.0
239	0x00000000	0.0
240	0x00000000	0.0
241	0x00000000	0.0
242	0x00000000	0.0
243	0x00000000	0.0
244	0x00000000	0.0
245	0x00000000	0.0
246	0x00000000	0.0
247	0x00000000	0.0
248	0x00000000	0.0
249	0x00000000	0.0
250	0x00000000	0.0
251	0x00000000	0.0
252	0x00000000	0.0
253	0x00000000	0.0
254	0x00000000	0.0
255	0x00000000	0.0

exp_avg_sq f4 [100, 16]
0	0x00000000	0.0
1	0x00000000	0.0
2	0x00000000	0.0
3	0x00000000	0.0
4	0x00000000	0.0
5	0x00000000	0.0
6	0x00000000	0.0
7	0x00000000	0.0
8	0x00000000	0.0
9	0x00000000	0.0
10	0x00000000	0.0
11	0x00000000	0.0
12	0x00000000	0.0
13	0x00000000	0.0
14	0x00000000	0.0
15	0x00000000	0.0
16	0x51f682b5	1.3234436e+11
17	0x513881f4	4.952839e+10
18	0x5180570c	6.890203e+10
19	0x50a2f5a8	2.1872067e+10
20	0x5225b296	1.7791644e+11
21	0x5130ccc1	4.745934e+10
22	0x513320f2	4.8084492e+10
23	0x50fc506b	3.386503e+10
24	0x50312151	1.1887003e+10
25	0x5267ce70	2.4890022e+11
26	0x51181943	4.082868e+10
27	0x50d8a238	2.9076079e+10
28	0x4f8a9eef	4.6513434e+09
29	0x51350dfa	4.8601473e+10
30	0x5108e865	3.6750905e+10
31	0x51adf2a1	9.33875e+10
32	0x00000000	0.0
33	0x00000000	0.0
34	0x00000000	0.0
35	0x00000000	0.0
36	0x00000000	0.0
37	0x00000000	0.0
38	0x00000000	0.0
39	0x00000000	0.0
40	0x00000000	0.0
41	0x00000000	0.0
42	0x00000000	0.0
43	0x00000000	0.0
44	0x00000000	0.0
45	0x00000000	0.0
46	0x00000000	0.0
47	0x00000000	0.0
48	0x00000000	0.0
49	0x00000000	0.0
50	0x00000000	0.0
51	0x00000000	0.0
52	0x00000000	0.0
53	0x00000000	0.0
54	0x00000000	0.0
55	0x00000000	0.0
56	0x00000000	0.0
57	0x00000000	0.0
58	0x00000000	0.0
59	0x00000000	0.0
60	0x00000000	0.0
61	0x00000000	0.0
62	0x00000000	0.0
63	0x00000000	0.0
64	0x00000000	0.0
65	0x00000000	0.0
66	0x00000000	0.0
67	0x00000000	0.0
68	0x00000000	0.0
69	0x00000000	0.0
70	0x00000000	0.0
71	0x00000000	0.0
72	0x00000000	0.0
73	0x00000000	0.0
74	0x00000000	0.0
75	0x00000000	0.0
76	0x00000000	0.0
77	0x00000000	0.0
78	0x00000000	0.0
79	0x00000000	0.0
80	0x00000000	0.0
81	0x00000000	0.0
82	0x00000000	0.0
83	0x00000000	0.0
84	0x00000000	0.0
85	0x00000000	0.0
86	0x00000000	0.0
87	0x00000000	0.0
88	0x00000000	0.0
89	0x00000000	0.0
90	0x00000000	0.0
91	0x00000000	0.0
92	0x00000000	0.0
93	0x00000000	0.0
94	0x00000000	0.0
95	0x00000000	0.0
96	0x00000000	0.0
97	0x00000000	0.0
98	0x00000000	0.0
99	0x00000000	0.0
100	0x00000000	0.0
101	0x00000000	0.0
102	0x00000000	0.0
103	0x00000000	0.0
104	0x00000000	0.0
105	0x00000000	0.0
106	0x00000000	0.0
107	0x00000000	0.0
108	0x00000000	0.0
109	0x00000000	0.0
110	0x00000000	0.0
111	0x00000000	0.0
112	0x00000000	0.0
113	0x00000000	0.0
114	0x00000000	0.0
115	0x00000000	0.0
116	0x00000000	0.0
117	0x00000000	0.0
118	0x00000000	0.0
119	0x00000000	0.0
120	0x00000000	0.0
121	0x00000000	0.0
122	0x00000000	0.0
123	0x00000000	0.0
124	0x00000000	0.0
125	0x00000000	0.0
126	0x00000000	0.0
127	0x00000000	0.0
128	0x50d50dfa	2.8595704e+10
129	0x506f289b	1.6049663e+10
130	0x50523a0d	1.4108079e+10
131	0x4fb62db6	6.112898e+09
132	0x50c62277	2.659318e+10
133	0x505be2be	1.475628e+10
134	0x501b2388	1.0411188e+10
135	0x4fdfcb56	7.50929e+09
136	0x4eb61b5c	1.5276232e+09
137	0x517eb3f9	6.837132e+10
138	0x5012ee7c	9.860411e+09
139	0x5001b748	8.70509e+09
140	0x4e10d960	6.0754125e+08
141	0x50126809	9.825166e+09
142	0x4fad167c	5.807864e+09
143	0x506ff45d	1.6103077e+10
144	0x00000000	0.0
145	0x00000000	0.0
146	0x00000000	0.0
147	0x00000000	0.0
148	0x00000000	0.0
149	0x00000000	0.0
150	0x00000000	0.0
151	0x00000000	0.0
152	0x00000000	0.0
153	0x00000000	0.0
154	0x00000000	0.0
155	0x00000000	0.0
156	0x00000000	0.0
157	0x00000000	0.0
158	0x00000000	0.0
159	0x00000000	0.0
160	0x00000000	0.0
161	0x00000000	0.0
162	0x00000000	0.0
163	0x00000000	0.0
164	0x00000000	0.0
165	0x00000000	0.0
166	0x00000000	0.0
167	0x00000000	0.0
168	0x00000000	0.0
169	0x00000000	0.0
170	0x00000000	0.0
171	0x00000000	0.0
172	0x00000000	0.0
173	0x00000000	0.0
174	0x00000000	0.0
175	0x00000000	0.0
176	0x00000000	0.0
177	0x00000000	0.0
178	0x00000000	0.0
179	0x00000000	0.0
180	0x00000000	0.0
181	0x00000000	0.0
182	0x00000000	0.0
183	0x00000000	0.0
184	0x00000000	0.0
185	0x00000000	0.0
186	0x00000000	0.0
187	0x00000000	0.0
188	0x00000000	0.0
189	0x00000000	0.0
190	0x00000000	0.0
191	0x00000000	0.0
192	0x00000000	0.0
193	0x00000000	0.0
194	0x00000000	0.0
195	0x00000000	0.0
196	0x00000000	0.0
197	0x00000000	0.0
198	0x00000000	0.0
199	0x00000000	0.0
200	0x00000000	0.0
201	0x00000000	0.0
202	0x00000000	0.0
203	0x00000000	0.0
204	0x00000000	0.0
205	0x00000000	0.0
206	0x00000000	0.0
207	0x00000000	0.0
208	0x00000000	0.0
209	0x00000000	0.0
210	0x00000000	0.0
211	0x00000000	0.0
212	0x00000000	0.0
213	0x00000000	0.0
214	0x00000000	0.0
215	0x00000000	0.0
216	0x00000000	0.0
217	0x00000000	0.0
218	0x00000000	0.0
219	0x00000000	0.0
220	0x00000000	0.0
221	0x00000000	0.0
222	0x00000000	0.0
223	0x00000000	0.0
224	0x00000000	0.0
225	0x00000000	0.0
226	0x00000000	0.0
227	0x00000000	0.0
228	0x00000000	0.0
229	0x00000000	0.0
230	0x00000000	0.0
231	0x00000000	0.0
232	0x00000000	0.0
233	0x00000000	0.0
234	0x00000000	0.0
235	0x00000000	0.0
236	0x00000000	0.0
237	0x00000000	0.0
238	0x00000000	0.0
239	0x00000000	0.0
240	0x00000000	0.0
241	0x00000000	0.0
242	0x00000000	0.0
243	0x00000000	0.0
244	0x00000000	0.0
245	0x00000000	0.0
246	0x00000000	0.0
247	0x00000000	0.0
248	0x00000000	0.0
249	0x00000000	0.0
250	0x00000000	0.0
251	0x00000000	0.0
252	0x00000000	0.0
253	0x00000000	0.0
254	0x00000000	0.0
255	0x00000000	0.0

exp_avg f4 [64, 64]
0	0xc5923f08	-4679.879
1	0x45c30c84	6241.5645
2	0x4305041a	133.01602
3	0xc5850060	-4256.047
4	0x45cbdd2c	6523.6465
5	0xc4e64dbf	-1842.4296
6	0xc545fc17	-3167.7556
7	0x46228f97	10403.897
8	0xc5c0ca2f	-6169.273
9	0x45d63275	6854.307
10	0xc575f0f4	-3935.0596
11	0xc528f45f	-2703.2732
12	0xc4dc17e2	-1760.7463
13	0x45935145	4714.1587
14	0x450757e0	2165.4922
15	0x45269eb7	2665.9197
16	0xc586827f	-4304.312
17	0x45bec5bd	6104.7173
18	0x4345dfba	197.87393
19	0xc52edb02	-2797.688
20	0x45d4d411	6810.5083
21	0xc57b0d32	-4016.8247
22	0xc558ba95	-3467.6614
23	0x461db619	10093.524
24	0xc5b0ea73	-5661.306
25	0x45da72a9	6990.3325
26	0xc558eb01	-3470.6877
27	0xc503ee3b	-2110.8894
28	0xc4feb918	-2037.7842
29	0x458a7cc4	4431.5957
30	0x4554cb57	3404.7087
31	0x452948f9	2708.5608
32	0xc34f6beb	-207.42155
33	0xc382c290	-261.52002
34	0xc3a343ae	-326.52875
35	0xc3c9f49f	-403.9111
36	0xc3f7950f	-495.16452
37	0xc41671c3	-601.7775
38	0xc4354a55	-725.16144
39	0xc458a4f7	-866.5776
40	0xc48060ff	-1027.0311
41	0xc496e5a3	-1207.1761
42	0xc4afe5a5	-1407.1764
43	0xc4cb535f	-1626.6053
44	0xc4e90980	-1864.2969
45	0xc5046400	-2118.25
46	0xc5151879	-2385.5295
47	0xc526631d	-2662.1946
48	0xc537f4be	-2943.2964
49	0xc5496e32	-3222.8872
50	0xc55a6209	-3494.1272
51	0xc56a5748	-3749.455
52	0xc578cdcb	-3980.862
53	0xc582a181	-4180.188
54	0xc5879c7d	-4339.561
55	0xc58b1f00	-4451.875
56	0xc58cf9f0	-4511.242
57	0xc58d0bbd	-4513.4673
58	0xc58b43d1	-4456.477
59	0xc587a473	-4340.556
60	0xc582440b	-4168.5054
61	0xc576995e	-3945.5854
62	0xc565f410	-3679.254
63	0xc5532b8c	-3378.7217
64	0xc50b1965	-2225.5872
65	0x453795cc	2937.3623
66	0x42635f2f	56.842953
67	0xc5046def	-2118.8708
68	0x453d99a5	3033.6028
69	0xc429bf12	-678.9855
70	0xc4b66d64	-1459.4185
71	0x45993980	4903.1875
72	0xc5376fcc	-2934.9873
73	0x45481683	3201.407
74	0xc4eb7fe8	-1883.9971
75	0xc4a4aef4	-1317.4673
76	0xc44874bb	-801.8239
77	0x450b9c2f	2233.7615
78	0x446375b3	909.83905
79	0x449bc0f6	1246.03
80	0xc5095ee3	-2197.9304
81	0x4536f48e	2927.2847
82	0x42767a0a	61.61918
83	0xc4fb6f3d	-2011.4762
84	0x453eeb9b	3054.7253
85	0xc451c6ff	-839.1093
86	0xc4b93012	-1481.5022
87	0x4598829f	4880.3276
88	0xc5351944	-2897.579
89	0x4548b6d4	3211.4268
90	0xc4e73995	-1849.7994
91	0xc49f3b07	-1273.8446
92	0xc44d8e5d	-822.2244
93	0x450a4f4c	2212.956
94	0x447a461d	1001.0955
95	0x449c2575	1249.1705
96	0xc2eb05ba	-117.511185
97	0xc312265c	-146.14984
98	0xc333ebad	-179.92061
99	0xc35b5dcb	-219.36638
100	0xc384835a	-265.02618
101	0xc39eb601	-317.4219
102	0xc3bc8497	-377.03586
103	0xc3de24d5	-444.28775
104	0xc401e00d	-519.5008
105	0xc416b747	-602.8637
106	0xc42d98c7	-694.38715
107	0xc446763f	-793.8476
108	0xc4612fc5	-900.7464
109	0xc47d900f	-1014.2509
110	0xc48da4a9	-1133.1456
111	0xc49cf9d0	-1255.8066
112	0xc4ac856d	-1380.1696
113	0xc4bbf76b	-1503.7318
114	0xc4caf2ce	-1623.5876
115	0xc4d90f5e	-1736.4802
116	0xc4e5dd37	-1838.913
117	0xc4f0e913	-1927.2836
118	0xc4f9c26f	-1998.076
119	0xc50000d5	-2048.052
120	0xc501a7b4	-2074.4814
121	0xc501b5d2	-2075.3638
122	0xc50019ee	-2049.6206
123	0xc4f9a78d	-1997.236
124	0xc4efea6b	-1919.3256
125	0xc4e344d3	-1818.1508
126	0xc4d41f46	-1696.9773
127	0xc4c2fd67	-1559.9188
128	0xc4ed2554	-1897.1665
129	0x4525c14d	2652.0813
130	0x429e658c	79.19833
131	0xc4a8f441	-1351.6329
132	0x45363cad	2915.7922
133	0xc4be8007	-1524.0009
134	0xc4b7b315	-1469.5963
135	0x4589492d	4393.147
136	0xc51c0a43	-2496.6414
137	0x453c03e6	3008.2437
138	0xc4c13036	-1545.5066
139	0xc4728f41	-970.23834
140	0xc45571b4	-853.7766
141	0x44f2e378	1943.1084
142	0x44a8d662	1350.6995
143	0x4491d30d	1166.5953
144	0xc4f7be83	-1981.9535
145	0x4527af9a	2682.975
146	0x42811cf1	64.556526
147	0xc4d21bab	-1680.8646
148	0x45323086	2851.0327
149	0xc48123df	-1033.121
150	0xc4af3c8a	-1401.8918
151	0x458b79b6	4463.214
152	0xc5233512	-2611.317
153	0x453a1895	2977.5364
154	0xc4ce4af0	-1650.3418
155	0xc489ff20	-1103.9727
156	0xc445ced7	-791.2319
157	0x44fadcbb	2006.8978
158	0x4485de26	1070.9421
159	0x44909ef6	1156.9675
160	0xc307ad1c	-135.67621
161	0xc3269ba4	-166.60797
162	0xc34a94ac	-202.58075
163	0xc3740e4d	-244.05586
164	0xc391be0f	-291.48483
165	0xc3aca568	-345.29224
166	0xc3caecd8	-405.85034
167	0xc3ecb992	-473.44977
168	0xc4091078	-548.2573
169	0xc41d9171	-630.2725
170	0xc433d1e1	-719.27936
171	0xc44bb349	-814.80133
172	0xc46503da	-916.0602
173	0xc47f7c31	-1021.9405
174	0xc48d5f32	-1130.9749
175	0xc49b2ab4	-1241.3345
176	0xc4a8db3c	-1350.8511
177	0xc4b621a0	-1457.0508
178	0xc4c2a699	-1557.2062
179	0xc4ce0ddd	-1648.4332
180	0xc4d7f949	-1727.7902
181	0xc4e00ced	-1792.4039
182	0xc4e5f3ef	-1839.6229
183	0xc4e9658c	-1867.1733
184	0xc4ea2a26	-1873.3171
185	0xc4e81fe4	-1856.9966
186	0xc4e33e66	-1817.95
187	0xc4db99c1	-1756.8048
188	0xc4d16223	-1675.0668
189	0xc4c4e375	-1575.108
190	0xc4b68130	-1460.0371
191	0xc4a6b12f	-1333.537
192	0xc499ca07	-1230.3134
193	0x44db73e7	1755.622
194	0x426b1b60	58.776733
195	0xc43fb7c1	-766.87115
196	0x44f64efb	1970.4681
197	0xc4980b19	-1216.3468
198	0xc47bdc71	-1007.4444
199	0x45354771	2900.465
200	0xc4ca39cb	-1617.806
201	0x44fc46de	2018.2146
202	0xc476eb0a	-987.6725
203	0xc4141561	-592.33405
204	0xc414b038	-594.7534
205	0x449eb044	1269.5083
206	0x447dab74	1014.67896
207	0x44436edd	781.73224
208	0xc4a6c568	-1334.169
209	0x44e02ee5	1793.4655
210	0x42235dbf	40.84155
211	0xc49244e1	-1170.1525
212	0x44ec6484	1891.1411
213	0xc419c3b1	-615.0577
214	0xc46720d1	-924.51276
215	0x453aa4a6	2986.2905
216	0xc4dbc8e2	-1758.2776
217	0x44f7934b	1980.6029
218	0xc48b82c4	-1116.0864
219	0xc43d096b	-756.14716
220	0xc401891e	-518.14246
221	0x44a874b7	1347.6473
222	0x4427ffb7	671.99554
223	0x44407c3b	769.9411
224	0xc2a09bc8	-80.30426
225	0xc2c53132	-98.596085
226	0xc2efbd9c	-119.87033
227	0xc310692c	-144.41083
228	0xc32c8187	-172.50597
229	0xc34c716e	-204.44308
230	0xc3707fd7	-240.49937
231	0xc38c76d3	-280.9283
232	0xc3a2f832	-325.93903
233	0xc3bbd654	-375.67444
234	0xc3d7174d	-430.18204
235	0xc3f4b0bf	-489.38083
236	0xc40a41ee	-553.03015
237	0xc41b2c5a	-620.693
238	0xc42ced15	-691.7044
239	0xc43f49a1	-765.15045
240	0xc451f5eb	-839.84247
241	0xc4649463	-914.31854
242	0xc476b6cf	-986.8564
243	0xc483f019	-1055.503
244	0xc48bc461	-1118.1368
245	0xc4929194	-1172.5493
246	0xc49811bf	-1216.5546
247	0xc49c040e	-1248.1267
248	0xc49e309f	-1265.5194
249	0xc49e6db8	-1267.4287
250	0xc49ca347	-1253.1024
251	0xc498ce3d	-1222.445
252	0xc49301f7	-1176.0614
253	0xc48b6880	-1115.2656
254	0xc4824060	-1042.0117
255	0xc46fb2cf	-958.7939

exp_avg_sq f4 [64, 64]
0	0x522dd325	1.8664294e+11
1	0x529af649	3.3277847e+11
2	0x4d213f36	1.6907965e+08
3	0x52116955	1.5613436e+11
4	0x52a8765e	3.617702e+11
5	0x50d3148c	2.8330713e+10
6	0x519f9598	8.5676196e+10
7	0x5356efe1	9.231475e+11
8	0x5298d051	3.28165e+11
9	0x52b9efb3	3.9929522e+11
10	0x51f7652c	1.3281929e+11
11	0x516c9791	6.3509697e+10
12	0x50d00296	2.7918643e+10
13	0x5230dc21	1.8990185e+11
14	0x51147ce4	3.9859405e+10
15	0x5161593a	6.049154e+10
16	0x52122157	1.5690614e+11
17	0x529407cb	3.1789295e+11
18	0x4db09dda	3.7039187e+08
19	0x5174302e	6.554877e+10
20	0x52b83015	3.9554033e+11
21	0x52038c91	1.4124976e+11
22	0x51c05da1	1.0327557e+11
23	0x5349e8d2	8.671945e+11
24	0x5280295f	2.7522495e+11
25	0x52c1a9db	4.158892e+11
26	0x51bed5fd	1.0245424e+11
27	0x510e31cb	3.8170046e+10
28	0x510bd3ec	3.7534745e+10
29	0x521b9ef7	1.6709673e+11
30	0x51bc3dc9	1.01061304e+11
31	0x5168d38e	6.2498857e+10
32	0x4da1a968	3.3902925e+08
33	0x4e015bf0	5.425715e+08
34	0x4e4af636	8.512833e+08
35	0x4e9c3928	1.3104957e+09
36	0x4eec207c	1.980776e+09
37	0x4f2f4da0	2.9411e+09
38	0x4f7fcef1	4.2917522e+09
39	0x4fb779bf	6.1564186e+09
40	0x5001622d	8.68278e+09
41	0x50336a96	1.2040428e+10
42	0x50749bda	1.6415418e+10
43	0x50a3ea2c	2.2000263e+10
44	0x50d7e776	2.8978164e+10
45	0x510bb4e3	3.75022e+10
46	0x51319446	4.766855e+10
47	0x515d9ac3	5.9486515e+10
48	0x5187b00c	7.284677e+10
49	0x51a2f88f	8.749435e+10
50	0x51bfddcc	1.0300749e+11
51	0x51dd45da	1.1879496e+11
52	0x51f9cc6c	1.3410956e+11
53	0x5209eb55	1.4808968e+11
54	0x5214d92a	1.5982464e+11
55	0x521cdfd2	1.684425e+11
56	0x52215028	1.7320863e+11
57	0x5221b337	1.7362412e+11
58	0x521ddd4a	1.6950562e+11
59	0x5215f83e	1.6102873e+11
60	0x520a82fd	1.4872578e+11
61	0x51f88934	1.3343172e+11
62	0x51d86aac	1.16187824e+11
63	0x51b6c236	9.8117796e+10
64	0x512b400a	4.5969613e+10
65	0x5194739d	7.969935e+10
66	0x4bf2c5ad	3.1820634e+07
67	0x51215e58	4.3317035e+10
68	0x519c57a1	8.393563e+10
69	0x4f4ae9c0	3.4043167e+09
70	0x50907fc9	1.939435e+10
71	0x524eb086	2.2193121e+11
72	0x5196a397	8.087371e+10
73	0x51ae9963	9.373721e+10
74	0x50f7ffe4	3.328594e+10
75	0x507876c0	1.6674128e+10
76	0x4fb6e93c	6.137477e+09
77	0x512c86b2	4.6312137e+10
78	0x4fd13e36	7.0210304e+09
79	0x5053f500	1.4224196e+10
80	0x51259ab2	4.445406e+10
81	0x519317c4	7.8969864e+10
82	0x4c157c66	3.918684e+07
83	0x510ca871	3.7757587e+10
84	0x519f4bbc	8.55213e+10
85	0x4fb995c5	6.2272005e+09
86	0x50967602	2.019453e+10
87	0x524c1f45	2.1917449e+11
88	0x51919c3a	7.817391e+10
89	0x51b012c4	9.4528635e+10
90	0x50ec2c2f	3.1698549e+10
91	0x50634c41	1.5253702e+10
92	0x4fc3793b	6.559004e+09
93	0x5128417b	4.5165818e+10
94	0x5007f5b5	9.124107e+09
95	0x50556310	1.4320157e+10
96	0x4cd857f1	1.1342631e+08
97	0x4d28a066	1.7681776e+08
98	0x4d80c5d0	2.7005594e+08
99	0x4dc0e68a	4.0454176e+08
100	0x4e0dd8d7	5.9494957e+08
101	0x4e4cfba6	8.59761e+08
102	0x4e91a3fd	1.2217217e+09
103	0x4ecb9faf	1.7081199e+09
104	0x4f0c1d8b	2.3507464e+09
105	0x4f3ddcd8	3.185367e+09
106	0x4f7d59b3	4.2505142e+09
107	0x4fa67552	5.585413e+09
108	0x4fd7604f	7.226826e+09
109	0x50092965	9.204766e+09
110	0x502bead8	1.1537179e+10
111	0x5053f33d	1.4223734e+10
112	0x5080711e	1.7239175e+10
113	0x5098f11f	2.0527512e+10
114	0x50b2cb60	2.3997383e+10
115	0x50cd0bbb	2.7520784e+10
116	0x50e67ceb	3.093557e+10
117	0x50fdb894	3.4053857e+10
118	0x5108a04f	3.6675318e+10
119	0x510fd17f	3.8605943e+10
120	0x5113d216	3.9680303e+10
121	0x5114340a	3.9783014e+10
122	0x5110caef	3.8867497e+10
123	0x5109b611	3.6966568e+10
124	0x50fec348	3.4193687e+10
125	0x50e4f8e2	3.0732128e+10
126	0x50c7c776	2.6813903e+10
127	0x50a911f3	2.2692207e+10
128	0x5186b5c9	7.232193e+10
129	0x5201d1f0	1.3939324e+11
130	0x4ced1002	1.2428904e+08
131	0x5118a0d1	4.0970818e+10
132	0x52199a36	1.649293e+11
133	0x510e4d2d	3.819876e+10
134	0x511af0da	4.159161e+10
135	0x52b233b9	3.8268597e+11
136	0x51ecb231	1.2707523e+11
137	0x52246892	1.7653226e+11
138	0x5136132f	4.887537e+10
139	0x5096fb25	2.0264331e+10
140	0x50595ece	1.4587476e+10
141	0x518cde6a	7.562836e+10
142	0x50f0300b	3.2237443e+10
143	0x50c62932	2.6596708e+10
144	0x518e867b	7.6517695e+10
145	0x5203c588	1.4148869e+11
146	0x4cb82f0b	9.6565336e+07
147	0x5148f37e	5.394241e+10
148	0x52153071	1.6019071e+11
149	0x50aa1e82	2.2833009e+10
150	0x5111c2c6	3.9127376e+10
151	0x52b5dee6	3.9056435e+11
152	0x51fa9c73	1.34545826e+11
153	0x52223ccb	1.7420116e+11
154	0x5146125b	5.3169467e+10
155	0x50b1ce5e	2.3864734e+10
156	0x504559af	1.3243956e+10
157	0x5192dbd3	7.884416e+10
158	0x50b155fc	2.3801618e+10
159	0x50c40f0e	2.6314568e+10
160	0x4d95c888	3.141184e+08
161	0x4de52dae	4.80622e+08
162	0x4e2be69a	7.2100416e+08
163	0x4e7d1cbb	1.06162963e+09
164	0x4eb71302	1.5357381e+09
165	0x4f0230d7	2.1842388e+09
166	0x4f36288f	3.0561114e+09
167	0x4f7ad37e	4.2081644e+09
168	0x4fa9fbef	5.7037204e+09
169	0x4fe2cba5	7.6099937e+09
170	0x5014eb2f	9.993764e+09
171	0x5040741d	1.291534e+10
172	0x5074af6b	1.6420548e+10
173	0x5098f8ac	2.053147e+10
174	0x50bc071b	2.5236658e+10
175	0x50e31a6f	3.0481283e+10
176	0x5106b459	3.615946e+10
177	0x511cded3	4.210958e+10
178	0x51333dc5	4.8114717e+10
179	0x5148d3f5	5.3909344e+10
180	0x515c8305	5.9193184e+10
181	0x516d1e9e	6.3651308e+10
182	0x5179871f	6.6982113e+10
183	0x5180632e	6.892747e+10
184	0x5181162c	6.9302845e+10
185	0x517d6953	6.802461e+10
186	0x51729cb6	6.5125704e+10
187	0x51625981	6.0760265e+10
188	0x514d9b11	5.5191867e+10
189	0x5135aba0	4.876678e+10
190	0x511c01a9	4.187767e+10
191	0x51021661	3.4920075e+10
192	0x516e84a9	6.4026743e+10
193	0x51ec29a2	1.26788846e+11
194	0x4cfcf16e	1.3261502e+08
195	0x50e679fb	3.093403e+10
196	0x520fa388	1.5423098e+11
197	0x512ae0b4	4.5869646e+10
198	0x5113c378	3.9664976e+10
199	0x52a183ec	3.468515e+11
200	0x51d1895b	1.12494076e+11
201	0x52183ab7	1.6345503e+11
202	0x511e3986	4.247312e+10
203	0x50785224	1.6664531e+10
204	0x50540800	1.4229176e+10
205	0x517bdc97	6.7608605e+10
206	0x5102d676	3.5121488e+10
207	0x50b728c8	2.4583225e+10
208	0x518195f0	6.957079e+10
209	0x51f15c99	1.2958008e+11
210	0x4cb208c9	9.3341256e+07
211	0x51302fd6	4.72948e+10
212	0x5209b43a	1.4785855e+11
213	0x50acaf41	2.3177333e+10
214	0x51075654	3.632931e+10
215	0x52a665a9	3.5733507e+11
216	0x51e3eb42	1.2236307e+11
217	0x521551d7	1.603308e+11
218	0x51333b84	4.8112353e+10
219	0x509ed6a3	2.1318932e+10
220	0x5038b1b3	1.2394614e+10
221	0x5185de00	7.18694e+10
222	0x50ac6a57	2.3141202e+10
223	0x50b45881	2.4205593e+10
224	0x4d727a89	2.542573e+08
225	0x4db8f609	3.878915e+08
226	0x4e0a5a5f	5.802946e+08
227	0x4e4b36ac	8.5233946e+08
228	0x4e92ae52	1.2304489e+09
229	0x4ed04e22	1.7473907e+09
230	0x4f119add	2.4428454e+09
231	0x4f487cbf	3.3636186e+09
232	0x4f87fdbb	4.5631053e+09
233	0x4fb5ca69	6.0998825e+09
234	0x4fef762a	8.034997e+09
235	0x501b62db	1.0427788e+10
236	0x5046a1f1	1.3330007e+10
237	0x507a0455	1.6778352e+10
238	0x509addca	2.0785811e+10
239	0x50bcbd5a	2.5332208e+10
240	0x50e22986	3.0354977e+10
241	0x510525f6	3.574172e+10
242	0x5119f38f	4.1326014e+10
243	0x512eabd2	4.6887936e+10
244	0x5142511b	5.2161524e+10
245	0x5153c800	5.6849596e+10
246	0x5161ed42	6.064676e+10
247	0x516bb180	6.3268454e+10
248	0x517037e4	6.4483115e+10
249	0x516ef430	6.4143688e+10
250	0x5167c27f	6.2212534e+10
251	0x515af303	5.8773746e+10
252	0x5149480f	5.4031086e+10
253	0x5133e37b	4.8288477e+10
254	0x511c260b	4.1915822e+10
255	0x510387b4	3.530734e+10
