checkpoints/run_20251202_174535.pt (torch, 130672 bytes, 19 tensors)

rbf_centers f4 [32]
00000000: 0000 0000 8c31 463e 8c31 c63e 29a5 143f
00000010: 8c31 463f efbd 773f 29a5 943f 5a6b ad3f
00000020: 8c31 c63f bef7 de3f efbd f73f 1042 0840
00000030: 29a5 1440 4208 2140 5a6b 2d40 73ce 3940
00000040: 8d31 4640 a694 5240 bef7 5e40 d75a 6b40
00000050: f0bd 7740 8410 8240 1042 8840 9d73 8e40
00000060: 2aa5 9440 b6d6 9a40 4208 a140 ce39 a740
00000070: 5b6b ad40 e79c b340 74ce b940 0000 c040
0.0 0.19354838 0.38709676 0.58064514 0.7741935 0.9677419 1.1612903 1.3548386
1.548387 1.7419355 1.9354838 2.1290321 2.3225806 2.516129 2.7096772 2.9032257
3.0967743 3.2903228 3.483871 3.6774194 3.8709679 4.064516 4.2580643 4.451613
4.6451616 4.83871 5.032258 5.225806 5.419355 5.612903 5.806452 6.0

embedding.weight f4 [100, 16]
00000000: 576a bdbf 2c80 f93e 9dd1 40c0 fd40 e33e
00000010: f731 b83e d04f 4abc 59c4 5f3e 2807 a4bf
00000020: 0851 1a40 6de3 ff3f b7e7 483f 087e 82bf
00000030: 2ea1 57be 7c78 203f fe87 6e3f a23c 3f3e
00000040: e935 753f 7108 91bf 8f68 353b c050 a83f
00000050: 5db3 81bf 6b9e 0bbf f646 db3e 83e9 f5bf
00000060: 2f4d a23f 78ae 90bf e258 5d3f 47e3 333f
00000070: 9146 473e 374f 6dbf a075 f13d a538 e3be
00000080: f661 5abf fd3a 57bf 6beb cabe beac 84be
00000090: 5464 2dbf 8c3a 913d 6bb0 eabe aea4 d73f
000000a0: d4c4 113e 5189 243f 4183 33bf 9c49 853f
000000b0: 1c6c 16c0 70d6 3c3e 5133 223f 11ce c3bf
000000c0: 7dce 99bf 5ec3 8a3d e41e 3b3d e357 f03e
000000d0: 7f41 493f f9ee 95bf c5ab 233f 7dfa 193f
000000e0: 527e c53e 0a14 eebe b3b7 e5bf 972d c43e
000000f0: 194f 4dbf a743 bcbd bca1 febe bc57 bebf
00000100: d5f4 e6be 17c4 64bf ca34 8dbe d2ba 433f
00000110: 62ae a63f bc0e e33f bd5d bcbf ac45 4abf
00000120: 251d 51bf b6a5 f3be 0827 543f 5faf 26be
00000130: 202d d13f 96d8 f3bf d2d2 1f3f 2bd1 1340
00000140: c67a 8e3f ade6 06bf 45b5 1d3d 87f6 f9be
00000150: 26a5 053f c435 8bbd 3970 86bf 91d6 adbd
00000160: ddfc bd3e 5c45 de3f 6c57 ae3e 8c97 013c
00000170: 1abf 61bf 21a8 853d a72a 42bf e52a 0ebf
00000180: fd18 133f f8ef 7b3f 0d0f 81bf d5af e2bf
00000190: e9ef a23e 8718 25bf 2255 10c0 398e 743f
000001a0: fe0b a6bf 735a 383f 981b 5abf a207 273e
000001b0: 65da 7b3d d335 0cbf eaca 473f fe3c b53d
000001c0: 4652 b4bd e916 ae3f 3d6f 133e c25e e13e
000001d0: df40 3ebf 91a3 423f dcbb 253f c552 2a3e
000001e0: f42c 6a3f 0f10 debf 1f5e acbf 1171 fabe
000001f0: 1974 2abd 3e53 73be 7e16 ba3e 5793 aa3f
00000200: 47ce d63e 48db 6fbf 77d3 b8bd 346c 46bf
00000210: ec54 b6bf 378a 2440 31b2 5b3f b1fe bcbf
00000220: d952 0a3f cba2 a9bf 9bd4 4b3e 97f7 15be
00000230: 8174 173f 3ba1 05bf 2435 d4bf 4141 01bf
00000240: 0b97 1bbd 4c5d fcbf e15b ed3f 9f26 35bf
00000250: f282 1d3c 78d0 a3be d078 18be ad1a 0b3d
00000260: 6a6a 26be c073 3fbf 438a 03bf 3db0 a7bf
00000270: 930e ddbd 3dc6 03bf 3a6f d83f cd35 7e3e
00000280: 03ba 243e 31d6 3b3d e7d2 2cbf db53 633f
00000290: e375 b63f 2400 f6bf 0d27 9fbf 3937 2b3f
000002a0: 8ee8 8c3d 13e4 853f 15e7 7abf af85 473e
000002b0: 99b6 eb3c 849b a9be fe4d cdbd 2f17 083f
000002c0: b8fd 923e 5f88 393d ffe5 5e3e c2c5 483f
000002d0: cb70 e1bf e7d1 e13f e718 b23e a67b 253f
000002e0: 7cbf ad3f e4c8 cb3f 87b8 dd3e e3fd 33bf
000002f0: 21c5 903e 934c d33f 19ac e73e 5665 a83e
00000300: 1bbe 343e b17d 96bf ec77 7dbf 51ba debf
00000310: c849 0dc0 ca96 c33e 4b2b 0640 d292 70be
00000320: cd68 313e c6a3 b33e 7a7c 4b3f d7fb 853e
00000330: c557 2abe d2a4 f53f 53bf 843f 0557 523f
00000340: 5d8d 5abe 8fa2 b9bf be46 833e 4708 0f3e
00000350: 1f9e 8a3f dea5 5bbf 2a99 1dbf 3e21 403d
00000360: 1ba9 a9bf 5607 593f 3f4b 4dbe 1a50 953e
00000370: fdab a33e 1758 0f3d 859e 11bf 6d3b 34be
00000380: 5688 873f b6d1 21be e49b 06bf 024e b2be
00000390: d766 9fbe d809 f6be 3819 28bf 2de4 eabf
000003a0: 42e6 50be bc7a 0440 3647 fa3e ec14 473e
000003b0: 9ab6 32bf 85ee 313f 1801 ac3f 779a 8ebf
000003c0: 9eff 21bf 78e3 09c0 5c4b b73e 37ed 37be
000003d0: a55d 10bf 7a6a c33e 1b2d 89be 5a6c d8bf
000003e0: 52e0 12bc 649a 4d3f 2c03 a83d 48bc 973e
000003f0: 7932 7b3f 9138 d4be 84d3 44bf ce28 003f
-1.4798077 0.487306 -3.0127938 0.4438552 0.3597562 -0.01234813 0.21852244 -1.2814684
2.4111958 1.999128 0.7847857 -1.0194712 -0.21057579 0.62683845 0.9317626 0.18675473
0.95785385 -1.1330701 0.002768073 1.3149643 -1.0132862 -0.545386 0.42827576 -1.9211887
1.2679805 -1.1303244 0.8646375 0.7026867 0.19460513 -0.92699 0.11790013 -0.44379154
-0.85305727 -0.84074384 -0.39632735 -0.25913042 -0.67731214 0.07091245 -0.4583772 1.6847131
0.1423524 0.6427203 -0.7012215 1.0413089 -2.3503485 0.18441176 0.6335955 -1.5297261
-1.201614 0.067755446 0.045683756 0.46942052 0.78615564 -1.1713554 0.63933975 0.6014784
0.38572937 -0.46499664 -1.7946686 0.38316032 -0.8019882 -0.09192591 -0.4973277 -1.4870524
-0.45108667 -0.8936171 -0.27579337 0.7645694 1.3021967 1.7738872 -1.4716107 -0.7901256
-0.81685096 -0.47587365 0.82872057 -0.16277836 1.6341896 -1.9050472 0.6243106 2.3096416
1.1131217 -0.52695733 0.03850295 -0.48820898 0.5220512 -0.06797364 -1.0502998 -0.08488191
0.37106982 1.7364917 0.34051073 0.007909667 -0.8818222 0.06526209 -0.7584633 -0.555342
0.57460004 0.9841304 -1.0082718 -1.770991 0.31823662 -0.6449055 -2.255196 0.95529515
-1.297241 0.72013015 -0.85198355 0.16311505 0.061487574 -0.5476963 0.78044 0.08849524
-0.08804755 1.3600742 0.14397903 0.44017607 -0.74317735 0.7603083 0.64739776 0.16633137
0.91474843 -1.7348651 -1.3466223 -0.48914388 -0.041614626 -0.23762223 0.36345285 1.3326215
0.41954252 -0.9369397 -0.09024709 -0.77508855 -1.4244666 2.570936 0.85818774 -1.4765226
0.54032665 -1.3252805 0.19905321 -0.1464523 0.59162146 -0.52199143 -1.6578717 -0.50490195
-0.037985843 -1.9715972 1.8543664 -0.70762056 0.009613739 -0.31994987 -0.14889836 0.033960987
-0.16251531 -0.74785995 -0.51382846 -1.3100659 -0.107937954 -0.5147436 1.6908944 0.24825211
0.16086583 0.045858566 -0.6750931 0.8879983 1.4254726 -1.9218793 -1.2433792 0.6688114
0.06880294 1.0460228 -0.98008853 0.1948459 0.028773593 -0.33126462 -0.100246415 0.53160375
0.28709197 0.04529607 0.21767424 0.78426754 -1.7612547 1.7642182 0.34784624 0.646418
1.3574061 1.5920682 0.43304846 -0.70309275 0.28275397 1.6507744 0.45248488 0.32889813
0.17650644 -1.1757108 -0.9901111 -1.7400609 -2.2076283 0.3820098 2.0963924 -0.23493508
0.17325135 0.35085887 0.7948681 0.261687 -0.16635044 1.9190924 1.0370888 0.8216403
-0.21342988 -1.4502734 0.2563991 0.13968001 1.0829505 -0.8579997 -0.61561835 0.046906702
-1.3254732 0.8477682 -0.20048235 0.29162675 0.31967154 0.03499612 -0.56882507 -0.17600794
1.0588481 -0.15802655 -0.5258162 -0.3482514 -0.31133148 -0.48054385 -0.6566348 -1.8350884
-0.20400336 2.069991 0.48882455 0.19441575 -0.6980988 0.69504577 1.3437834 -1.1140889
-0.63280666 -2.1545086 0.35799682 -0.17961584 -0.5639289 0.38167173 -0.26792225 -1.6908066
-0.008964615 0.80313706 0.0820373 0.29635835 0.9812389 -0.41449407 -0.7688525 0.50062263

pair_mlp.0.weight f4 [64, 64]
00000000: 941b e9bd 066a 953d 6dda cd3d 7b3a b93c
00000010: 28db 763d 2da1 fdbc c59f d8bc 2976 b5bc
00000020: 2720 e03c 5a22 783d 3cb5 3d3d c9da 14bd
00000030: 9c8c 9fbd a1c4 ecbd bc2e b33d cc44 07bd
00000040: 7043 73bd 1ed7 dbbd f647 bcbd 508d 063d
00000050: 15e8 ef3c 47b2 f03d 9c85 8ebd e74f df3d
00000060: 4d64 56bd 1a0f f4bc d4bb b6bc dc31 d5bd
00000070: fcf6 6abd 2971 b43c 7207 3cbb c079 dabd
00000080: a365 6c3c 776e d2bb c21b abbd c3ac 9dbd
00000090: c3db 503d ef71 233d 7862 183d 9955 c7bd
000000a0: 1e54 6f3d 115f a63b 6202 44bd 3114 883d
000000b0: 8781 62bc 522a e3bd 85b5 1fbd de9b 383d
000000c0: 1b7c 13bd 40c2 c6bd a277 0d3c 2e8d bbbd
000000d0: 7633 85bc dc0c c7bc a11b ba3d 19b5 b03d
000000e0: 9fb4 fa3d 92b5 f4bd d386 f13d 986f ba3c
000000f0: 798e f5bd b934 653c 2c81 8f3d aafb 14bd
00000100: 15e3 903d 479a d63d 56a1 ffbd e14d 9b3d
00000110: 7552 903d 99ab acbd a99e 1fbd a5c9 adbd
00000120: 4074 883c 7338 fdbd 5bb3 d7bc 558a a6bd
00000130: 92c0 07bc a824 aa3d 3a0c 563d 0b1a a63c
00000140: c6eb 2cbc 705a 443d 00b4 f03d 4f8e 5a3c
00000150: c813 823d e089 94bd 7e10 8bbd c123 903d
00000160: 1c74 dd3c a17d f03c a86a a43d 8135 c0bc
00000170: 872c 973d 882b 1dbd 5249 5abd 3558 a43d
00000180: cb14 01bd 62f5 003e 5937 61bd 42f1 af3d
00000190: 4423 f8bd 1c48 1abd 5673 e9bc 784b cabd
000001a0: 702f 733d dd7b 943d f30e b63d e8f3 8bbd
000001b0: 1fde e4bd 0175 a1bc 612b 3bbd 0959 d0bd
000001c0: a684 97bd ff95 8f3d f126 6c3b f21f f83d
000001d0: 2251 8dbd 0d64 623d e86a d9bc bd51 b5bd
000001e0: 806d b03d 6082 a4bd e635 89bd 9caa 4dba
000001f0: 2c7e 93bd f0fa 343d 89a3 a73d 8681 b33c
00000200: 17f0 573d 1c54 aebd 0a8b 193d d5b3 0ebd
00000210: 83f5 c53d 95cf 20bc 8809 80bd 59c7 8dbd
00000220: c4b1 17bd f635 a23c ed36 b7bb f18e 4b3d
00000230: 2355 aabd 3d78 83bd 38ee 80bd 7589 f53d
00000240: 6e05 9b3d 6efa 953d 00b6 18bd 14dd 2dbd
00000250: 263e 3dbd fb2e 033d 5f63 de3d 9b01 eb3d
00000260: 76b1 a93d 69c9 de3d a871 8a3d 531f 82bd
00000270: 4228 b63d 2530 9fbd e9a6 a93d f83e 45bd
00000280: d8ac 9f3d 2e9e f33d 1be0 1abc bc02 20bc
00000290: e0dc f6bd c82f 353d b8c7 ce3c 4503 b7bd
000002a0: c195 f4bd 24d4 7cbd 11c0 0d3d 39d0 1e3c
000002b0: d0e1 f8bc 879d 8bbd ce69 003e dc69 8e3d
000002c0: 3e4c 5ebd c97a ca3d 9882 a83c 48d1 893d
000002d0: 0dda 4abc c9b9 b03d ebb6 d2bd 9d56 7f3d
000002e0: 8c97 48bd c563 f83a 3aa7 dbbd c3ba ef3c
000002f0: bbed e0bd 65b8 e4bd 9574 b6bd 5d7e 10bb
00000300: 8687 d43d 5e93 543d aea5 dc3d 47ea adbd
00000310: b876 f23d 8d95 ca3c e2eb b83c cadd b2bd
00000320: 9e41 9f3d 099c ca3d 6c9f 9dbd 67d7 1a3d
00000330: e1ae f5bd 3c93 91bd 139c c8bd 927a babc
00000340: d22e 943d 4675 e13d 842d 4cbc 7d3c a83c
00000350: 3151 b3bd d53d a93d 59c7 27bd f7d9 f3bb
00000360: 22ab 84bd 82ab 9cbd e210 2ebd 7054 a93d
00000370: 1727 debc 9b83 8cbc 52a6 5bbd 31f4 e53d
00000380: 2cde fabd 1691 4ebd d1ec 453c 367b 733c
00000390: d1d3 0f3d 1973 f63d e526 debd ffa6 bd3b
000003a0: 473d e33d d9ae 52bd 9d27 c5bc d369 c5ba
000003b0: 07aa cd3d c073 eebd 6ce7 cbbd 4217 783d
000003c0: a90d 1a3d 69f8 b03d ad49 443c dfec 41bd
000003d0: f03f 14bc 00ef e0bd adb8 e23d c941 223d
000003e0: 9c80 61bd 40f6 e0bd 3f86 29bd 3324 a13c
000003f0: 7a89 c0bd 5ef3 ad3d 0e74 57bd ec1f aebd
-0.11382213 0.07295613 0.10051427 0.022610893 0.060267597 -0.030960644 -0.026443372 -0.02215107
0.027359081 0.060579635 0.046315417 -0.036341462 -0.07790491 -0.115609415 0.08749148 -0.033024594
-0.059390485 -0.1073439 -0.09193413 0.03284961 0.02928547 0.11752754 -0.06959078 0.10903912
-0.052341748 -0.029792357 -0.02230636 -0.104099005 -0.05736445 0.022026615 -0.0028690961 -0.10667753
0.014428529 -0.00642186 -0.08354904 -0.07698967 0.05099083 0.039903577 0.037203282 -0.09733123
0.05842983 0.005077251 -0.047853835 0.06644476 -0.013824827 -0.11092056 -0.03899147 0.04507052
-0.036007028 -0.09705019 0.00863448 -0.09157787 -0.01625989 -0.024298124 0.09087301 0.08628292
0.12241482 -0.11948694 0.11793294 0.02275829 -0.11990065 0.013989621 0.070070595 -0.036372818
0.070745625 0.10478645 -0.12481944 0.075832136 0.070469774 -0.08431167 -0.03896967 -0.08485726
0.016656995 -0.123642825 -0.02633064 -0.081318535 -0.008285658 0.08307773 0.052257754 0.02027609
-0.01055426 0.04793781 0.11753082 0.013339593 0.06351429 -0.0725286 -0.06790255 0.070380695
0.027032904 0.02935678 0.080281556 -0.023463013 0.0738154 -0.038371593 -0.05329258 0.08024637
-0.03151397 0.12593606 -0.054984424 0.08590938 -0.121161014 -0.037666425 -0.02849738 -0.09877676
0.05937141 0.072501875 0.0888957 -0.06833631 -0.11175179 -0.019709112 -0.045695666 -0.10173232
-0.073983476 0.07011031 0.0036033953 0.12115468 -0.069002405 0.055271197 -0.026540235 -0.08853481
0.086146355 -0.080326796 -0.066997334 -0.0007845552 -0.072018 0.044184625 0.08185489 0.021912348
0.052719202 -0.08512136 0.037486114 -0.03483947 0.09665968 -0.009815116 -0.06251818 -0.06922788
-0.037034765 0.019801121 -0.0055912645 0.049696866 -0.0831702 -0.06419418 -0.062954366 0.119891085
0.07569395 0.07323156 -0.037282944 -0.042447165 -0.046201847 0.032027226 0.10858797 0.114749156
0.08285801 0.1087826 0.067599595 -0.06353631 0.08894397 -0.07772855 0.08283789 -0.048155755
0.07796639 0.11895405 -0.009452845 -0.009766277 -0.12053847 0.04423502 0.025241718 -0.089361705
-0.11942626 -0.06172575 0.034606997 0.009693199 -0.030381113 -0.06817155 0.12540361 0.06953785
-0.05427193 0.09886701 0.020570084 0.0672937 -0.012381089 0.08629186 -0.10288795 0.06233846
-0.04897265 0.0018950632 -0.10725255 0.02926386 -0.109828435 -0.11167983 -0.08908955 -0.0022047975
0.103774115 0.051898353 0.107737884 -0.084919505 0.1183905 0.024729514 0.022573415 -0.08733709
0.07776187 0.098930426 -0.07696423 0.03780308 -0.11996246 -0.07108161 -0.09795394 -0.022763524
0.07235493 0.11008696 -0.012462024 0.020536656 -0.087557204 0.08263747 -0.040961597 -0.007441755
-0.064779535 -0.076499 -0.04249657 0.08268058 -0.027118249 -0.017152598 -0.053625412 0.112282164
-0.12249407 -0.050431333 0.012080387 0.014860919 0.035114113 0.12033672 -0.10847262 0.0057877298
0.11095672 -0.05143628 -0.02406674 -0.0015061445 0.10042196 -0.11643171 -0.099562496 0.060569055
0.037610684 0.086411305 0.011980456 -0.04734504 -0.009048447 -0.10983086 0.1107038 0.03961352
-0.055054292 -0.109844685 -0.041387793 0.019670581 -0.094012216 0.08493684 -0.052600913 -0.08502182

pair_mlp.0.bias f4 [64]
00000000: 743e b93c 6f40 043d ce0d 893d 0b35 76bc
00000010: 965f d4bd 6087 d03d aaf3 ce3c 29e4 87bd
00000020: 5b66 b73d 2349 b7bd 7865 4fbd 5d62 c7bd
00000030: a6e5 8f3d 0769 053d cc23 bbbd 0035 cfbd
00000040: 4d31 4d3d 305a 45bd 7eaf 98bb 7b8a babd
00000050: a783 b1bd 6bcd 053d 916a d9bb e4fc ba3b
00000060: 29be a83d 8cc0 22bd b711 a2bd 3dc1 d2bd
00000070: 6d29 42bd 73bc 79bd 1a24 9ebd 7e73 45bc
00000080: 8013 a7bb c955 69bd 8318 653d 06e1 e1bc
00000090: 4267 253c d337 3ebd edb6 703d 75a9 ab3d
000000a0: 4202 8dbd 1025 92bd 9f27 5c3d 0988 673d
000000b0: f483 e6bd 8f18 b53d d460 033d 0a6e f3bd
000000c0: 952b 87bd d707 393b 2250 8abd ed78 67bd
000000d0: 0e04 58bd cd81 513d a25a 89bd a7b1 423d
000000e0: f49f 3d3c 2a10 0bbd 110e c0bd deaa ea3c
000000f0: 3ebb 9abd f06c e33d ff2d a33d b801 3a3d
0.022612788 0.03228801 0.06692086 -0.015027295 -0.10369794 0.10182071 0.025262672 -0.06635315
0.0895507 -0.089494966 -0.050633878 -0.09735558 0.07026224 0.032570865 -0.09137687 -0.10117531
0.050095845 -0.048181713 -0.004659592 -0.09108444 -0.08667689 0.032666605 -0.006635018 0.0057064164
0.08239395 -0.03973441 -0.07913535 -0.102907635 -0.047402788 -0.060970735 -0.077217296 -0.012051461
-0.00509876 -0.056966577 0.05593158 -0.02757312 0.010095419 -0.046439957 0.0587682 0.08381931
-0.06885196 -0.07135975 0.053748723 0.056526218 -0.11255637 0.08842575 0.032074764 -0.11886223
-0.066001095 0.0028233433 -0.06753565 -0.05651181 -0.05273824 0.05114918 -0.0670674 0.047532704
0.01157378 -0.033950962 -0.09377683 0.028645929 -0.07555245 0.111047626 0.079677574 0.045411795

pair_mlp.2.weight f4 [64, 64]
00000000: 73d3 9bbd c87f 563d 9bcc 873d 8b82 4fbd
00000010: 9b8b 4d3d e293 dc3d 5138 fd3d fb7d 6c3d
00000020: bd5f a33d e33a 443d 3506 c13d e0fd 523d
00000030: 3d04 a63b 2878 8d3c c867 e23d b323 d13c
00000040: 220a 983b 6d03 523b 4b3f 95bd 576d 003d
00000050: 65a6 9b3c 651d f93d 9727 39bd af22 ea3d
00000060: 8f03 0d3e d92d a3bd cabc debd 5270 a03d
00000070: 5e24 27bd 199d c2bd cf5c 313d d23c 9d3d
00000080: 7841 7a3a 81da 17bd 734a 76bc f2ec e2bc
00000090: 20f3 fa3d 4d41 bdbc b56f e53d 3f41 94bd
000000a0: 4632 f43d f46b a7bd 0c42 203d 43c9 a9bc
000000b0: 6177 e33c ccce 433d 8c70 bcbc b53a f93d
000000c0: dcd6 e33d 02aa 63bd b028 a8bd 8ef9 e53c
000000d0: afcf 57bc 19f6 c03c 107f 6a3d caf0 d3bd
000000e0: 1848 bdbc a79d 9fbd 25b6 033c 71a9 053b
000000f0: d566 d93d f0ed 0bbd 2cb6 d3bc dab9 b2bd
00000100: 2bbd cb3d a8e0 2c3d eaa8 303d 08c7 0dbd
00000110: 0fab b7bd 34b6 853c 2118 69bd dbf7 8a3d
00000120: 9535 4bbc bee1 083d 161c bdbc 86cd de3c
00000130: 2ffc 653d be7c a23d 3373 68bd 3901 dc3c
00000140: e4ca e9bd faa0 ad3d b21b 6f3d c0ef 973c
00000150: e0e6 d4bd 5dae 00bc 12f2 dc3d ffee c5bd
00000160: c05d 21bd 32af f6bc 327d adbd 01b5 743d
00000170: d716 4f3a 8ed3 f7bc 781b aabd 9118 2fbd
00000180: 49c0 d1bd ad61 c63d 5085 e03d d189 793c
00000190: 55e6 f2bd a3ac 92bd eb07 0e3d 0ef7 b1bd
000001a0: 1003 323d 8867 d83d d01c aa3c 955b b4bc
000001b0: f02f 28bc 5b4c 64bd 8810 fbbd 8cd2 dcbd
000001c0: 213d b7bd 4396 b5bc 9328 b83d 533d e33d
000001d0: 1378 8b3d 0019 f5bd db6b c53b ce87 dcbd
000001e0: a09a 6f3d 7c31 bcbd c14f 24bd 69b1 893d
000001f0: 7db6 b33b 855c 873d 7c66 fabd fb85 a83d
00000200: a866 fcbd f453 a83d e0c3 853d 5724 dd3c
00000210: 460f 973d 6fbc b13d 45aa 5b3d 5816 003d
00000220: 947e dfbd 4571 e4bd 05e8 973c 6dd7 473d
00000230: a8fb 0cbd d9b2 e8bb b511 6d3c 98cf ef3d
00000240: 210d 2c3c 67c5 bbbd a7e5 99bc f5ee b63d
00000250: 5ffe e73d 5b31 c4bd b630 cbbc 95e6 7cbc
00000260: 41ea 463d 38e2 f1bd 90ab f7bd 8c38 b8bd
00000270: 8031 a4bd 3733 943c edca 89bd b514 b3bd
00000280: 2131 993c 2ae9 643d 8255 e8bd bc2e 463d
00000290: 53d6 1ebd 3e72 bc3d 1e2f d5bd 7fff 45bd
000002a0: 2eca 92bb 6036 a23c 20fd 043d 857b c63d
000002b0: e3f1 ad3d 5fce 2a3d 5e45 9e3d 66e9 803d
000002c0: 84c0 d6bd e31c 8dbc 03b2 8ebd 819d fd3d
000002d0: dee1 823d 29db fbbd 898e a1bd 18e1 0dbd
000002e0: 323f 213d f74e 9fbd 1b27 38bd 040b cd3d
000002f0: 997e b6bd f761 283d 199e 3bbd 4ea4 d5bd
00000300: c131 813c 0e0d d23d 9ba0 6abd 16e1 dabb
00000310: 8b0e 9cbc bbbc b3bd b041 1b3d 90de cc3c
00000320: 31a5 d93d 651f e1bd c36f 963c 5414 6e3d
00000330: 106b 88bc cbf2 9e3d 0ab0 723d f671 ebbc
00000340: b91f 813d 9774 973d ebbf bc3d f353 d03d
00000350: 8fa8 6a3c 9c24 d1bc d528 80bd ca27 c3bd
00000360: 19c2 01bd a585 d43d 69ec 8c3d 436d 11bd
00000370: a2d5 5abd 8aab 623d 06bf 703d 1b60 843d
00000380: dcaf 473d 2a4c e03b 354d 3b3d 4139 80bd
00000390: 8b8e 8c3d 7a19 f83d f94d 8ebd 10bc 92bc
000003a0: 9d2b 3cbd a7d9 e3bd 86a6 84bd f375 d73c
000003b0: 0e90 aa3d e963 d2bc 3984 b5bd f023 77bd
000003c0: 6796 b7bd 2506 e6bd 303e ccbd e3c2 c4bd
000003d0: a0d8 233d 70cb 9bbd 0c10 bcbd 6bc7 973d
000003e0: 2a7b babd d3ae b3bd d44c 413c 166b 82bc
000003f0: bb16 d9bd aa77 97bd a73d 3cbd 5fb2 8b3d
-0.0760869 0.052367955 0.06630822 -0.050661605 0.050181966 0.10770394 0.12364257 0.05773733
0.07977245 0.04790772 0.09425012 0.051511645 0.005066423 0.017269209 0.11054951 0.025529718
0.00463988 0.00320455 -0.07287463 0.031354275 0.019000242 0.1216381 -0.04520377 0.114323966
0.13770889 -0.07967729 -0.108758524 0.078339234 -0.040806167 -0.0950262 0.0433014 0.07677616
0.0009546499 -0.037073616 -0.0150323985 -0.027700875 0.12253404 -0.023102427 0.11202947 -0.07239007
0.119236514 -0.08174887 0.039125487 -0.020725852 0.027766885 0.04780464 -0.023002885 0.121694006
0.111249655 -0.055582054 -0.082108855 0.028073099 -0.013172074 0.023554849 0.057250082 -0.10348661
-0.023105666 -0.07793742 0.008039032 0.0020395184 0.10615317 -0.03416246 -0.025843702 -0.087268546
0.0994819 0.042206436 0.04312984 -0.03461364 -0.08968174 0.016322233 -0.056907777 0.06785556
-0.012402912 0.03341841 -0.023084681 0.02719761 0.056148704 0.07933949 -0.056750488 0.026856052
-0.114156514 0.084779695 0.05837602 0.018546939 -0.103955984 -0.007854071 0.10788359 -0.096647255
-0.039396048 -0.030112837 -0.08471145 0.05974293 0.0007899827 -0.030252244 -0.083060205 -0.042748038
-0.102417536 0.09686599 0.10962927 0.015230612 -0.118603386 -0.07161834 0.03467552 -0.086897
0.043459952 0.10566622 0.020765692 -0.022016326 -0.010265335 -0.05573688 -0.122590125 -0.10782346
-0.08947206 -0.022166377 0.08992114 0.11095681 0.06810012 -0.11967659 0.0060248203 -0.1076809
0.05849707 -0.09189126 -0.04011512 0.067232914 0.005484401 0.066094436 -0.122265786 0.0822868
-0.123242676 0.08219138 0.06531501 0.026994867 0.0737596 0.08678519 0.05362918 0.03127131
-0.10912815 -0.11154417 0.018543253 0.04878943 -0.034419686 -0.0071013984 0.014469554 0.11709517
0.010501177 -0.09168511 -0.018786265 0.08932296 0.11327814 -0.09579726 -0.0248035 -0.015435834
0.048563246 -0.11810726 -0.1209327 -0.089951605 -0.08017254 0.018090827 -0.06728158 -0.08744184
0.018700184 0.055886425 -0.11344434 0.048384413 -0.038778614 0.092014775 -0.104093775 -0.048339363
-0.004479668 0.019801319 0.03246796 0.09691528 0.08493402 0.041700717 0.077280745 0.06294517
-0.10485938 -0.017225688 -0.06967547 0.12383557 0.06390737 -0.12297661 -0.078885145 -0.034638494
0.03936691 -0.07778733 -0.04495917 0.10011867 -0.08910865 0.04110905 -0.04580507 -0.10431729
0.015770795 0.10256396 -0.05728207 -0.0066796644 -0.019049903 -0.08776232 0.03790444 0.02500847
0.10627211 -0.10992316 0.018363839 0.058124855 -0.016652614 0.07761153 0.059249915 -0.028740864
0.06304879 0.073952846 0.09216293 0.10172262 0.014322414 -0.025530152 -0.06257788 -0.095290735
-0.031679247 0.10377053 0.06881029 -0.03550459 -0.053426392 0.055339374 0.058775924 0.06463643
0.048751697 0.006845017 0.045727927 -0.0626092 0.068631254 0.12114234 -0.06948466 -0.01791194
-0.04594003 -0.11125498 -0.06477074 0.02630136 0.083282575 -0.025682406 -0.0886311 -0.060337007
-0.08964234 -0.11231641 -0.09972799 -0.09607484 0.04000151 -0.07607162 -0.09182748 0.07411083
-0.09105523 -0.087735794 0.011798102 -0.015920203 -0.106000386 -0.07395871 -0.045957234 0.06821131

pair_mlp.2.bias f4 [64]
00000000: 9ed1 aabc da7f f6bd 019c 0fbb 5403 86bc
00000010: cc38 85bd eb71 5e3d a1cb e83b 6d99 4bbd
00000020: 5480 cebd 75fe 3ebd a1c1 30bd 923f a2bd
00000030: 8537 a8bd c7be 79bd 8800 c13c bde4 483d
00000040: a692 bfbd 2f84 533b 4146 35bd 2807 b5bd
00000050: 69cf aebd bbb7 d1bd 1561 823d c5a2 4d3d
00000060: a829 d0bc e5a1 96bc 7c91 bc3d b469 673b
00000070: a340 863d 9206 473d bf19 793d e951 173d
00000080: 624d 593d 489d 94bd 467f 343d 177e 133d
00000090: 9e9d dbbb f1a2 f8bc fe90 2bbd 6999 5ebc
000000a0: 4516 6fbd fad0 febd 000d 0a3d 88e1 ee3b
000000b0: 26d9 c43d 4ce5 ea3d bdbd 6a3d 4c05 65bd
000000c0: 1dcc bf3d 535c 12bd f5a3 40ba 5b64 e1bd
000000d0: dc39 eb3d e8f2 69bb db79 11bd 01f5 edbd
000000e0: 220d 853d 1d9a b4ba 337b babc d639 5fbd
000000f0: de04 cc3c a43d 4dbd b6df c23d 50ad 273d
-0.020851906 -0.120361045 -0.0021913054 -0.016359009 -0.06504974 0.05430786 0.0071043526 -0.049706865
-0.100830704 -0.046629388 -0.04315341 -0.07922281 -0.082137145 -0.060972955 0.023559824 0.049046267
-0.09354143 0.0032274832 -0.044256452 -0.088392556 -0.08535654 -0.10240122 0.06366173 0.050204057
-0.025410488 -0.018387744 0.092074364 0.0035310807 0.06555297 0.04859025 0.06081557 0.03694335
0.053052314 -0.072565615 0.04406669 0.03600892 -0.006702139 -0.030351134 -0.041886322 -0.0135863805
-0.058370847 -0.12442203 0.033703804 0.007290069 0.0961173 0.11469516 0.057309855 -0.055913255
0.093651034 -0.03573258 -0.000734865 -0.110054694 0.11485645 -0.0035697762 -0.0355166 -0.116189964
0.064966455 -0.001377884 -0.022763824 -0.054498516 0.024904665 -0.050107613 0.09515326 0.040936768

pair_mlp.4.weight f4 [1, 64]
00000000: 4c9f e63d d76d aabd 8601 5fbd bf30 66bc
00000010: 2137 cf3c 59e0 013d 7e99 54bd 7bfe f3bc
00000020: d146 953d fdc8 5c3c f03f c1bd cd77 643d
00000030: c891 ab3d 0ae4 f5ba fcd5 3e3d ad50 d73c
00000040: 3b1e 4c3d fe20 1bbd 5aac 6b3a c38e 7cbd
00000050: eeb6 abbd ee98 9dbd 849f 683d 1417 d4bd
00000060: 0a5d c4bd 279b eabd 6225 d4bd 63f0 adbd
00000070: a13e 8ebd 5a5f b1bd 9808 89bd 0553 963d
00000080: c78a 9ebd 651a d73d f4ce d33d 9bed 893d
00000090: 8f7c b13d 852c 83bd a1cf 123d 84af 7fb9
000000a0: c1e2 c83d ca6c 1d3d bf3e 1bbd a8e5 ebbc
000000b0: 1664 7cbd a31c 64bd 1e4e 08bd ce47 bfbd
000000c0: 5698 de3d 41df 8fbd 05f2 e6bd 7cfc 793d
000000d0: 88a0 733d 4680 df3d 9be8 ebbc 7b71 85bd
000000e0: d0a3 1b3c 64c0 8abd 4daf d1bb 966e 57bd
000000f0: 393f a6bc 6619 2abd c5b4 cebd 708f cebd
0.11260852 -0.083217315 -0.054444812 -0.014049708 0.025294842 0.031708095 -0.051904194 -0.029784432
0.07288898 0.013475654 -0.09436023 0.055778313 0.08377415 -0.0018759978 0.04659079 0.026283586
0.049833518 -0.03787326 0.0008990221 -0.061659586 -0.083845004 -0.07695185 0.05679275 -0.10355964
-0.09588058 -0.11455374 -0.10358693 -0.08493116 -0.06945539 -0.08660765 -0.06691092 0.073400535
-0.077413134 0.10503081 0.103422076 0.06734773 0.08666336 -0.06404976 0.03584254 -0.0002438408
0.09808875 0.038433827 -0.037901636 -0.028796032 -0.061618887 -0.055691373 -0.033277623 -0.093398675
0.108688995 -0.07025004 -0.1127663 0.061031803 0.059479266 0.10913138 -0.028797438 -0.06515785
0.009499505 -0.06774977 -0.0063990713 -0.052595697 -0.020293819 -0.041528128 -0.10093073 -0.10085952

exp_avg f4 [100, 16]
00000000: 0000 0000 0000 0000 0000 0000 0000 0000
00000010: 0000 0000 0000 0000 0000 0000 0000 0000
00000020: 0000 0000 0000 0000 0000 0000 0000 0000
00000030: 0000 0000 0000 0000 0000 0000 0000 0000
00000040: 8af3 8d43 b3ea 1d43 5f5c 01c3 c0e5 05c3
00000050: c908 65c3 14a4 17c3 7e1a 1243 0087 c442
00000060: 992f e542 b913 d0c3 8436 08c3 a5c9 b142
00000070: ab2d 41c1 a4f6 4c43 848f 88c1 61ff 3c43
00000080: 0000 0000 0000 0000 0000 0000 0000 0000
00000090: 0000 0000 0000 0000 0000 0000 0000 0000
000000a0: 0000 0000 0000 0000 0000 0000 0000 0000
000000b0: 0000 0000 0000 0000 0000 0000 0000 0000
000000c0: 0000 0000 0000 0000 0000 0000 0000 0000
000000d0: 0000 0000 0000 0000 0000 0000 0000 0000
000000e0: 0000 0000 0000 0000 0000 0000 0000 0000
000000f0: 0000 0000 0000 0000 0000 0000 0000 0000
00000100: 0000 0000 0000 0000 0000 0000 0000 0000
00000110: 0000 0000 0000 0000 0000 0000 0000 0000
00000120: 0000 0000 0000 0000 0000 0000 0000 0000
00000130: 0000 0000 0000 0000 0000 0000 0000 0000
00000140: 0000 0000 0000 0000 0000 0000 0000 0000
00000150: 0000 0000 0000 0000 0000 0000 0000 0000
00000160: 0000 0000 0000 0000 0000 0000 0000 0000
00000170: 0000 0000 0000 0000 0000 0000 0000 0000
00000180: 0000 0000 0000 0000 0000 0000 0000 0000
00000190: 0000 0000 0000 0000 0000 0000 0000 0000
000001a0: 0000 0000 0000 0000 0000 0000 0000 0000
000001b0: 0000 0000 0000 0000 0000 0000 0000 0000
000001c0: 0000 0000 0000 0000 0000 0000 0000 0000
000001d0: 0000 0000 0000 0000 0000 0000 0000 0000
000001e0: 0000 0000 0000 0000 0000 0000 0000 0000
000001f0: 0000 0000 0000 0000 0000 0000 0000 0000
00000200: 0b6e 0543 f2de b842 ccd4 56c2 92a9 90c2
00000210: 2fed 92c2 890b 9cc2 bd6d 8242 0aee 2342
00000220: b711 f541 0dff 56c3 a9d0 97c2 85a0 6042
00000230: 8f9a d940 c891 b242 b920 85c0 22f5 9242
00000240: 0000 0000 0000 0000 0000 0000 0000 0000
00000250: 0000 0000 0000 0000 0000 0000 0000 0000
00000260: 0000 0000 0000 0000 0000 0000 0000 0000
00000270: 0000 0000 0000 0000 0000 0000 0000 0000
00000280: 0000 0000 0000 0000 0000 0000 0000 0000
00000290: 0000 0000 0000 0000 0000 0000 0000 0000
000002a0: 0000 0000 0000 0000 0000 0000 0000 0000
000002b0: 0000 0000 0000 0000 0000 0000 0000 0000
000002c0: 0000 0000 0000 0000 0000 0000 0000 0000
000002d0: 0000 0000 0000 0000 0000 0000 0000 0000
000002e0: 0000 0000 0000 0000 0000 0000 0000 0000
000002f0: 0000 0000 0000 0000 0000 0000 0000 0000
00000300: 0000 0000 0000 0000 0000 0000 0000 0000
00000310: 0000 0000 0000 0000 0000 0000 0000 0000
00000320: 0000 0000 0000 0000 0000 0000 0000 0000
00000330: 0000 0000 0000 0000 0000 0000 0000 0000
00000340: 0000 0000 0000 0000 0000 0000 0000 0000
00000350: 0000 0000 0000 0000 0000 0000 0000 0000
00000360: 0000 0000 0000 0000 0000 0000 0000 0000
00000370: 0000 0000 0000 0000 0000 0000 0000 0000
00000380: 0000 0000 0000 0000 0000 0000 0000 0000
00000390: 0000 0000 0000 0000 0000 0000 0000 0000
000003a0: 0000 0000 0000 0000 0000 0000 0000 0000
000003b0: 0000 0000 0000 0000 0000 0000 0000 0000
000003c0: 0000 0000 0000 0000 0000 0000 0000 0000
000003d0: 0000 0000 0000 0000 0000 0000 0000 0000
000003e0: 0000 0000 0000 0000 0000 0000 0000 0000
000003f0: 0000 0000 0000 0000 0000 0000 0000 0000
0.0 0.0 0.0 0.0 0.0 0.0 0.0 0.0
0.0 0.0 0.0 0.0 0.0 0.0 0.0 0.0
283.90265 157.9168 -129.36082 -133.89746 -229.03432 -151.64093 146.10349 98.26367
114.592964 -416.15408 -136.21295 88.89384 -12.073649 204.96344 -17.070076 188.99757
0.0 0.0 0.0 0.0 0.0 0.0 0.0 0.0
0.0 0.0 0.0 0.0 0.0 0.0 0.0 0.0
0.0 0.0 0.0 0.0 0.0 0.0 0.0 0.0
0.0 0.0 0.0 0.0 0.0 0.0 0.0 0.0
0.0 0.0 0.0 0.0 0.0 0.0 0.0 0.0
0.0 0.0 0.0 0.0 0.0 0.0 0.0 0.0
0.0 0.0 0.0 0.0 0.0 0.0 0.0 0.0
0.0 0.0 0.0 0.0 0.0 0.0 0.0 0.0
0.0 0.0 0.0 0.0 0.0 0.0 0.0 0.0
0.0 0.0 0.0 0.0 0.0 0.0 0.0 0.0
0.0 0.0 0.0 0.0 0.0 0.0 0.0 0.0
0.0 0.0 0.0 0.0 0.0 0.0 0.0 0.0
133.42986 92.43544 -53.70781 -72.33119 -73.46325 -78.02253 65.21433 40.98246
30.63365 -214.99629 -75.90754 56.156757 6.800117 89.28473 -4.1602445 73.478775
0.0 0.0 0.0 0.0 0.0 0.0 0.0 0.0
0.0 0.0 0.0 0.0 0.0 0.0 0.0 0.0
0.0 0.0 0.0 0.0 0.0 0.0 0.0 0.0
0.0 0.0 0.0 0.0 0.0 0.0 0.0 0.0
0.0 0.0 0.0 0.0 0.0 0.0 0.0 0.0
0.0 0.0 0.0 0.0 0.0 0.0 0.0 0.0
0.0 0.0 0.0 0.0 0.0 0.0 0.0 0.0
0.0 0.0 0.0 0.0 0.0 0.0 0.0 0.0
0.0 0.0 0.0 0.0 0.0 0.0 0.0 0.0
0.0 0.0 0.0 0.0 0.0 0.0 0.0 0.0
0.0 0.0 0.0 0.0 0.0 0.0 0.0 0.0
0.0 0.0 0.0 0.0 0.0 0.0 0.0 0.0
0.0 0.0 0.0 0.0 0.0 0.0 0.0 0.0
0.0 0.0 0.0 0.0 0.0 0.0 0.0 0.0

exp_avg_sq f4 [100, 16]
00000000: 0000 0000 0000 0000 0000 0000 0000 0000
00000010: 0000 0000 0000 0000 0000 0000 0000 0000
00000020: 0000 0000 0000 0000 0000 0000 0000 0000
00000030: 0000 0000 0000 0000 0000 0000 0000 0000
00000040: 6c9c 9b4e f917 eb4d b1ee 244e 6143 4c4d
00000050: 98a8 d44e df78 dd4d 156d e54d 28a0 a14d
00000060: 8386 de4c 6b3c 124f 5002 c14d 6533 8c4d
00000070: 0512 2f4c 86d7 df4d 6239 b54d 4ccb 5c4e
00000080: 0000 0000 0000 0000 0000 0000 0000 0000
00000090: 0000 0000 0000 0000 0000 0000 0000 0000
000000a0: 0000 0000 0000 0000 0000 0000 0000 0000
000000b0: 0000 0000 0000 0000 0000 0000 0000 0000
000000c0: 0000 0000 0000 0000 0000 0000 0000 0000
000000d0: 0000 0000 0000 0000 0000 0000 0000 0000
000000e0: 0000 0000 0000 0000 0000 0000 0000 0000
000000f0: 0000 0000 0000 0000 0000 0000 0000 0000
00000100: 0000 0000 0000 0000 0000 0000 0000 0000
00000110: 0000 0000 0000 0000 0000 0000 0000 0000
00000120: 0000 0000 0000 0000 0000 0000 0000 0000
00000130: 0000 0000 0000 0000 0000 0000 0000 0000
00000140: 0000 0000 0000 0000 0000 0000 0000 0000
00000150: 0000 0000 0000 0000 0000 0000 0000 0000
00000160: 0000 0000 0000 0000 0000 0000 0000 0000
00000170: 0000 0000 0000 0000 0000 0000 0000 0000
00000180: 0000 0000 0000 0000 0000 0000 0000 0000
00000190: 0000 0000 0000 0000 0000 0000 0000 0000
000001a0: 0000 0000 0000 0000 0000 0000 0000 0000
000001b0: 0000 0000 0000 0000 0000 0000 0000 0000
000001c0: 0000 0000 0000 0000 0000 0000 0000 0000
000001d0: 0000 0000 0000 0000 0000 0000 0000 0000
000001e0: 0000 0000 0000 0000 0000 0000 0000 0000
000001f0: 0000 0000 0000 0000 0000 0000 0000 0000
00000200: 2a9a 854d d83c 174d 4d11 074d 2fc8 604c
00000210: b9be 7e4d ff02 0a4d 3c84 c74c 8aa3 8c4c
00000220: 26f4 664b 152d 204e 157e b84c 447a a54c
00000230: eeeb ba4a 097a b54c 9ae4 614c bf85 174d
00000240: 0000 0000 0000 0000 0000 0000 0000 0000
00000250: 0000 0000 0000 0000 0000 0000 0000 0000
00000260: 0000 0000 0000 0000 0000 0000 0000 0000
00000270: 0000 0000 0000 0000 0000 0000 0000 0000
00000280: 0000 0000 0000 0000 0000 0000 0000 0000
00000290: 0000 0000 0000 0000 0000 0000 0000 0000
000002a0: 0000 0000 0000 0000 0000 0000 0000 0000
000002b0: 0000 0000 0000 0000 0000 0000 0000 0000
000002c0: 0000 0000 0000 0000 0000 0000 0000 0000
000002d0: 0000 0000 0000 0000 0000 0000 0000 0000
000002e0: 0000 0000 0000 0000 0000 0000 0000 0000
000002f0: 0000 0000 0000 0000 0000 0000 0000 0000
00000300: 0000 0000 0000 0000 0000 0000 0000 0000
00000310: 0000 0000 0000 0000 0000 0000 0000 0000
00000320: 0000 0000 0000 0000 0000 0000 0000 0000
00000330: 0000 0000 0000 0000 0000 0000 0000 0000
00000340: 0000 0000 0000 0000 0000 0000 0000 0000
00000350: 0000 0000 0000 0000 0000 0000 0000 0000
00000360: 0000 0000 0000 0000 0000 0000 0000 0000
00000370: 0000 0000 0000 0000 0000 0000 0000 0000
00000380: 0000 0000 0000 0000 0000 0000 0000 0000
00000390: 0000 0000 0000 0000 0000 0000 0000 0000
000003a0: 0000 0000 0000 0000 0000 0000 0000 0000
000003b0: 0000 0000 0000 0000 0000 0000 0000 0000
000003c0: 0000 0000 0000 0000 0000 0000 0000 0000
000003d0: 0000 0000 0000 0000 0000 0000 0000 0000
000003e0: 0000 0000 0000 0000 0000 0000 0000 0000
000003f0: 0000 0000 0000 0000 0000 0000 0000 0000
0.0 0.0 0.0 0.0 0.0 0.0 0.0 0.0
0.0 0.0 0.0 0.0 0.0 0.0 0.0 0.0
1.3053599e+09 4.930271e+08 6.917766e+08 2.1418549e+08 1.7839094e+09 4.6446077e+08 4.811414e+08 3.3895347e+08
1.16667416e+08 2.453433e+09 4.0476928e+08 2.940223e+08 4.5893652e+07 4.6943046e+08 3.800546e+08 9.260777e+08
0.0 0.0 0.0 0.0 0.0 0.0 0.0 0.0
0.0 0.0 0.0 0.0 0.0 0.0 0.0 0.0
0.0 0.0 0.0 0.0 0.0 0.0 0.0 0.0
0.0 0.0 0.0 0.0 0.0 0.0 0.0 0.0
0.0 0.0 0.0 0.0 0.0 0.0 0.0 0.0
0.0 0.0 0.0 0.0 0.0 0.0 0.0 0.0
0.0 0.0 0.0 0.0 0.0 0.0 0.0 0.0
0.0 0.0 0.0 0.0 0.0 0.0 0.0 0.0
0.0 0.0 0.0 0.0 0.0 0.0 0.0 0.0
0.0 0.0 0.0 0.0 0.0 0.0 0.0 0.0
0.0 0.0 0.0 0.0 0.0 0.0 0.0 0.0
0.0 0.0 0.0 0.0 0.0 0.0 0.0 0.0
2.8018413e+08 1.585842e+08 1.4162862e+08 5.8925244e+07 2.671195e+08 1.4471576e+08 1.0460413e+08 7.373525e+07
1.5135782e+07 6.7182726e+08 9.672721e+07 8.675792e+07 6.125047e+06 9.5146056e+07 5.921649e+07 1.588828e+08
0.0 0.0 0.0 0.0 0.0 0.0 0.0 0.0
0.0 0.0 0.0 0.0 0.0 0.0 0.0 0.0
0.0 0.0 0.0 0.0 0.0 0.0 0.0 0.0
0.0 0.0 0.0 0.0 0.0 0.0 0.0 0.0
0.0 0.0 0.0 0.0 0.0 0.0 0.0 0.0
0.0 0.0 0.0 0.0 0.0 0.0 0.0 0.0
0.0 0.0 0.0 0.0 0.0 0.0 0.0 0.0
0.0 0.0 0.0 0.0 0.0 0.0 0.0 0.0
0.0 0.0 0.0 0.0 0.0 0.0 0.0 0.0
0.0 0.0 0.0 0.0 0.0 0.0 0.0 0.0
0.0 0.0 0.0 0.0 0.0 0.0 0.0 0.0
0.0 0.0 0.0 0.0 0.0 0.0 0.0 0.0
0.0 0.0 0.0 0.0 0.0 0.0 0.0 0.0
0.0 0.0 0.0 0.0 0.0 0.0 0.0 0.0

exp_avg f4 [64, 64]
00000000: 5442 b7c3 d2b9 f443 6421 2941 8dc6 a5c3
00000010: a20e 0044 220f 14c3 9008 79c3 d9eb 4b44
00000020: e6a2 f1c3 c67a 0644 3bfe 99c3 7134 53c3
00000030: dfbf 0ac3 62af b843 2cf2 2b43 9034 5143
00000040: 3d26 a9c3 d595 ef43 2225 7741 44fc 5dc3
00000050: 1972 0544 5ab6 9bc3 0cc9 87c3 0f18 4644
00000060: 2590 dec3 e008 0944 0e8c 88c3 f5b0 26c3
00000070: 5090 1fc3 d411 ae43 9e84 8443 b968 5443
00000080: 146c 80c1 5067 a1c1 1624 c9c1 b198 f8c1
00000090: e660 18c2 764c 39c2 6b84 5fc2 e5b7 85c2
000000a0: beaf 9ec2 ccc2 bac2 aff6 d9c2 9138 fcc2
000000b0: c7ac 10c3 1485 24c3 a16b 39c3 c013 4fc3
000000c0: e81c 65c3 f512 7bc3 ff37 88c3 414f 92c3
000000d0: 6a7f 9bc3 7276 a3c3 3ae4 a9c3 8a7f aec3
000000e0: 9c0a b1c3 5758 b1c3 c450 afc3 bef3 aac3
000000f0: 075b a4c3 a1b9 9bc3 7959 91c3 2d97 85c3
00000100: f24d 2fc3 2a87 6743 61ac 9040 aa7a 26c3
00000110: aa43 6f43 e38e 59c2 f161 e6c2 d936 c143
00000120: 603c 67c3 6e6e 7c43 1b5c 14c3 2159 cfc2
00000130: 969c 7dc2 c2fd 2f43 817e 9042 9c7e c442
00000140: 9b77 2dc3 cfdb 6643 f6d4 9a40 8858 1fc3
00000150: e4aa 7043 230d 82c2 3751 e9c2 9374 c043
00000160: 9fc0 64c3 be18 7d43 9316 12c3 4b8d c9c2
00000170: 2184 81c2 e89b 2e43 919d 9c42 68e9 c442
00000180: 6bf3 12c1 1bab 35c1 74a7 5ec1 1c54 87c1
00000190: 0038 a3c1 b05e c3c1 1421 e8c1 1ee6 08c2
000001a0: e64d 20c2 4959 3ac2 ad09 57c2 274d 76c2
000001b0: 1afd 8bc2 5be6 9dc2 1ab1 b0c2 ff1b c4c2
000001c0: 3bd4 d7c2 ff75 ebc2 c98c fec2 1d4b 08c3
000001d0: b482 10c3 29a4 17c3 6967 1dc3 b689 21c3
000001e0: f7d1 23c3 7815 24c3 f63b 22c3 dc42 1ec3
000001f0: bf3e 18c3 c45b 10c3 5bdb 06c3 fb20 f8c2
00000200: 9b7c 17c3 1dd1 5343 100f cb40 caad d7c2
00000210: 4fe6 6843 1cd1 f3c2 9bd6 eac2 4a6d af43
00000220: bd6a 47c3 5e44 7043 7bd2 f6c2 26f5 9ac2
00000230: 0494 88c2 742b 1b43 3903 d842 2a5a ba42
00000240: 516b 1ec3 b457 5643 95ba a440 68c1 06c3
00000250: c19a 6343 468d a3c2 f7c3 dfc2 354a b243
00000260: bcc9 50c3 a5c1 6d43 91fb 03c3 f8d3 b0c2
00000270: 00b4 7cc2 a562 2043 7d46 aa42 32c7 b842
00000280: 08fd 2ac1 529f 50c1 6e7d 7cc1 64a4 97c1
00000290: 31da b4c1 d335 d6c1 6003 fcc1 4f3f 13c2
000002a0: 62e5 2ac2 73f5 44c2 695d 61c2 9af3 7fc2
000002b0: 523a 90c2 c640 a1c2 61cf b2c2 549a c4c2
000002c0: 8848 d6c2 fe74 e7c2 e5b0 f7c2 7f43 03c3
000002d0: 86bf 09c3 a011 0fc3 d802 13c3 6763 15c3
000002e0: 140e 16c3 34eb 14c3 76f3 11c3 9431 0dc3
000002f0: 07c3 06c3 45ae fdc2 505a ebc2 7921 d7c2
00000300: 8b5a cbc2 62f9 1043 0bec 9a40 2c20 7fc2
00000310: ed8f 2243 8f6a c7c2 9228 a6c2 2d88 6f43
00000320: 51c0 05c3 b98c 2643 b260 a3c2 d172 44c2
00000330: d13b 44c2 f8c5 d142 69bf a642 da07 8142
00000340: 3703 dcc2 5c02 1443 16bc 5940 4e3e c0c2
00000350: 2f33 1c43 97f3 4dc2 a2da 98c2 9669 7643
00000360: c802 11c3 7788 2343 bef9 b7c2 1e01 79c2
00000370: 97a8 2bc2 6e4e de42 2b96 5f42 6947 7e42
00000380: a60f d1c0 1c0f ffc0 4a58 1ac1 046b 39c1
00000390: 0935 5dc1 0f16 83c1 9160 9ac1 92ac b4c1
000003a0: 8822 d2c1 70dc f2c1 8970 0bc2 7a0f 1fc2
000003b0: 0134 34c2 2bb6 4ac2 3c5b 62c2 f8d3 7ac2
000003c0: 71dd 89c2 4b4a 96c2 e967 a2c2 3ae4 adc2
000003d0: e265 b8c2 688f c1c2 e403 c9c2 2c6c cec2
000003e0: c27c d1c2 6dfc d1c2 eec8 cfc2 04dc cac2
000003f0: 9a4d c3c2 e053 b9c2 2c41 adc2 517f 9fc2
-366.5182 489.45172 10.570652 -331.55118 512.22864 -148.05911 -249.03345 815.6851
-483.27264 537.91833 -307.98618 -211.20485 -138.7495 369.37018 171.94598 209.20532
-338.29874 479.17056 15.446566 -221.98541 533.7828 -311.42462 -271.57068 792.3759
-445.12613 548.1387 -273.09418 -166.69124 -159.56372 348.13928 265.03607 212.40907
-16.052773 -20.175446 -25.14262 -31.074556 -38.094627 -46.32467 -55.879314 -66.85917
-79.34325 -93.38046 -108.981804 -126.11048 -144.67491 -164.51984 -185.42043 -207.07715
-229.11292 -251.07405 -272.43747 -292.61917 -310.99542 -326.92535 -339.78302 -348.9964
-354.0829 -354.69016 -350.63098 -341.90424 -328.71115 -311.45023 -290.699 -267.18106
-175.30447 231.52798 4.5210423 -166.47916 239.26431 -54.389538 -115.19129 386.4285
-231.23584 252.43137 -148.35979 -103.67408 -63.402916 175.99124 72.24708 98.247284
-173.46721 230.85863 4.838496 -159.34583 240.66754 -65.02566 -116.65862 384.91074
-228.75243 253.09665 -146.08818 -100.77596 -64.758064 174.60901 78.30775 98.45587
-9.184428 -11.354274 -13.915882 -16.916069 -20.402344 -24.421234 -29.016151 -34.224724
-40.076073 -46.587193 -53.75945 -61.575344 -69.99434 -78.94991 -88.3459 -98.05468
-107.91451 -117.73046 -127.27497 -136.29341 -144.51056 -151.64125 -157.40395 -161.53793
-163.82018 -164.08386 -162.23422 -158.26117 -152.2451 -144.35846 -134.85686 -124.064415
-151.48674 211.81685 6.3455887 -107.83943 232.89964 -121.90842 -117.41915 350.85382
-199.41695 240.26706 -123.411095 -77.478806 -68.28909 155.16974 108.006294 93.1761
-158.4192 214.34259 5.147776 -134.7555 227.6045 -81.775925 -111.882744 356.57974
-208.78802 237.75642 -131.98268 -88.414 -63.17578 160.38533 85.13767 92.38905
-10.686775 -13.038897 -15.7806225 -18.955269 -22.606539 -26.776281 -31.501648 -36.811825
-42.724007 -49.239697 -56.34122 -63.987892 -72.11391 -80.62651 -89.40504 -98.30142
-107.14166 -115.7285 -123.8455 -131.26366 -137.74814 -143.06885 -147.01111 -149.38829
-150.055 -148.91876 -145.95102 -141.19366 -134.76183 -126.84037 -117.67639 -107.56538
-101.67684 144.97415 4.841314 -63.781418 162.56221 -99.70812 -83.07924 239.53194
-133.75124 166.5497 -81.68886 -49.112125 -49.058414 104.88666 83.37385 64.515335
-110.00628 148.00922 3.4021049 -96.12169 156.19994 -51.48788 -76.42702 246.41245
-145.01086 163.53307 -91.98778 -62.25109 -42.91464 111.15318 55.89665 63.569736
-6.53316 -7.9705944 -9.646555 -11.588627 -13.825448 -16.38577 -19.297152 -22.584263
-26.266861 -30.357635 -34.859898 -39.765114 -45.050785 -50.6779 -56.589096 -62.707
-68.9325 -75.1451 -81.20295 -86.945755 -92.19899 -96.78009 -100.5076 -103.21127
-104.74367 -104.99302 -103.89244 -101.42972 -97.651566 -92.66382 -86.62729 -79.748665

exp_avg_sq f4 [64, 64]
00000000: 6f73 da4e dfbd 424f 4b27 cb49 99cb b64e
00000010: 94b0 534f 2a86 844d d28a 484e 7e0d 0750
00000020: 8318 404f b5a5 694f be77 9b4e 79bc 144e
00000030: ffca 824d e543 de4e 828f ba4d b495 0d4e
00000040: 3cd4 b74e 2614 3a4f 618a 5d4a 9e6a 1a4e
00000050: 0057 674f 1c36 a44e f47f 714e f3d2 fd4f
00000060: 2547 214f ae4d 734f f837 704e 1d60 b34d
00000070: 0c90 af4d 7bb7 c34e 0d88 6b4e cd41 124e
00000080: 0d7b 4b4a 5bdf a24a 28a0 ff4a 94d3 444b
00000090: 67cd 944b a407 dd4b ef54 214c 3386 674c
000000a0: e255 a34c 7c97 e24c d985 1a4d 622a 4f4d
000000b0: 7f79 884d 62a7 b04d 7090 e04d f51d 0c4e
000000c0: 1e90 2b4e 2d01 4e4e b76f 724e a5b9 8b4e
000000d0: c1a3 9d4e 64f2 ad4e 5d94 bb4e 5a85 c54e
000000e0: fceb ca4e c236 cb4e 5833 c64e 191b bc4e
000000f0: 1f91 ad4e 8592 9b4e 4b58 874e b464 644e
00000100: fcf3 d74d e221 3b4e 50e7 9848 80d7 cb4d
00000110: 0efb 444e 44b7 fc4b b401 364d 9246 024f
00000120: 5902 3e4e 6a04 5c4e 7b6a 9c4d ebda 1c4d
00000130: 9476 664c 1e89 d94d 9745 834c 558c 054d
00000140: 75f7 d04d 9b73 394e 709c bb48 252e b24d
00000150: 11a2 484e 46a0 654c b160 3d4d feaf 004f
00000160: 4bc9 374e 20d7 5d4e cf18 954d a2bf 0f4d
00000170: d6fd 754c 7840 d44d 17e9 a94c b56e 064d
00000180: 9a67 8849 3cb8 d449 4d82 224a b189 734a
00000190: 0d29 b34a d782 014b 931f 384b ddc6 804b
000001a0: 1750 b14b 1362 f04b 9174 204c bfee 524c
000001b0: 9281 884c f6e8 ad4c 1902 da4c 9363 064d
000001c0: 66dc 224d c0e0 414d 4890 624d 0dd9 814d
000001d0: 54de 914d aa74 a04d 02ab ac4d 7799 b54d
000001e0: 927b ba4d 11ca ba4d 2551 b64d 903c ad4d
000001f0: 1018 a04d 0dc2 8f4d 9ea4 7a4d 53f1 534d
00000200: ac87 2b4e 5d4f a54e 5647 9749 1754 c24d
00000210: ca98 c34e 3e3f b54d 9951 c54d 94e9 624f
00000220: a6bb 964e d259 d14e 37d8 e74d 214d 404d
00000230: 817f 0a4d ee5f 334e 8ef8 984d 2e52 7c4d
00000240: 81a3 354e 6bd5 a74e c11b 6a49 ff6e 004e
00000250: b8e3 bd4e 75a6 564d bd72 b94d 0ca8 674f
00000260: 59bb 9f4e 1f8b ce4e 7889 fc4d 2c04 634d
00000270: a917 fb4c 3f1f 3b4e 93b8 604d 679a 794d
00000280: f45d 3e4a 2cbe 914a 0ecc da4a ae33 214b
00000290: 0d5e 694b 0715 a64b ab8d e84b ff3a 204c
000002a0: 3356 594c 3817 914c c2aa be4c e78d f64c
000002b0: b4d0 1c4d 7927 444d 6e2c 714d 6faa 914d
000002c0: b2cb ac4d 7630 c94d 89cb e54d 52aa 004e
000002d0: 402d 0d4e 2aae 174e ed75 1f4e a1e9 234e
000002e0: 819c 244e f65f 214e e04c 1a4e 57c5 0f4e
000002f0: 026d 024e 2e31 e64d f16d c54d c76e a44d
00000300: 32af 184e f32a 974e 7322 a249 da97 934d
00000310: eedf b74e f29c da4d 7c28 bd4d 18c5 4e4f
00000320: 2029 864e 54df c24e 1095 ca4d 8208 1f4d
00000330: 02c6 074d d338 214e 9772 a74d 6475 6a4d
00000340: 130b 264e bb87 9a4e 335b 6349 6f82 e24d
00000350: 3833 b04e 75f6 5a4d ef16 ad4d 7215 554f
00000360: f60c 924e 0b1c bf4e 21c3 e54d 37ec 4b4d
00000370: 6d2e ec4c f27c 2b4e 1593 5b4d e4d1 664d
00000380: 5630 1b4a 07f2 6c4a df61 b14a 5b60 024b
00000390: 375e 3c4b cadc 854b b34a bb4b b90b 014c
000003a0: b532 2f4c d95e 6a4c 2276 9a4c 6f92 c84c
000003b0: 1d41 004d aa7b 214d 6515 484d a6d7 734d
000003c0: ca10 924d 10eb ab4d 9ea9 c64d 3c3a e14d
000003d0: 5c53 fa4d d143 084e 1431 114e 5645 174e
000003e0: 9df6 194e 83ef 184e 191e 144e c0ba 0b4e
000003f0: ee45 004e e6f6 e44d 887c c64d bdfb a64d
1.8324991e+09 3.2672233e+09 1.6642334e+06 1.5333981e+09 3.5515648e+09 2.7792314e+08 8.411352e+08 9.063234e+09
3.2228319e+09 3.919951e+09 1.304158e+09 6.238449e+08 2.742927e+08 1.8644957e+09 3.912459e+08 5.938496e+08
1.5420698e+09 3.1218826e+09 3.6297202e+06 6.476696e+08 3.8812385e+09 1.3775048e+09 1.01292365e+09 8.516921e+09
2.7057943e+09 4.0819543e+09 1.00754995e+09 3.7617757e+08 3.6818163e+08 1.6417908e+09 9.878905e+08 6.1344646e+08
3.3338272e+06 5.3370055e+06 8.37634e+06 1.289922e+07 1.9503822e+07 2.8970824e+07 4.2292156e+07 6.0692684e+07
8.563483e+07 1.1879933e+08 1.6202894e+08 2.1722883e+08 2.8620797e+08 3.7046995e+08 4.7094528e+08 5.876934e+08
7.195872e+08 8.640459e+08 1.0168519e+09 1.1720997e+09 1.3223773e+09 1.4591718e+09 1.5735313e+09 1.6569254e+09
1.7022316e+09 1.7046817e+09 1.6626268e+09 1.5779462e+09 1.4559845e+09 1.3050354e+09 1.1353553e+09 9.579512e+08
4.528864e+08 7.8489e+08 313146.5 4.2748723e+08 8.2619686e+08 3.3123976e+07 1.908478e+08 2.185663e+09
7.969562e+08 9.228192e+08 3.28028e+08 1.6447454e+08 6.0414544e+07 4.5620525e+08 6.882425e+07 1.4003541e+08
4.3823478e+08 7.778403e+08 384227.5 3.7367107e+08 8.415161e+08 6.0195096e+07 1.9857691e+08 2.1590175e+09
7.708556e+08 9.304658e+08 3.1267888e+08 1.507313e+08 6.448521e+07 4.4512435e+08 8.908204e+07 1.4096264e+08
1.1174272e+06 1.7425995e+06 2.6625472e+06 3.9901242e+06 5.8707265e+06 8.487639e+06 1.2066707e+07 1.6879034e+07
2.324075e+07 3.1507494e+07 4.2062404e+07 5.5294716e+07 7.156853e+07 9.117893e+07 1.1429908e+08 1.4091704e+08
1.7077206e+08 2.0329574e+08 2.3756915e+08 2.723107e+08 3.0590835e+08 3.3650003e+08 3.6211104e+08 3.808417e+08
3.9108256e+08 3.917256e+08 3.823464e+08 3.6330342e+08 3.3574144e+08 3.014824e+08 2.6281827e+08 2.22238e+08
7.194488e+08 1.3867209e+09 1.2392748e+06 4.0753635e+08 1.6407852e+09 3.801026e+08 4.138074e+08 3.8069586e+09
1.26444e+09 1.7561623e+09 4.8621334e+08 2.0164251e+08 1.4522574e+08 7.523521e+08 3.2080326e+08 2.6457776e+08
7.618479e+08 1.4078908e+09 958908.06 5.386895e+08 1.5929088e+09 2.2507707e+08 3.8891306e+08 3.88655e+09
1.3399277e+09 1.732612e+09 5.2960845e+08 2.3804384e+08 1.31644744e+08 7.848468e+08 2.3563704e+08 2.6172786e+08
3.118973e+06 4.775702e+06 7.169543e+06 1.0564526e+07 1.5293965e+07 2.1768718e+07 3.0481238e+07 4.2003452e+07
5.6973516e+07 7.606931e+07 9.996443e+07 1.29265464e+08 1.644327e+08 2.0568258e+08 2.528888e+08 3.0548323e+08
3.623788e+08 4.2192454e+08 4.8191517e+08 5.3966144e+08 5.9213824e+08 6.361934e+08 6.6882643e+08 6.874993e+08
6.9043e+08 6.768552e+08 6.4718234e+08 6.030187e+08 5.470455e+08 4.8274784e+08 4.1403958e+08 3.4484042e+08
6.404046e+08 1.2680872e+09 1.3282064e+06 3.095253e+08 1.542453e+09 4.5846483e+08 3.9669338e+08 3.4690232e+09
1.125421e+09 1.634708e+09 4.2484582e+08 1.6675843e+08 1.423688e+08 6.7621395e+08 3.511631e+08 2.4584762e+08
6.964359e+08 1.2962932e+09 931251.2 4.7502486e+08 1.4780733e+09 2.2959906e+08 3.6299517e+08 3.5749524e+09
1.2251615e+09 1.603143e+09 4.818463e+08 2.1382846e+08 1.2382705e+08 7.192731e+08 2.3024059e+08 2.420322e+08
2.5426135e+06 3.8821138e+06 5.8124635e+06 8.544347e+06 1.2344887e+07 1.754562e+07 2.454871e+07 3.382858e+07
4.5927124e+07 6.143882e+07 8.098229e+07 1.05157496e+08 1.3448443e+08 1.6932726e+08 2.0980283e+08 2.5568726e+08
3.0632173e+08 3.6053862e+08 4.166256e+08 4.7233626e+08 5.2497088e+08 5.7153645e+08 6.089782e+08 6.344759e+08
6.45769e+08 6.4145837e+08 6.212501e+08 5.86068e+08 5.3801664e+08 4.8017325e+08 4.1625626e+08 3.5018947e+08

exp_avg f4 [64]
00000000: 54fc e2c3 0bd9 55c3 62c6 47c3 14aa 09c3
00000010: 3dcf a043 16c7 9242 03dd 3c42 3991 65c4
00000020: ec3c ce43 dfe8 02c4 3569 4ec3 1335 10c3
00000030: f857 7dc3 1054 2743 79c0 db40 35f9 a743
00000040: 946c 0043 72c1 f4c0 f143 ea43 0eec 2341
00000050: 6d07 3942 bf48 d841 7dfe 89c3 12f2 c442
00000060: 8364 18c2 a178 a543 a1fc b5c2 1b2b 9942
00000070: 391b ad43 fb64 1fc2 46c9 9343 2958 aac3
00000080: 84b3 a5c3 2e60 1744 1bf6 5244 efee 2642
00000090: a6dc 5ec4 66da 21c3 1779 01c3 024b 09c3
000000a0: b544 06c1 02cd 90c0 59dd 2341 890d ddc3
000000b0: 1ff0 ebc1 4782 ea42 63d1 5142 cf88 e6c3
000000c0: bf34 0d42 0933 33c2 b220 9642 88ec 2444
000000d0: bd15 8d43 ced0 48c4 c8c6 6cc4 b0e6 02c2
000000e0: f553 8b43 74ea 5fc3 e95f abc2 7172 cfc3
000000f0: 44ab b3c3 c4d8 5bc3 8a92 3bc4 6cc2 ab43
-453.9713 -213.84782 -199.77493 -137.66437 321.61905 73.38884 47.21583 -918.2691
412.47595 -523.6386 -206.41096 -144.20732 -253.34363 167.32837 6.867245 335.94693
128.42413 -7.648614 468.5308 10.245131 46.25725 27.03552 -275.9882 98.47279
-38.098156 330.9424 -90.993416 76.58419 346.21268 -39.848614 295.57245 -340.68875
-331.40247 605.5028 843.8454 41.733334 -891.44763 -161.85312 -129.473 -137.293
-8.391774 -4.5250254 10.24154 -442.10574 -29.492247 117.25445 52.45448 -461.06882
35.30151 -44.79984 75.06386 659.6958 282.16983 -803.2626 -947.10596 -32.72528
278.6559 -223.91583 -85.687325 -414.89407 -359.338 -219.84674 -750.2897 343.51892

exp_avg_sq f4 [64]
00000000: b94d 264f fd1d 1e4e 9637 914e 220a 864e
00000010: 2aff a04e f9fb 724e ddfa 924d 9373 3150
00000020: cc34 114f a6bf 4c4f 999d ee4e d5d5 094e
00000030: 49bd b54e 78bb 2b4e d22f 6f4b 05a7 ff4e
00000040: 3991 374e 718d 2b4c 3375 234f a1c4 6f4b
00000050: 2126 f44c 5e3c e94c cc46 854e 2584 bc4c
00000060: dd8f f64e 17e4 484f 2629 c54c c4f6 bb4e
00000070: 8fa1 ce4e e378 c44c 3877 734e b217 d44e
00000080: edae 074f 22da a54f f47b 5150 33ae a44e
00000090: 5e01 2450 70c6 994e 4d50 334d 0abc 8a4d
000000a0: bb37 064b 5bc6 014e cee5 124c 2b83 004f
000000b0: 4974 bf4c 6e6d 244e 7261 5e4e 2099 464f
000000c0: 1f73 f34c ac24 dd4c d284 2d4d 90ba b14f
000000d0: 9bf5 b04e 302a 0650 e7fa 4e50 dfba 974c
000000e0: 15f8 ae4e 78c6 944f c445 164e d0ff 094f
000000f0: f68d e84e e637 f84d 55c3 d14f f091 a44f
2.7901115e+09 6.6319136e+08 1.2181696e+09 1.1244055e+09 1.3505385e+09 1.0191499e+09 3.0823926e+08 1.1908566e+10
2.4361564e+09 3.435112e+09 2.0016529e+09 5.781231e+08 1.5245405e+09 7.202975e+08 1.5675346e+07 2.1445679e+09
7.6993696e+08 4.497146e+07 2.742367e+09 1.5713441e+07 1.2800436e+08 1.2228274e+08 1.1180047e+09 9.8836776e+07
2.0683117e+09 3.3703913e+09 1.0336901e+08 1.5767557e+09 1.7333472e+09 1.03008024e+08 1.02116915e+09 1.7791613e+09
2.276388e+09 5.5650724e+09 1.4058246e+10 1.3814399e+09 1.1006212e+10 1.2899594e+09 1.8802402e+08 2.909474e+08
8.796091e+06 5.443151e+08 3.8508344e+07 2.1560799e+09 1.0037716e+08 6.8965875e+08 9.32732e+08 3.331924e+09
1.2763775e+08 1.1594275e+08 1.8194768e+08 5.9635876e+09 1.484443e+09 9.003647e+09 1.3890199e+10 7.95502e+07
1.467747e+09 4.9920696e+09 6.3028864e+08 2.3152435e+09 1.9508088e+09 5.205516e+08 7.038479e+09 5.522055e+09
