checkpoints/run_20251202_170542.pt (torch, 45301 bytes, 7 tensors)

rbf_centers f4 [32]
0.0 0.019354839 0.038709678 0.058064517 0.077419356 0.09677419 0.11612903 0.13548388
0.15483871 0.17419355 0.19354838 0.21290323 0.23225807 0.2516129 0.27096775 0.29032257
0.30967745 0.32903227 0.34838712 0.36774194 0.3870968 0.40645164 0.42580646 0.4451613
0.46451616 0.48387098 0.5032258 0.5225807 0.5419355 0.5612903 0.5806452 0.6
00000000: 0000 0000 0a8e 9e3c 0a8e 1e3d 0fd5 6d3d
00000010: 0a8e 9e3d 8c31 c63d 0fd5 ed3d 49bc 0a3e
00000020: 0a8e 1e3e cb5f 323e 8c31 463e 4e03 5a3e
00000030: 0fd5 6d3e 68d3 803e 49bc 8a3e 29a5 943e
00000040: 0b8e 9e3e eb76 a83e cc5f b23e ac48 bc3e
00000050: 8d31 c63e 6e1a d03e 4e03 da3e 2fec e33e
00000060: 10d5 ed3e f0bd f73e 68d3 003f d9c7 053f
00000070: 49bc 0a3f b9b0 0f3f 2aa5 143f 9a99 193f

embedding.weight f4 [100, 16]
-1.4798077 0.487306 -3.0127938 0.4438552 0.3597562 -0.01234813 0.21852244 -1.2814684
2.4111958 1.999128 0.7847857 -1.0194712 -0.21057579 0.62683845 0.9317626 0.18675473
0.95892775 -1.1370966 0.0013050791 1.3174164 -1.014831 -0.5428595 0.43074253 -1.92567
1.275577 -1.1315589 0.8680018 0.7078839 0.2058456 -0.9300103 0.11424503 -0.44502813
-0.85305727 -0.84074384 -0.39632735 -0.25913042 -0.67731214 0.07091245 -0.4583772 1.6847131
0.1423524 0.6427203 -0.7012215 1.0413089 -2.3503485 0.18441176 0.6335955 -1.5297261
-1.201614 0.067755446 0.045683756 0.46942052 0.78615564 -1.1713554 0.63933975 0.6014784
0.38572937 -0.46499664 -1.7946686 0.38316032 -0.8019882 -0.09192591 -0.4973277 -1.4870524
-0.45108667 -0.8936171 -0.27579337 0.7645694 1.3021967 1.7738872 -1.4716107 -0.7901256
-0.81685096 -0.47587365 0.82872057 -0.16277836 1.6341896 -1.9050472 0.6243106 2.3096416
1.1131217 -0.52695733 0.03850295 -0.48820898 0.5220512 -0.06797364 -1.0502998 -0.08488191
0.37106982 1.7364917 0.34051073 0.007909667 -0.8818222 0.06526209 -0.7584633 -0.555342
0.57460004 0.9841304 -1.0082718 -1.770991 0.31823662 -0.6449055 -2.255196 0.95529515
-1.297241 0.72013015 -0.85198355 0.16311505 0.061487574 -0.5476963 0.78044 0.08849524
-0.08804755 1.3600742 0.14397903 0.44017607 -0.74317735 0.7603083 0.64739776 0.16633137
0.91474843 -1.7348651 -1.3466223 -0.48914388 -0.041614626 -0.23762223 0.36345285 1.3326215
0.42043918 -0.94151986 -0.09224161 -0.76847 -1.4264812 2.5694854 0.8604312 -1.4825002
0.5554131 -1.3264339 0.20286192 -0.14143658 0.6070931 -0.5250651 -1.658226 -0.5056446
-0.037985843 -1.9715972 1.8543664 -0.70762056 0.009613739 -0.31994987 -0.14889836 0.033960987
-0.16251531 -0.74785995 -0.51382846 -1.3100659 -0.107937954 -0.5147436 1.6908944 0.24825211
0.16086583 0.045858566 -0.6750931 0.8879983 1.4254726 -1.9218793 -1.2433792 0.6688114
0.06880294 1.0460228 -0.98008853 0.1948459 0.028773593 -0.33126462 -0.100246415 0.53160375
0.28709197 0.04529607 0.21767424 0.78426754 -1.7612547 1.7642182 0.34784624 0.646418
1.3574061 1.5920682 0.43304846 -0.70309275 0.28275397 1.6507744 0.45248488 0.32889813
0.17650644 -1.1757108 -0.9901111 -1.7400609 -2.2076283 0.3820098 2.0963924 -0.23493508
0.17325135 0.35085887 0.7948681 0.261687 -0.16635044 1.9190924 1.0370888 0.8216403
-0.21342988 -1.4502734 0.2563991 0.13968001 1.0829505 -0.8579997 -0.61561835 0.046906702
-1.3254732 0.8477682 -0.20048235 0.29162675 0.31967154 0.03499612 -0.56882507 -0.17600794
1.0588481 -0.15802655 -0.5258162 -0.3482514 -0.31133148 -0.48054385 -0.6566348 -1.8350884
-0.20400336 2.069991 0.48882455 0.19441575 -0.6980988 0.69504577 1.3437834 -1.1140889
-0.63280666 -2.1545086 0.35799682 -0.17961584 -0.5639289 0.38167173 -0.26792225 -1.6908066
-0.008964615 0.80313706 0.0820373 0.29635835 0.9812389 -0.41449407 -0.7688525 0.50062263
00000000: 576a bdbf 2c80 f93e 9dd1 40c0 fd40 e33e
00000010: f731 b83e d04f 4abc 59c4 5f3e 2807 a4bf
00000020: 0851 1a40 6de3 ff3f b7e7 483f 087e 82bf
00000030: 2ea1 57be 7c78 203f fe87 6e3f a23c 3f3e
00000040: 4a7c 753f 628c 91bf 300f ab3a 1aa1 a83f
00000050: fbe5 81bf d7f8 0abf 498a dc3e 5b7c f6bf
00000060: 1b46 a33f ecd6 90bf 5e35 5e3f e137 353f
00000070: 30c9 523e 2815 6ebf 4cf9 e93d bada e3be
00000080: f661 5abf fd3a 57bf 6beb cabe beac 84be
00000090: 5464 2dbf 8c3a 913d 6bb0 eabe aea4 d73f
000000a0: d4c4 113e 5189 243f 4183 33bf 9c49 853f
000000b0: 1c6c 16c0 70d6 3c3e 5133 223f 11ce c3bf
000000c0: 7dce 99bf 5ec3 8a3d e41e 3b3d e357 f03e
000000d0: 7f41 493f f9ee 95bf c5ab 233f 7dfa 193f
000000e0: 527e c53e 0a14 eebe b3b7 e5bf 972d c43e
000000f0: 194f 4dbf a743 bcbd bca1 febe bc57 bebf
00000100: d5f4 e6be 17c4 64bf ca34 8dbe d2ba 433f
00000110: 62ae a63f bc0e e33f bd5d bcbf ac45 4abf
00000120: 251d 51bf b6a5 f3be 0827 543f 5faf 26be
00000130: 202d d13f 96d8 f3bf d2d2 1f3f 2bd1 1340
00000140: c67a 8e3f ade6 06bf 45b5 1d3d 87f6 f9be
00000150: 26a5 053f c435 8bbd 3970 86bf 91d6 adbd
00000160: ddfc bd3e 5c45 de3f 6c57 ae3e 8c97 013c
00000170: 1abf 61bf 21a8 853d a72a 42bf e52a 0ebf
00000180: fd18 133f f8ef 7b3f 0d0f 81bf d5af e2bf
00000190: e9ef a23e 8718 25bf 2255 10c0 398e 743f
000001a0: fe0b a6bf 735a 383f 981b 5abf a207 273e
000001b0: 65da 7b3d d335 0cbf eaca 473f fe3c b53d
000001c0: 4652 b4bd e916 ae3f 3d6f 133e c25e e13e
000001d0: df40 3ebf 91a3 423f dcbb 253f c552 2a3e
000001e0: f42c 6a3f 0f10 debf 1f5e acbf 1171 fabe
000001f0: 1974 2abd 3e53 73be 7e16 ba3e 5793 aa3f
00000200: ce43 d73e 7207 71bf 2be9 bcbd 73ba 44bf
00000210: f096 b6bf 7372 2440 3845 5c3f 91c2 bdbf
00000220: 8e2f 0e3f 96c8 a9bf 09bb 4f3e c0d4 10be
00000230: 746a 1b3f ab6a 06bf c040 d4bf ed71 01bf
00000240: 0b97 1bbd 4c5d fcbf e15b ed3f 9f26 35bf
00000250: f282 1d3c 78d0 a3be d078 18be ad1a 0b3d
00000260: 6a6a 26be c073 3fbf 438a 03bf 3db0 a7bf
00000270: 930e ddbd 3dc6 03bf 3a6f d83f cd35 7e3e
00000280: 03ba 243e 31d6 3b3d e7d2 2cbf db53 633f
00000290: e375 b63f 2400 f6bf 0d27 9fbf 3937 2b3f
000002a0: 8ee8 8c3d 13e4 853f 15e7 7abf af85 473e
000002b0: 99b6 eb3c 849b a9be fe4d cdbd 2f17 083f
000002c0: b8fd 923e 5f88 393d ffe5 5e3e c2c5 483f
000002d0: cb70 e1bf e7d1 e13f e718 b23e a67b 253f
000002e0: 7cbf ad3f e4c8 cb3f 87b8 dd3e e3fd 33bf
000002f0: 21c5 903e 934c d33f 19ac e73e 5665 a83e
00000300: 1bbe 343e b17d 96bf ec77 7dbf 51ba debf
00000310: c849 0dc0 ca96 c33e 4b2b 0640 d292 70be
00000320: cd68 313e c6a3 b33e 7a7c 4b3f d7fb 853e
00000330: c557 2abe d2a4 f53f 53bf 843f 0557 523f
00000340: 5d8d 5abe 8fa2 b9bf be46 833e 4708 0f3e
00000350: 1f9e 8a3f dea5 5bbf 2a99 1dbf 3e21 403d
00000360: 1ba9 a9bf 5607 593f 3f4b 4dbe 1a50 953e
00000370: fdab a33e 1758 0f3d 859e 11bf 6d3b 34be
00000380: 5688 873f b6d1 21be e49b 06bf 024e b2be
00000390: d766 9fbe d809 f6be 3819 28bf 2de4 eabf
000003a0: 42e6 50be bc7a 0440 3647 fa3e ec14 473e
000003b0: 9ab6 32bf 85ee 313f 1801 ac3f 779a 8ebf
000003c0: 9eff 21bf 78e3 09c0 5c4b b73e 37ed 37be
000003d0: a55d 10bf 7a6a c33e 1b2d 89be 5a6c d8bf
000003e0: 52e0 12bc 649a 4d3f 2c03 a83d 48bc 973e
000003f0: 7932 7b3f 9138 d4be 84d3 44bf ce28 003f

pair_mlp.0.weight f4 [64, 64]
-0.114544705 0.07361153 0.10121386 0.021727368 0.06089379 -0.030692428 -0.027040765 -0.021485016
0.026643172 0.061224237 0.045596406 -0.037167475 -0.07841703 -0.114930436 0.087739736 -0.032409072
-0.05999419 -0.10672055 -0.09080587 0.032591745 0.02997306 0.11652155 -0.070316315 0.109661594
-0.05293584 -0.02911979 -0.022842944 -0.10457544 -0.058087543 0.022616103 -0.0019557327 -0.10603894
0.013898522 -0.0069456697 -0.08406858 -0.07750669 0.050474614 0.039386675 0.03668447 -0.09785327
0.057903558 0.004545763 -0.04839143 0.065900296 -0.014376894 -0.11148094 -0.03956063 0.04449193
-0.036595494 -0.097648814 0.008025467 -0.09219734 -0.01688981 -0.024938285 0.09022294 0.08562331
0.12174617 -0.12016392 0.117248446 0.022066832 -0.12059815 0.013286799 0.06936325 -0.03708385
0.069195434 0.106297985 -0.12303203 0.07424797 0.071983054 -0.08532709 -0.040477037 -0.08333866
0.015114993 -0.12212245 -0.027860284 -0.082902655 -0.009726927 0.08459513 0.05361937 0.021766216
-0.012095645 0.049446777 0.1193465 0.011790305 0.06503281 -0.073823124 -0.06942123 0.07189581
0.025500149 0.030879468 0.07876539 -0.025024861 0.07235308 -0.036861166 -0.051842973 0.08173844
-0.03339018 0.12408908 -0.056803957 0.08411592 -0.12292987 -0.03941205 -0.03022106 -0.10047972
0.057688057 0.07083708 0.08724873 -0.069966525 -0.11336616 -0.021308407 -0.0472807 -0.10330385
-0.07554251 0.06856316 0.0020670444 0.11962837 -0.07051945 0.053762466 -0.028041303 -0.09002888
0.08465862 -0.08180879 -0.06847407 -0.0022563785 -0.073485315 0.042721584 0.08039589 0.020457163
0.05116649 -0.0836273 0.03904663 -0.0365569 0.098134995 -0.010905936 -0.06397414 -0.0677246
-0.03857927 0.021290258 -0.0071370006 0.048046768 -0.08455916 -0.06268178 -0.06168525 0.1213533
0.07426643 0.07469268 -0.0351146 -0.04356584 -0.044661507 0.029746398 0.106995374 0.11620726
0.08143979 0.11030118 0.066239074 -0.064825654 0.08734119 -0.07630801 0.084799334 -0.046669975
0.07643789 0.11742392 -0.010986045 -0.011303782 -0.12208116 0.042686835 0.023687929 -0.09092066
-0.120989904 -0.063292906 0.033037543 0.008122742 -0.0319511 -0.06973961 0.12383883 0.06797761
-0.05582638 0.09731929 0.01902984 0.06576154 -0.013904601 0.084777355 -0.10439345 0.060842007
-0.050459996 0.00041663647 -0.108722255 0.027802706 -0.11128135 -0.113124594 -0.090526685 -0.0036344528
0.102116734 0.053521425 0.10954523 -0.08661321 0.120019436 0.023221746 0.020946398 -0.08570805
0.076113656 0.10056405 -0.0785989 0.03611049 -0.12154327 -0.06945537 -0.09638129 -0.021157071
0.07074158 0.11169866 -0.010419145 0.019056827 -0.085905746 0.080750376 -0.042635843 -0.0058282763
-0.06638387 -0.074855044 -0.044067234 0.08111748 -0.028769746 -0.015558019 -0.051821664 0.11389662
-0.124104634 -0.052045673 0.010460511 0.0132339895 0.033478886 0.11869243 -0.110126585 0.0041241795
0.10928391 -0.05311756 -0.02575539 -0.0032007843 0.09872295 -0.118133396 -0.10126525 0.058866993
0.03591107 0.084715605 0.010290071 -0.049028903 -0.010724753 -0.11149883 0.109044865 0.037964135
-0.056693807 -0.11147405 -0.043007165 0.01806131 -0.09561141 0.083347335 -0.054180756 -0.08659232
00000000: 6a96 eabd a4c1 963d 3649 cf3d 98fd b13c
00000010: c46b 793d b06e fbbc 9884 ddbc 5801 b0bc
00000020: c842 da3c 44c6 7a3d 4cc3 3a3d ec3c 18bd
00000030: 1c99 a0bd a660 ebbd e4b0 b33d 60bf 04bd
00000040: 78bc 75bd 4e90 dabd 6ef8 b9bd ec7e 053d
00000050: 108a f53c daa2 ee3d 0002 90bd 4296 e03d
00000060: 40d3 58bd a08c eebc 2021 bbbc a62b d6bd
00000070: 34ed 6dbd 6845 b93c c02b 00bb f22a d9bd
00000080: a0b6 633c 8098 e3bb 262c acbd d4bb 9ebd
00000090: 78be 4e3d ec53 213d 7442 163d 4c67 c8bd
000000a0: 482c 6d3d a0f4 943b 1836 46bd bcf6 863d
000000b0: 108d 6bbc 1e50 e4bd 540a 22bd 2c3d 363d
000000c0: 28e5 15bd 1afc c7bd 407d 033c f6d1 bcbd
000000d0: 805c 8abc 604b ccbc cec6 b83d 465b af3d
000000e0: 0e56 f93d 8018 f6bd f41f f03d 80c5 b43c
000000f0: 2afc f6bd e0b0 593c 520e 8e3d 3ce5 17bd
00000100: 56b6 8d3d c2b2 d93d 38f8 fbbd 520f 983d
00000110: da6b 933d f8bf aebd 40cb 25bd 76ad aabd
00000120: e0a4 773c 561b fabd 403b e4bc dec8 a9bd
00000130: b05d 1fbc 3640 ad3d fc9f 5b3d 104f b23c
00000140: d02c 46bc b488 4a3d f06b f43d 202c 413c
00000150: ec2f 853d 9430 97bd b82c 8ebd 1c3e 933d
00000160: b0e5 d03c f0f6 fc3c c04f a13d f000 cdbc
00000170: da2d 943d bcfb 16bd 4c59 54bd 7c66 a73d
00000180: 24c4 08bd 6a22 fe3d 44ab 68bd f844 ac3d
00000190: a8c2 fbbd 886e 21bd 2892 f7bc 50c8 cdbd
000001a0: 504a 6c3d 0813 913d 76af b23d 9c4a 8fbd
000001b0: 842c e8bd f88e aebc 68a9 41bd f890 d3bd
000001c0: 08b6 9abd d86a 8c3d 4077 073b b8ff f43d
000001d0: 806c 90bd 0836 5c3d e0b6 e5bc 1061 b8bd
000001e0: 8061 ad3d 5e8b a7bd 223c 8cbd c0df 13bb
000001f0: 787f 96bd d4fc 2e3d 9aa6 a43d c895 a73c
00000200: f493 513d ca44 abbd 5cef 1f3d b0bc 15bd
00000210: 00fb c83d d0ae 32bc e004 83bd 32b3 8abd
00000220: 4c05 1ebd e868 ae3c 80dd e9bb b0cc 443d
00000230: 5a2d adbd 4e5f 80bd aca9 7cbd 1488 f83d
00000240: 0019 983d 7af8 983d 54d4 0fbd 1872 32bd
00000250: fcee 36bd b8ae f33c 6420 db3d 12fe ed3d
00000260: e8c9 a63d 96e5 e13d 5aa8 873d 50c3 84bd
00000270: f0df b23d 6047 9cbd 46ab ad3d 0429 3fbd
00000280: 788b 9c3d f47b f03d d0fe 33bc 8033 39bc
00000290: b005 fabd 64d8 2e3d 300d c23c 9c34 babd
000002a0: 8ec9 f7bd b69f 81bd 6052 073d 4015 053c
000002b0: 28df 02bd a4d3 8ebd 369f fd3d d837 8b3d
000002c0: 34aa 64bd 564f c73d 78e4 9b3c fcad 863d
000002d0: 20d0 63bc c09f ad3d 3ccc d5bd 7835 793d
000002e0: 24af 4ebd 0070 da39 c6a9 debd 80c2 e33c
000002f0: 7ae7 e3bd dead e7bd 0e66 b9bd 0030 6ebb
00000300: 9422 d13d 4839 5b3d 4059 e03d 4462 b1bd
00000310: c0cc f53d 883b be3c c897 ab3c b487 afbd
00000320: 7ae1 9b3d 86f4 cd3d 76f8 a0bd 98e8 133d
00000330: aeeb f8bd 9e3e 8ebd 8e63 c5bd 9851 adbc
00000340: f6e0 903d 44c2 e43d 10b5 2abc 101d 9c3c
00000350: 5aef afbd 7460 a53d eca2 2ebd 20fb bebb
00000360: 44f4 87bd 9a4d 99bd d87f 34bd ec20 a63d
00000370: 88ae ebbc 10e7 7ebc f442 54bd a242 e93d
00000380: 922a febd d82d 55bd 9062 2b3c 60d3 583c
00000390: 2821 093d 0415 f33d 0c8a e1bd 2024 873b
000003a0: 3ed0 df3d cc91 59bd f8fc d2bc 40c4 51bb
000003b0: 422f ca3d ecef f1bd 2864 cfbd 841e 713d
000003c0: 7c17 133d 607f ad3d b097 283c 88d2 48bd
000003d0: e0b6 2fbc 8059 e4bd ea52 df3d 4880 1b3d
000003e0: c437 68bd 824c e4bd 4828 30bd 50f5 933c
000003f0: eacf c3bd 02b2 aa3d a4ec 5dbd 5057 b1bd

pair_mlp.0.bias f4 [64]
0.021962553 0.030770868 0.06542863 -0.01665698 -0.1049639 0.10013339 0.027617201 -0.06589167
0.088738605 -0.0900006 -0.049170896 -0.099546015 0.07194182 0.03490275 -0.08343254 -0.099995255
0.052001357 -0.054927647 -0.0057317764 -0.085015446 -0.089420006 0.028812751 -0.0052957386 0.008838311
0.082443744 -0.03902088 -0.08392675 -0.10418138 -0.046454445 -0.0643768 -0.07799263 -0.01290299
-0.0058822334 -0.056385696 0.05630429 -0.026690498 0.009824127 -0.047833472 0.061521977 0.086777985
-0.053619087 -0.07287273 0.0618134 0.056241274 -0.112889335 0.08613312 0.030335099 -0.11839342
-0.068515494 0.008151889 -0.06729911 -0.056926206 -0.053998664 0.05180776 -0.06654 0.042458415
0.010156989 -0.034200653 -0.09543985 0.02772282 -0.07690252 0.11287224 0.08016154 0.044630855
00000000: d0ea b33c 3013 fc3c 72ff 853d 3874 88bc
00000010: 50f7 d6bd bc12 cd3d 783d e23c 36f2 86bd
00000020: 96bc b53d 3c52 b8bd 6c67 49bd c8de cbbd
00000030: 3c56 933d 30f6 0e3d aede aabd 50ca ccbd
00000040: 60ff 543d d0fb 60bd a0d1 bbbb 941c aebd
00000050: d621 b7bd b808 ec3c e087 adbb 90ce 103c
00000060: 44d8 a83d 5cd4 1fbd cae1 abbd 0c5d d5bd
00000070: 0447 3ebd fcd7 83bd 9aba 9fbd 1067 53bc
00000080: c0bf c0bb b0f4 66bd 549f 663d 08a6 dabc
00000090: 60f5 203c 08ed 43bd 78fe 7b3d a8b8 b13d
000000a0: b09f 5bbd 4c3e 95bd 0c30 7d3d 405d 663d
000000b0: 8632 e7bd 9066 b03d 5081 f83c 4078 f2bd
000000c0: da51 8cbd 808f 053c 1ed4 89bd 742b 69bd
000000d0: b42d 5dbd 6034 543d 2046 88bd e0e8 2d3d
000000e0: 8069 263c fc15 0cbd f875 c3bd f81a e33c
000000f0: 127f 9dbd 9029 e73d bc2b a43d d8ce 363d

pair_mlp.2.weight f4 [64, 64]
-0.07510233 0.053389072 0.06812872 -0.048542112 0.04918447 0.10312314 0.12134442 0.059905246
0.07866222 0.048780754 0.09934007 0.053603515 0.007932633 0.015284166 0.11104813 0.02354692
0.0019739568 0.0019444525 -0.07368888 0.031821504 0.021308959 0.122578666 -0.044288635 0.114027515
0.12412961 -0.08581035 -0.10810138 0.07118529 -0.04199718 -0.09760465 0.042596623 0.07777026
0.0026172549 -0.038195103 -0.020316184 -0.033234537 0.12381664 -0.020568997 0.11273047 -0.07133792
0.11942536 -0.07552633 0.040360406 -0.020381808 0.025605723 0.04512334 -0.028358907 0.12274484
0.11343111 -0.054180413 -0.083081454 0.027069628 -0.014369562 0.025503457 0.060423717 -0.1026358
-0.025709346 -0.064999804 0.010672092 0.002714619 0.1075695 -0.033339098 -0.024660394 -0.0949789
0.098488376 0.041240513 0.04134175 -0.036787733 -0.08866222 0.021088734 -0.054705366 0.06565367
-0.011317089 0.032606214 -0.028201148 0.024962917 0.05325325 0.08136821 -0.057132676 0.028722823
-0.111547515 0.085899755 0.059184134 0.01804693 -0.10609925 -0.008791015 0.106941134 -0.096385315
-0.025711492 -0.024078816 -0.085340396 0.06673382 0.0019412637 -0.027746335 -0.082354665 -0.04366614
-0.104106024 0.09803228 0.115133 0.020993859 -0.119898066 -0.07405962 0.033948094 -0.08798452
0.04323715 0.10037851 0.019496739 -0.022341743 -0.0089865625 -0.052969694 -0.1174036 -0.10887477
-0.091563076 -0.023542792 0.090534955 0.1119245 0.069303855 -0.12159328 0.0028733462 -0.10847472
0.061094806 -0.103641376 -0.04283394 0.066559136 0.0040848404 0.065253764 -0.12344302 0.0902724
-0.12415308 0.08134991 0.0635121 0.02467604 0.07473107 0.09154993 0.05548501 0.02915597
-0.10804421 -0.11241524 0.013620228 0.04634066 -0.037248537 -0.0050206482 0.014233649 0.11880498
0.013705552 -0.090656295 -0.017932639 0.088866085 0.11093913 -0.09676437 -0.025741294 -0.015149415
0.061507 -0.11337596 -0.12154937 -0.08300099 -0.07913147 0.020733327 -0.06654875 -0.088325635
0.016698986 0.05721152 -0.10728152 0.055137053 -0.04002577 0.089760765 -0.104791984 -0.049347892
-0.004706815 0.015809298 0.031193942 0.096591994 0.0858369 0.044339046 0.082351685 0.06188278
-0.10727736 -0.018553749 -0.069481924 0.124820575 0.06509797 -0.12488359 -0.0820028 -0.0354086
0.041909754 -0.086429834 -0.04799877 0.09945993 -0.090528116 0.04033649 -0.04691933 -0.09611842
0.015140578 0.10200992 -0.058698356 -0.00868693 -0.017684042 -0.08280507 0.03950973 0.022465184
0.10776426 -0.11045152 0.012400553 0.055722266 -0.01986432 0.0795213 0.0587347 -0.027398393
0.06557913 0.07534234 0.093385965 0.10103144 0.012394264 -0.026150808 -0.06387073 -0.095353305
-0.018173173 0.10924564 0.068493605 -0.027393252 -0.05268845 0.05782275 0.059874058 0.06403297
0.04706362 0.007839516 0.051515415 -0.05593559 0.067701295 0.11911994 -0.070552826 -0.019313276
-0.046506703 -0.11536224 -0.06631252 0.026331514 0.08424437 -0.02265124 -0.083130464 -0.061773583
-0.091880426 -0.11404234 -0.101919845 -0.0946845 0.041576967 -0.07844077 -0.09554164 0.07363197
-0.08818059 -0.10008496 0.009223089 -0.016287237 -0.107130915 -0.07513693 -0.047511473 0.07697931
00000000: 40cf 99bd 80ae 5a3d 1287 8b3d 18d4 46bd
00000010: a875 493d 3a32 d33d 6c83 f83d 345f 753d
00000020: a819 a13d 54ce 473d ce72 cb3d 5c8f 5b3d
00000030: e0f7 013c 706a 7a3c 346d e33d 78e5 c03c
00000040: 805d 013b 00dd fe3a 32ea 96bd 4457 023d
00000050: 2090 ae3c 860a fb3d 0068 35bd 4287 e93d
00000060: aa37 fe3d 56bd afbd 4264 ddbd 98c9 913d
00000070: 3c05 2cbd f2e4 c7bd cc79 2e3d 0446 9f3d
00000080: 4086 2b3b 7872 1cbd 206e a6bc f020 08bd
00000090: 9493 fd3d 5080 a8bc 3cdf e63d 9e19 92bd
000000a0: 4895 f43d 8cad 9abd f450 253d c0f7 a6bc
000000b0: 18c3 d13c 40d3 383d f050 e8bc a661 fb3d
000000c0: 924e e83d 48ec 5dbd 9c26 aabd 20c1 dd3c
000000d0: 506e 6bbc a0ec d03c dc7e 773d b832 d2bd
000000e0: 689c d2bc 9e1e 85bd 00da 2e3c c0e7 313b
000000f0: 664d dc3d 948e 08bd 9804 cabc 4c84 c2bd
00000100: 46b4 c93d d0eb 283d f855 293d bcae 16bd
00000110: 8a94 b5bd 48c2 ac3c bc12 60bd 6e75 863d
00000120: 506b 39bc 188e 053d 1806 e7bc 087f cc3c
00000130: 1420 5a3d 60a4 a63d f403 6abd 204c eb3c
00000140: 0673 e4bd 36ec af3d 106b 723d 28d7 933c
00000150: 904a d9bd 3008 10bc f403 db3d aa65 c5bd
00000160: e8a0 d2bc f040 c5bc f2c6 aebd beab 883d
00000170: 0072 fe3a 484c e3bc 90a9 a8bd 44db 32bd
00000180: 8a35 d5bd 26c5 c83d daca eb3d 50fb ab3c
00000190: 1e8d f5bd 92ac 97bd 280d 0b3d 3a31 b4bd
000001a0: 7019 313d 4093 cd3d a0b7 9f3c 0806 b7bc
000001b0: 603c 13bc c0f6 58bd 4c71 f0bd bcf9 debd
000001c0: 6c85 bbbd d0dc c0bc 646a b93d ac38 e53d
000001d0: 2eef 8d3d e605 f9bd c04e 3c3b fe27 debd
000001e0: 8c3e 7a3d ee41 d4bd a472 2fbd 2850 883d
000001f0: 20da 853b c4a3 853d b2cf fcbd bce0 b83d
00000200: f843 febd c89a a63d a212 823d 6825 ca3c
00000210: 9a0c 993d 887e bb3d 4044 633d 80d8 ee3c
00000220: 4846 ddbd f639 e6bd 6027 5f3c b4cf 3d3d
00000230: ec91 18bd 4084 a4bb 4034 693c 0650 f33d
00000240: 408d 603c 02aa b9bd 78e7 92bc 6cff b53d
00000250: 0e34 e33d 662c c6bd 68df d2bc 4035 78bc
00000260: c4ee 7b3d a831 e8bd e0ee f8bd 6cfc a9bd
00000270: ae0f a2bd f0d8 a93c b64a 88bd 12e4 b4bd
00000280: 50cc 883c a056 6a3d 6ab6 dbbd 64d7 613d
00000290: 10f2 23bd 7ed4 b73d 2e9d d6bd 0421 4abd
000002a0: a03b 9abb 8082 813c 708a ff3c 06d2 c53d
000002b0: 42cb af3d dc9c 353d 00a8 a83d cc78 7d3d
000002c0: 3cb4 dbbd 08fe 97bc 8a4c 8ebd eea1 ff3d
000002d0: 1652 853d f8c2 ffbd 16f1 a7bd 9c08 11bd
000002e0: 90a9 2b3d 2002 b1bd 5c9a 44bd a6b1 cb3d
000002f0: ce66 b9bd e037 253d 7c2e 40bd bcd9 c4bd
00000300: 3010 783c 94ea d03d b06d 70bd a053 0ebc
00000310: 20de 90bc b495 a9bd f4d4 213d e808 b83c
00000320: 82b3 dc3d 6834 e2bd b02b 4b3c 083d 643d
00000330: 80ba a2bc 10dc a23d cc93 703d 9872 e0bc
00000340: 5a4e 863d 164d 9a3d 2441 bf3d 92e9 ce3d
00000350: 5011 4b3c 383a d6bc a8ce 82bd 9848 c3bd
00000360: e8df 94bc 2ebc df3d 6046 8c3d d067 e0bc
00000370: d8cf 57bd 8cd7 6c3d 803e 753d b823 833d
00000380: c8c5 403d 5071 003c d401 533d b81c 65bd
00000390: faa6 8a3d 28f5 f33d 007e 90bd e036 9ebc
000003a0: d07d 3ebd 0a43 ecbd dcce 87bd 30b5 d73c
000003b0: 5088 ac3d 188f b9bc 4e40 aabd 4c06 7dbd
000003c0: ce2b bcbd 088f e9bd 5abb d0bd f2e9 c1bd
000003d0: 9c4c 2a3d 8ea5 a0bd 56ab c3bd 5ccc 963d
000003e0: 0698 b4bd 58f9 ccbd 701c 173c d06c 85bc
000003f0: 7467 dbbd 64e1 99bd 649b 42bd 54a7 9d3d

pair_mlp.2.bias f4 [64]
-0.020782769 -0.12045485 -0.002282396 -0.016808957 -0.06535925 0.054224774 0.007129967 -0.049723074
-0.10085364 -0.046057552 -0.043156877 -0.079321906 -0.08197221 -0.06422423 0.023497269 0.04874806
-0.09364171 0.0033066124 -0.043411717 -0.08851518 -0.08522113 -0.10248408 0.063871995 0.050240442
-0.025321081 -0.018269807 0.0920818 0.0034337938 0.06543799 0.048544765 0.060826197 0.036865935
0.053037047 -0.07279052 0.044142976 0.036058486 -0.0065582693 -0.0302926 -0.042092755 -0.018950552
-0.058315724 -0.12448645 0.033354506 0.0069262534 0.09593089 0.1144343 0.057041764 -0.055920437
0.09371705 -0.035833552 -0.0008253753 -0.10998398 0.11479244 -0.003465578 -0.035245076 -0.116374865
0.06577332 -0.001284644 -0.023965135 -0.054659724 0.02449368 -0.050303802 0.09524964 0.040780112
00000000: a040 aabc 08b1 f6bd 4094 15bb f0b2 89bc
00000010: 12db 85bd cc1a 5e3d 80a2 e93b 6caa 4bbd
00000020: 5a8c cebd d8a6 3cbd 44c5 30bd 8673 a2bd
00000030: 0ce1 a7bd fe87 83bd 587d c03c 0cac 473d
00000040: 3ac7 bfbd c0b3 583b 7cd0 31bd 7247 b5bd
00000050: 6a88 aebd 2ce3 d1bd 52cf 823d ecc8 4d3d
00000060: 286e cfbc 90aa 95bc 6295 bc3d 8009 613b
00000070: 5a04 863d e0d6 463d e424 793d bc00 173d
00000080: 603d 593d 3213 95bd 44cf 343d 10b2 133d
00000090: c0e6 d6bb 3028 f8bc 7469 2cbd 303e 9bbc
000000a0: 78dc 6ebd c0f2 febd bc9e 083d a0f5 e23b
000000b0: 6a77 c43d 885c ea3d a0a4 693d d40c 65bd
000000c0: baee bf3d 34c6 12bd 005e 58ba 483f e1bd
000000d0: 4c18 eb3d c01e 63bb 245d 10bd f255 eebd
000000e0: 2ab4 863d 8061 a8ba 8852 c4bc e0e2 5fbd
000000f0: f8a6 c83c 5c0b 4ebd 3e12 c33d 0c09 273d

pair_mlp.4.weight f4 [1, 64]
0.11554633 -0.08834836 -0.06577076 -0.015015423 0.03136933 0.040119544 -0.05337727 -0.04567881
0.0778321 0.014227584 -0.09849168 0.056278452 0.08649303 -0.0036028475 0.050415307 0.027451485
0.06286378 -0.053270772 0.003798753 -0.06471069 -0.08467674 -0.07801886 0.057758242 -0.10768899
-0.09745687 -0.11754437 -0.12039374 -0.08675867 -0.07188156 -0.090415984 -0.068635926 0.08253294
-0.08548032 0.106624156 0.106542304 0.0770181 0.08678186 -0.07318497 0.037755296 0.0013432652
0.09883121 0.040477082 -0.040828392 -0.030434266 -0.06193453 -0.058172435 -0.030920878 -0.10305105
0.11279835 -0.079723865 -0.11713822 0.07066046 0.063339695 0.11128323 -0.030851021 -0.065798774
0.016801089 -0.069025874 -0.010171309 -0.055688813 -0.024528995 -0.047948256 -0.10241376 -0.105368
00000000: 8ea3 ec3d fcef b4bd d2b2 86bd 4003 76bc
00000010: 207d 003d 6454 243d 20a2 5abd b419 3bbd
00000020: 7066 9f3d d01a 693c 02b6 c9bd 3c84 663d
00000030: 4223 b13d c01d 6cbb 4880 4e3d f0e1 e03c
00000040: babe 803d 7432 5abd 80f4 783b 0a87 84bd
00000050: 006b adbd 5ac8 9fbd e893 6c3d 0c8c dcbd
00000060: 7897 c7bd 1abb f0bd fe90 f6bd 88ae b1bd
00000070: a436 93bd 042c b9bd fe90 8cbd 0807 a93d
00000080: 4e10 afbd c45d da3d da32 da3d aabb 9d3d
00000090: b0ba b13d 00e2 95bd 4ca5 1a3d 8010 b03a
000000a0: 0468 ca3d 4ccb 253d ac3b 27bd 4851 f9bc
000000b0: 10af 7dbd 3846 6ebd c84d fdbc 6e0c d3bd
000000c0: d202 e73d 4446 a3bd 2ae6 efbd 6eb6 903d
000000d0: 3eb8 813d 76e8 e33d 48bb fcbc 82c1 86bd
000000e0: 70a2 893c 705d 8dbd 90a5 26bc f419 64bd
000000f0: 08f1 c8bc 6465 44bd 4ebe d1bd 2ecb d7bd
