checkpoints/run_20251202_174202.pt (torch, 130288 bytes, 19 tensors)

rbf_centers f4 [32]
00000000: 0000 0000 8c31 463e 8c31 c63e 29a5 143f
00000010: 8c31 463f efbd 773f 29a5 943f 5a6b ad3f
00000020: 8c31 c63f bef7 de3f efbd f73f 1042 0840
00000030: 29a5 1440 4208 2140 5a6b 2d40 73ce 3940
00000040: 8d31 4640 a694 5240 bef7 5e40 d75a 6b40
00000050: f0bd 7740 8410 8240 1042 8840 9d73 8e40
00000060: 2aa5 9440 b6d6 9a40 4208 a140 ce39 a740
00000070: 5b6b ad40 e79c b340 74ce b940 0000 c040
0.0 0.19354838 0.38709676 0.58064514 0.7741935 0.9677419 1.1612903 1.3548386
1.548387 1.7419355 1.9354838 2.1290321 2.3225806 2.516129 2.7096772 2.9032257
3.0967743 3.2903228 3.483871 3.6774194 3.8709679 4.064516 4.2580643 4.451613
4.6451616 4.83871 5.032258 5.225806 5.419355 5.612903 5.806452 6.0

embedding.weight f4 [100, 16]
00000000: 576a bdbf 2c80 f93e 9dd1 40c0 fd40 e33e
00000010: f731 b83e d04f 4abc 59c4 5f3e 2807 a4bf
00000020: 0851 1a40 6de3 ff3f b7e7 483f 087e 82bf
00000030: 2ea1 57be 7c78 203f fe87 6e3f a23c 3f3e
00000040: 3358 753f 4b32 91bf 7069 0a3b d773 a83f
00000050: 2ec6 81bf df61 0bbf d8e5 db3e ca1a f6bf
00000060: 91a3 a23f 83c2 90bf 52a7 5d3f 8063 343f
00000070: 547c 4b3e a484 6dbf 6176 ee3d 9e62 e3be
00000080: f661 5abf fd3a 57bf 6beb cabe beac 84be
00000090: 5464 2dbf 8c3a 913d 6bb0 eabe aea4 d73f
000000a0: d4c4 113e 5189 243f 4183 33bf 9c49 853f
000000b0: 1c6c 16c0 70d6 3c3e 5133 223f 11ce c3bf
000000c0: 7dce 99bf 5ec3 8a3d e41e 3b3d e357 f03e
000000d0: 7f41 493f f9ee 95bf c5ab 233f 7dfa 193f
000000e0: 527e c53e 0a14 eebe b3b7 e5bf 972d c43e
000000f0: 194f 4dbf a743 bcbd bca1 febe bc57 bebf
00000100: d5f4 e6be 17c4 64bf ca34 8dbe d2ba 433f
00000110: 62ae a63f bc0e e33f bd5d bcbf ac45 4abf
00000120: 251d 51bf b6a5 f3be 0827 543f 5faf 26be
00000130: 202d d13f 96d8 f3bf d2d2 1f3f 2bd1 1340
00000140: c67a 8e3f ade6 06bf 45b5 1d3d 87f6 f9be
00000150: 26a5 053f c435 8bbd 3970 86bf 91d6 adbd
00000160: ddfc bd3e 5c45 de3f 6c57 ae3e 8c97 013c
00000170: 1abf 61bf 21a8 853d a72a 42bf e52a 0ebf
00000180: fd18 133f f8ef 7b3f 0d0f 81bf d5af e2bf
00000190: e9ef a23e 8718 25bf 2255 10c0 398e 743f
000001a0: fe0b a6bf 735a 383f 981b 5abf a207 273e
000001b0: 65da 7b3d d335 0cbf eaca 473f fe3c b53d
000001c0: 4652 b4bd e916 ae3f 3d6f 133e c25e e13e
000001d0: df40 3ebf 91a3 423f dcbb 253f c552 2a3e
000001e0: f42c 6a3f 0f10 debf 1f5e acbf 1171 fabe
000001f0: 1974 2abd 3e53 73be 7e16 ba3e 5793 aa3f
00000200: 5d0b d73e 813b 70bf 1896 babd 3fce 45bf
00000210: 906c b6bf a181 2440 14fc 5b3f c842 bdbf
00000220: aa7c 0b3f f8b5 a9bf 6f2c 4d3e 3505 14be
00000230: a5c1 183f 72db 05bf 113c d4bf 6d48 01bf
00000240: 0b97 1bbd 4c5d fcbf e15b ed3f 9f26 35bf
00000250: f282 1d3c 78d0 a3be d078 18be ad1a 0b3d
00000260: 6a6a 26be c073 3fbf 438a 03bf 3db0 a7bf
00000270: 930e ddbd 3dc6 03bf 3a6f d83f cd35 7e3e
00000280: 03ba 243e 31d6 3b3d e7d2 2cbf db53 633f
00000290: e375 b63f 2400 f6bf 0d27 9fbf 3937 2b3f
000002a0: 8ee8 8c3d 13e4 853f 15e7 7abf af85 473e
000002b0: 99b6 eb3c 849b a9be fe4d cdbd 2f17 083f
000002c0: b8fd 923e 5f88 393d ffe5 5e3e c2c5 483f
000002d0: cb70 e1bf e7d1 e13f e718 b23e a67b 253f
000002e0: 7cbf ad3f e4c8 cb3f 87b8 dd3e e3fd 33bf
000002f0: 21c5 903e 934c d33f 19ac e73e 5665 a83e
00000300: 1bbe 343e b17d 96bf ec77 7dbf 51ba debf
00000310: c849 0dc0 ca96 c33e 4b2b 0640 d292 70be
00000320: cd68 313e c6a3 b33e 7a7c 4b3f d7fb 853e
00000330: c557 2abe d2a4 f53f 53bf 843f 0557 523f
00000340: 5d8d 5abe 8fa2 b9bf be46 833e 4708 0f3e
00000350: 1f9e 8a3f dea5 5bbf 2a99 1dbf 3e21 403d
00000360: 1ba9 a9bf 5607 593f 3f4b 4dbe 1a50 953e
00000370: fdab a33e 1758 0f3d 859e 11bf 6d3b 34be
00000380: 5688 873f b6d1 21be e49b 06bf 024e b2be
00000390: d766 9fbe d809 f6be 3819 28bf 2de4 eabf
000003a0: 42e6 50be bc7a 0440 3647 fa3e ec14 473e
000003b0: 9ab6 32bf 85ee 313f 1801 ac3f 779a 8ebf
000003c0: 9eff 21bf 78e3 09c0 5c4b b73e 37ed 37be
000003d0: a55d 10bf 7a6a c33e 1b2d 89be 5a6c d8bf
000003e0: 52e0 12bc 649a 4d3f 2c03 a83d 48bc 973e
000003f0: 7932 7b3f 9138 d4be 84d3 44bf ce28 003f
-1.4798077 0.487306 -3.0127938 0.4438552 0.3597562 -0.01234813 0.21852244 -1.2814684
2.4111958 1.999128 0.7847857 -1.0194712 -0.21057579 0.62683845 0.9317626 0.18675473
0.95837706 -1.1343473 0.0021119975 1.3160352 -1.0138605 -0.54446214 0.42948794 -1.9226925
1.2706167 -1.130936 0.86583436 0.70464325 0.19871646 -0.9278052 0.11643673 -0.44411176
-0.85305727 -0.84074384 -0.39632735 -0.25913042 -0.67731214 0.07091245 -0.4583772 1.6847131
0.1423524 0.6427203 -0.7012215 1.0413089 -2.3503485 0.18441176 0.6335955 -1.5297261
-1.201614 0.067755446 0.045683756 0.46942052 0.78615564 -1.1713554 0.63933975 0.6014784
0.38572937 -0.46499664 -1.7946686 0.38316032 -0.8019882 -0.09192591 -0.4973277 -1.4870524
-0.45108667 -0.8936171 -0.27579337 0.7645694 1.3021967 1.7738872 -1.4716107 -0.7901256
-0.81685096 -0.47587365 0.82872057 -0.16277836 1.6341896 -1.9050472 0.6243106 2.3096416
1.1131217 -0.52695733 0.03850295 -0.48820898 0.5220512 -0.06797364 -1.0502998 -0.08488191
0.37106982 1.7364917 0.34051073 0.007909667 -0.8818222 0.06526209 -0.7584633 -0.555342
0.57460004 0.9841304 -1.0082718 -1.770991 0.31823662 -0.6449055 -2.255196 0.95529515
-1.297241 0.72013015 -0.85198355 0.16311505 0.061487574 -0.5476963 0.78044 0.08849524
-0.08804755 1.3600742 0.14397903 0.44017607 -0.74317735 0.7603083 0.64739776 0.16633137
0.91474843 -1.7348651 -1.3466223 -0.48914388 -0.041614626 -0.23762223 0.36345285 1.3326215
0.42000857 -0.93840796 -0.09110659 -0.7726783 -1.4251881 2.570412 0.85931516 -1.4786005
0.544871 -1.3258657 0.20036481 -0.14455111 0.5967048 -0.5228797 -1.6580831 -0.5050114
-0.037985843 -1.9715972 1.8543664 -0.70762056 0.009613739 -0.31994987 -0.14889836 0.033960987
-0.16251531 -0.74785995 -0.51382846 -1.3100659 -0.107937954 -0.5147436 1.6908944 0.24825211
0.16086583 0.045858566 -0.6750931 0.8879983 1.4254726 -1.9218793 -1.2433792 0.6688114
0.06880294 1.0460228 -0.98008853 0.1948459 0.028773593 -0.33126462 -0.100246415 0.53160375
0.28709197 0.04529607 0.21767424 0.78426754 -1.7612547 1.7642182 0.34784624 0.646418
1.3574061 1.5920682 0.43304846 -0.70309275 0.28275397 1.6507744 0.45248488 0.32889813
0.17650644 -1.1757108 -0.9901111 -1.7400609 -2.2076283 0.3820098 2.0963924 -0.23493508
0.17325135 0.35085887 0.7948681 0.261687 -0.16635044 1.9190924 1.0370888 0.8216403
-0.21342988 -1.4502734 0.2563991 0.13968001 1.0829505 -0.8579997 -0.61561835 0.046906702
-1.3254732 0.8477682 -0.20048235 0.29162675 0.31967154 0.03499612 -0.56882507 -0.17600794
1.0588481 -0.15802655 -0.5258162 -0.3482514 -0.31133148 -0.48054385 -0.6566348 -1.8350884
-0.20400336 2.069991 0.48882455 0.19441575 -0.6980988 0.69504577 1.3437834 -1.1140889
-0.63280666 -2.1545086 0.35799682 -0.17961584 -0.5639289 0.38167173 -0.26792225 -1.6908066
-0.008964615 0.80313706 0.0820373 0.29635835 0.9812389 -0.41449407 -0.7688525 0.50062263

pair_mlp.0.weight f4 [64, 64]
00000000: cfff e9bd a340 963d 1ea9 ce3d cb25 b53c
00000010: d27b 783d bb06 febc 06c8 dbbc b012 b2bc
00000020: 7b95 dc3c f4ca 793d f2ed 3b3d d1cb 16bd
00000030: 5644 a0bd 4fe9 ebbd b9af b33d 2aa7 05bd
00000040: ffd9 74bd 4507 dbbd bd19 bbbd b68a 053d
00000050: dc5c f33c 1c90 ef3d 946a 8fbd 981f e03d
00000060: 3ff6 57bd 80a6 f0bc 31b1 b9bc 94e0 d5bd
00000070: 9cbe 6cbd 7293 b73c b272 1abb 17a6 d9bd
00000080: 5b2a 663c e4a5 debb 43dc abbd 216b 9ebd
00000090: ba61 4f3d 61f9 213d 7fea 163d bf11 c8bd
000000a0: f2da 6d3d ae8a 9a3b b57e 45bd fe54 873d
000000b0: 9b84 68bc 10ec e3bd e03b 21bd 3612 373d
000000c0: 6009 15bd cf8a c7bd af22 073c f659 bcbd
000000d0: a06f 88bc 3352 cabc fe47 b93d 2adf af3d
000000e0: 6fdc f93d e38f f5bd 8faa f03d f8f6 b63c
000000f0: 476e f6bd 152a 5e3c 849e 8e3d 2bc3 16bd
00000100: f92b 8f3d 274a d83d 79ca fdbd 5492 993d
00000110: 2703 923d ed07 aebd b4fd 22bd 4418 acbd
00000120: 8ba0 813c 5886 fbbd cb7d debc cd45 a8bd
00000130: adc3 14bc 4ad5 ab3d 6537 593d 92cb ac3c
00000140: 6f96 3abc 29b9 473d 2992 f23d 6aec 4c3c
00000150: 8cc5 833d 3f1a 96bd 4cc2 8cbd 6cd4 913d
00000160: 0ba8 d63c e547 f73c cfba a23d b710 c7bc
00000170: e787 953d 14cd 19bd 75fb 56bd fb04 a63d
00000180: 8f2c 05bd 14e9 ff3d 9328 65bd d500 ae3d
00000190: 600c fabd 450d 1ebd 36e6 f0bc ef22 ccbd
000001a0: 118a 6f3d 87ad 923d b944 b43d 62ba 8dbd
000001b0: 21a1 e6bd f473 a8bc b8a4 3ebd d212 d2bd
000001c0: dd3b 99bd 3ee1 8d3d d9d2 353b 3d6f f63d
000001d0: 2000 8fbd ea08 5f3d 281c e0bc f7fc b6bd
000001e0: 2fc3 ae3d f52b a6bd d2de 8abd 30ea d0ba
000001f0: fd25 95bd 4cac 313d b0fc a53d f2e7 ac3c
00000200: 3d23 553d 31f8 acbd 134b 1c3d d3b7 11bd
00000210: 5a4e c73d f181 29bc d05e 81bd a969 8cbd
00000220: 7c7a 1abd 9ca3 a73c 3181 cdbb eaa2 483d
00000230: 719c abbd 5119 82bd f973 7fbd 14e0 f63d
00000240: 17b7 993d 0850 973d 510d 15bd d9fb 2fbd
00000250: 6873 3abd af65 fe3c c4f3 dc3d 9756 ec3d
00000260: 6565 a83d 732a e03d 9f30 893d 3150 83bd
00000270: b5b7 b43d e1e2 9dbd 2e61 ab3d a288 42bd
00000280: 293c 9e3d 1331 f23d f232 26bc e245 2bbc
00000290: ff43 f8bd 2563 323d d92f c93c 1b69 b8bd
000002a0: b9fb f5bd 36a0 7fbd f9f3 0a3d 6ca0 133c
000002b0: b378 febc d002 8dbd ec6e ff3d ef05 8d3d
000002c0: 3012 61bd d918 c93d 39ff a23c 8e71 883d
000002d0: 61ce 55bc 725c af3d 2c13 d4bd 37a0 7c3d
000002e0: d24b 4bbd 9e19 a23a 72ff dcbd 8c5d ea3c
000002f0: 2b44 e2bd ea0d e6bd 51c9 b7bd cafa 3abb
00000300: 470c d33d a87d 573d cc31 de3d e76a afbd
00000310: f6ec f33d 6f0f c53c 7215 b33c 7667 b1bd
00000320: aec8 9d3d 3413 cc3d 5e16 9fbd bcd7 173d
00000330: 251a f7bd a71d 90bd 5a30 c7bd 2db0 b4bc
00000340: 4cba 923d afe8 e23d 4ab4 3ebc 14bc a23c
00000350: 86d7 b1bd 85a3 a73d e4c0 2abd 909a dcbb
00000360: 731d 86bd bf32 9bbd 5feb 30bd 47e8 a73d
00000370: 5bfe e3bc 7fc0 86bc 7c89 58bd 0268 e73d
00000380: 8b58 fcbd 3682 51bd 1431 3a3c f4c2 673c
00000390: 74e5 0c3d 54fb f43d ab9f dfbd 9a07 a63b
000003a0: f9c1 e13d 16a8 55bd 101f cbbc 9292 12bb
000003b0: 4b2a cc3d 0bf4 efbd 1168 cdbd e315 753d
000003c0: d40c 173d 7b78 af3d e14f 383c 88e9 44bd
000003d0: 2e2a 20bc 236b e2bd cd3d e13d c04e 1f3d
000003e0: dc70 64bd e86c e2bd ce70 2cbd e054 9b3c
000003f0: d2fb c1bd 6682 ac3d 1953 5abd 0d8e afbd
-0.11425745 0.07336547 0.1009085 0.022112748 0.06066496 -0.031009069 -0.026828777 -0.021737427
0.026926747 0.060984567 0.04588122 -0.03681547 -0.07825534 -0.115191095 0.08773751 -0.032630123
-0.05977821 -0.10694746 -0.091357686 0.03260299 0.029707365 0.116974086 -0.0700275 0.10943526
-0.052725073 -0.029376268 -0.0226675 -0.104432255 -0.057798967 0.022409175 -0.00235669 -0.10627382
0.014048184 -0.006794678 -0.08391621 -0.07735277 0.05063031 0.039544467 0.036844727 -0.0976901
0.05807013 0.004716239 -0.04821654 0.06608008 -0.014191772 -0.1112901 -0.039363742 0.0446951
-0.036385894 -0.097432725 0.008248015 -0.09196846 -0.01665479 -0.024697399 0.090469345 0.08587487
0.122002475 -0.11990335 0.117512815 0.02233456 -0.120327525 0.013559838 0.06963828 -0.03680722
0.06990809 0.105610184 -0.12392134 0.07498613 0.071295075 -0.084976055 -0.03979273 -0.08403066
0.015823623 -0.122814834 -0.027159592 -0.082164384 -0.009079856 0.08390291 0.053031344 0.021093164
-0.011388405 0.048760567 0.11844284 0.012507537 0.064341635 -0.07329225 -0.06872997 0.071205944
0.026203176 0.03018565 0.07945787 -0.024299962 0.07301312 -0.037549093 -0.0524859 0.08106419
-0.032513198 0.12495628 -0.055946898 0.084962524 -0.122093916 -0.038586874 -0.029406648 -0.099676006
0.05848128 0.07162004 0.0880217 -0.06920315 -0.11261202 -0.020563103 -0.046543807 -0.10257496
-0.07482121 0.06927727 0.0027744083 0.12032936 -0.06982446 0.05445186 -0.027357176 -0.08934968
0.08533322 -0.08113853 -0.06780781 -0.0015938934 -0.07282636 0.043377206 0.08104837 0.021106694
0.05203556 -0.08445776 0.038157534 -0.0355757 0.09731741 -0.010345922 -0.06316912 -0.068560906
-0.037714466 0.020463757 -0.0062715043 0.048983492 -0.08379448 -0.06352485 -0.06236646 0.12054458
0.07505625 0.073883116 -0.036389653 -0.04296479 -0.045520216 0.031054346 0.10788682 0.11539953
0.082224645 0.109455965 0.06698727 -0.0641178 0.08824102 -0.07709289 0.08368145 -0.047493584
0.077263184 0.118257664 -0.010143982 -0.010453673 -0.12122344 0.043551583 0.024558948 -0.09004422
-0.12010903 -0.06240865 0.033924077 0.0090104155 -0.031063413 -0.06885302 0.124723285 0.06885897
-0.054948986 0.098191924 0.01989709 0.06662284 -0.013049693 0.085625544 -0.10355219 0.06167623
-0.049632855 0.0012367254 -0.1079091 0.02860906 -0.11048158 -0.11233123 -0.08973945 -0.002853083
0.10305076 0.05261007 0.10849342 -0.08565312 0.11910431 0.02405521 0.021860812 -0.08662312
0.07704292 0.099646 -0.07767938 0.037070975 -0.120655335 -0.07036906 -0.09726019 -0.022056663
0.071644396 0.11079537 -0.011639664 0.019865073 -0.08683686 0.08185486 -0.04168786 -0.0067322925
-0.06548586 -0.075780384 -0.043193217 0.081986 -0.027831247 -0.016449211 -0.05286549 0.11299135
-0.12321576 -0.05114957 0.01136424 0.014145602 0.03439851 0.119619995 -0.10919126 0.005066824
0.110233255 -0.052162252 -0.024795085 -0.0022365195 0.09969004 -0.117164694 -0.10029615 0.059835326
0.03687747 0.08567902 0.011249513 -0.048074275 -0.009775681 -0.11055591 0.10998116 0.03889346
-0.055771694 -0.110559285 -0.042099766 0.01896137 -0.09471859 0.08423309 -0.053301904 -0.08572016

pair_mlp.0.bias f4 [64]
00000000: 12e8 b53c 87dd 003d dbb1 873d e8f4 80bc
00000010: 4a15 d5bd 72ab cf3d 087e d63c 9ada 87bd
00000020: 5714 b73d 7819 b8bd e2c3 4dbd 371e c9bd
00000030: c6de 903d 1958 093d 9225 bcbd 5bf1 cdbd
00000040: 724e 503d cfa0 43bd dc6d a0bb 664b bdbd
00000050: 374b b2bd 536f ff3c 9cee ccbb 0422 e93b
00000060: ada4 a83d 330c 21bd 6801 a6bd 786d d3bd
00000070: 0919 40bd ff16 78bd c67a 9ebd 973b 4dbc
00000080: a82e b6bb 60b5 67bd 294b 663d 1960 dfbc
00000090: 98f0 203c c808 41bd cee5 743d bd9f ad3d
000000a0: 593f 83bd 2c07 93bd 7a84 653d 3d5c 663d
000000b0: d8d5 e4bd 7c84 b33d 745a 013d 4f5d f3bd
000000c0: 91f8 87bd dab2 953b 31a7 8dbd c077 67bd
000000d0: a098 59bd 58db 513d b943 89bd 8f9c 3b3d
000000e0: fec4 373c 10b8 0bbd df58 c1bd fc23 e63c
000000f0: 010d 9cbd 5065 e43d d138 a33d 396f 393d
0.022205386 0.031461265 0.0662572 -0.01574178 -0.10404451 0.101401225 0.026183143 -0.06633492
0.089394264 -0.08989233 -0.050235637 -0.09820216 0.07073741 0.033531282 -0.091868535 -0.100558005
0.05085606 -0.04776078 -0.0048959088 -0.09242897 -0.08705752 0.031181013 -0.0062540304 0.0071146507
0.082345344 -0.039318275 -0.08105737 -0.10323614 -0.046898875 -0.060568806 -0.07738261 -0.012526414
-0.005559761 -0.056569457 0.056224022 -0.027267503 0.009822987 -0.047127515 0.05978947 0.08477733
-0.06408567 -0.07179102 0.056034543 0.05624031 -0.111736 0.08765504 0.031580403 -0.118830316
-0.06639207 0.00456844 -0.06916655 -0.056510687 -0.05312407 0.051234573 -0.0670237 0.045803603
0.0112164 -0.034111083 -0.09440779 0.02809333 -0.07619668 0.11152136 0.07969821 0.045272086

pair_mlp.2.weight f4 [64, 64]
00000000: e5b4 9abd aec7 583d 2678 893d 39fb 4bbd
00000010: 0aa2 4c3d b1c7 d93d 096c fb3d 6b2e 6f3d
00000020: f7d5 a23d 3d58 463d 6482 c43d eaae 563d
00000030: 7bcb c33b ca4c 863c 93fb e23d 04b1 c93c
00000040: 050c 693b c13d 323b 458e 95bd 53db 003d
00000050: 0302 9d3c 2dad f93d 0c68 38bd c688 e93d
00000060: b858 0a3e f0f0 a7bd 51db ddbd dc04 9c3d
00000070: f0b8 29bd 92f9 c0bd c0eb 303d c65c 9e3d
00000080: fe4b e23a 224b 1abd 08ed 8cbc fcf8 f0bc
00000090: ff4d fc3d 66df b4bc 31ae e53d 91bb 93bd
000000a0: f029 f43d 2e7c a3bd 9a6d 213d 1e3c a7bc
000000b0: c06f d73c be6c 403d 2864 c9bc 56b2 f93d
000000c0: 2181 e43d 3114 62bd 99fb acbd cb35 e43c
000000d0: 706e 5cbc 65ca c53c b9cc 6e3d 7f13 d3bd
000000e0: 511f c4bc 71cc 96bd 2744 143c c8b4 213b
000000f0: 62db da3d 9446 0bbd a853 d1bc f60f b8bd
00000100: e2a2 ca3d 1cbc 2a3d f26c 2d3d 1e57 11bd
00000110: bb2f b7bd 0051 913c f1ac 65bd 3c99 893d
00000120: 37f3 46bc 0de9 063d 5bf0 cabc 330d d73c
00000130: 0e3a 623d 6e4a a43d 4968 69bd 5ff5 e23c
00000140: 26a7 e7bd b17f ae3d 61c0 6f3d fee9 963c
00000150: c41d d5bd 4512 05bc 6a89 dc3d 4061 c5bd
00000160: ac2f 16bd e6f1 e3bc a253 aebd ff4f 7d3d
00000170: 4666 b63a 9f8e fdbc 2cde a9bd 182d 31bd
00000180: f853 d3bd 699d c73d 8a14 e53d 6924 8b3c
00000190: 053d f4bd 1aac 94bd a87a 0d3d dd84 b2bd
000001a0: f8fe 313d 9d1d d53d b8a2 a73c 17c4 b6bc
000001b0: 3181 10bc 72d1 60bd 0ef3 f7bd 044e ddbd
000001c0: 0cd0 b7bd 33b0 b8bc 3332 bd3d 7bab e33d
000001d0: 3e10 8c3d c749 f6bd e24f a33b 1355 ddbd
000001e0: 5d04 733d 0d42 c4bd 6585 28bd c6d6 883d
000001f0: 4d0c 9d3b 5703 873d d2ff fabd 44ff ad3d
00000200: aa56 fdbd ce71 a73d 6f3d 843d de02 d63c
00000210: 3795 973d c8a4 b43d 4069 5e3d 58ae fa3c
00000220: abe3 debd 3360 e5bd ef7f 8a3c 41e1 433d
00000230: a1bb 10bd 3dee ccbb 58dd 693c c154 f13d
00000240: 31e7 3f3c 8ff2 babd 6e2f 98bc 23a8 b63d
00000250: aca6 e73d 05b3 c4bd cc1a cdbc 9c0b 79bc
00000260: 9a55 513d 9f53 eebd 2c68 f8bd 67f5 b3bd
00000270: 1c25 a3bd a5c3 8f3c 3975 89bd 8800 b4bd
00000280: 1f66 923c 3264 673d c46c e3bd ca85 4e3d
00000290: f439 21bd c8af ba3d ec83 d5bd f522 47bd
000002a0: b90b 94bb 73c7 983c caa6 033d 08fa c53d
000002b0: 510f b13d 1533 2e3d 1f53 a13d 1659 803d
000002c0: 0a80 d7bd 774d 90bc 8361 89bd 5322 fe3d
000002d0: e689 833d b519 fdbd e2b5 a3bd 774a 0fbd
000002e0: daab 243d 3e09 a5bd a29d 3cbd 834c cc3d
000002f0: 47d2 b7bd d89f 273d d4e1 3cbd 5c0d d0bd
00000300: 6d1d 7c3c 2d53 d13d 1d47 6dbd 7024 f5bb
00000310: 6ed4 98bc 22a9 b0bd 88cc 1d3d 0a11 c63c
00000320: 8c8c da3d 16db e1bd 80c5 853c 6af9 693d
00000330: f71b 91bc dba7 a03d 28a4 713d e01e e6bc
00000340: a23e 833d fb63 983d 7372 bd3d 1b0c d03d
00000350: fd12 693c 8756 d2bc 9de3 80bd 69e3 c2bd
00000360: 1c62 eebc d4c5 d83d 2758 8c3d 962e 07bd
00000370: 0e10 59bd 77a7 5f3d 4eef 713d 049c 833d
00000380: c899 443d 9d45 f13b 4df0 443d d1f8 77bd
00000390: c088 8b3d e36c f63d e9e4 8ebd 0920 96bc
000003a0: c8bd 3cbd b566 e6bd 8574 85bd ee52 d63c
000003b0: 0abb ad3d a174 cabc 4321 b2bd c2cf 78bd
000003c0: 0b3d b8bd 3e17 e7bd 0590 c6bd f1f2 c3bd
000003d0: c0b6 253d 8867 9dbd 8eb7 bebd 4437 973d
000003e0: e083 b8bd 6c0a bcbd 3e3e 313c 1ab7 84bc
000003f0: 8946 dabd fe21 98bd 2726 3ebd ecd6 913d
-0.07554034 0.052924804 0.067123696 -0.04980013 0.04995922 0.10633791 0.122764654 0.058393877
0.07950967 0.048423994 0.095951825 0.052412905 0.0059751845 0.016394038 0.1108314 0.02462054
0.0035560143 0.0027197453 -0.073025264 0.031459164 0.019165998 0.12191234 -0.0450211 0.114030406
0.13510406 -0.08200252 -0.10832847 0.07618114 -0.041436136 -0.09422602 0.04319358 0.07732539
0.0017265079 -0.03766931 -0.017202869 -0.0294156 0.12319564 -0.02207918 0.11214865 -0.0721351
0.119220614 -0.0798267 0.039411165 -0.020414408 0.026298404 0.046978705 -0.024583891 0.12192218
0.11157442 -0.055195037 -0.08446426 0.027857682 -0.013454065 0.02414436 0.058300707 -0.10306453
-0.023940714 -0.07363213 0.009049452 0.0024674404 0.10686375 -0.034002855 -0.025552586 -0.08987419
0.09894349 0.0416833 0.042340226 -0.035483472 -0.08944651 0.01773882 -0.056073133 0.0671868
-0.012142948 0.0329371 -0.024772814 0.026251411 0.055231147 0.08022009 -0.05698422 0.027704893
-0.11311178 0.08520449 0.058533076 0.018422123 -0.10406068 -0.008122032 0.10768397 -0.096376896
-0.036666557 -0.027825307 -0.085120454 0.06184387 0.0013915978 -0.030951796 -0.08294329 -0.043255895
-0.1031875 0.097468205 0.11185558 0.016985135 -0.11925701 -0.07259388 0.034540802 -0.08716748
0.043456048 0.10406039 0.020463333 -0.0223103 -0.008819864 -0.054887243 -0.12106906 -0.10805896
-0.08975229 -0.022544956 0.0923809 0.11116692 0.068390355 -0.12025791 0.004983888 -0.10807242
0.059330333 -0.09582911 -0.04114284 0.0668159 0.004792726 0.06592434 -0.12255825 0.08495954
-0.123700455 0.081760034 0.0645703 0.026124414 0.07401507 0.08820492 0.054299593 0.030600712
-0.10883268 -0.11199989 0.016906707 0.04782224 -0.035335187 -0.006253986 0.014273964 0.11783744
0.011712835 -0.09128296 -0.018577304 0.08918788 0.11311087 -0.09604458 -0.025037192 -0.015200522
0.051107027 -0.11637043 -0.12129244 -0.08787041 -0.079660624 0.017549345 -0.067118116 -0.08789164
0.01787096 0.056492038 -0.1110473 0.05042056 -0.03936191 0.09115559 -0.10425553 -0.048617322
-0.004517999 0.018649792 0.032141484 0.0966683 0.086454995 0.042529184 0.07877182 0.06266992
-0.105224684 -0.017615063 -0.06708052 0.124088906 0.064227864 -0.12358419 -0.07993676 -0.034983125
0.040202953 -0.080584034 -0.046048768 0.09975531 -0.08975654 0.040923923 -0.046113804 -0.10158798
0.015387875 0.10220943 -0.057929147 -0.0074811503 -0.018655982 -0.086260095 0.038525134 0.024178047
0.106713384 -0.110281155 0.016329527 0.057122625 -0.01771353 0.07844516 0.058994442 -0.028090894
0.06408431 0.07440945 0.09250345 0.10158559 0.014225719 -0.025676025 -0.06293414 -0.09516031
-0.029099517 0.10584608 0.06852751 -0.033003412 -0.052993827 0.054603066 0.05906611 0.06426242
0.04799822 0.007363035 0.04808073 -0.060540024 0.06813192 0.12032487 -0.06977255 -0.018325822
-0.046079427 -0.112500586 -0.06516365 0.02616259 0.084829405 -0.024713816 -0.086977504 -0.06074501
-0.08996018 -0.1128373 -0.09695438 -0.09567822 0.040457487 -0.07685763 -0.09312354 0.07383588
-0.09009528 -0.09181675 0.010818062 -0.01620059 -0.10657985 -0.074283585 -0.046423104 0.07121071

pair_mlp.2.bias f4 [64]
00000000: 310b acbc 3e3b f6bd 8dcc 09bb 3b3c 86bc
00000010: a5d0 85bd 7dc8 5d3d 1e47 ef3b bd21 4bbd
00000020: 60e4 cebd 3849 3fbd 3f0f 30bd 42ab a2bd
00000030: 2e75 a8bd 72bc 7dbd 917b bf3c 01b0 473d
00000040: 9407 c0bd 679c 613b 8f52 38bd 8ac6 b4bd
00000050: 5063 aebd b768 d1bd 7732 823d 2d61 4e3d
00000060: 0f72 cebc e901 95bc 04eb bc3d 24cf 703b
00000070: c586 863d 9fae 473d 80e2 793d 506b 163d
00000080: 12ee 593d d120 95bd 3ae8 333d 44fa 123d
00000090: 02c9 dfbb 62a6 f6bc 50a7 2cbd 5b0c 81bc
000000a0: c8bf 6fbd 8937 ffbd e822 0a3d 6600 f03b
000000b0: 9625 c53d 6b1c eb3d 9e42 6b3d 4c5a 64bd
000000c0: f27a bf3d aef7 11bd e875 1bba c390 e1bd
000000d0: 83d3 ea3d 01eb 72bb 2e60 10bd 86ba edbd
000000e0: 2b74 853d e9e9 9aba d6e0 bcbc 0cc4 5ebd
000000f0: 3786 cc3c 6fdc 4cbd 4356 c33d d82c 283d
-0.02100143 -0.12023018 -0.0021026463 -0.016386142 -0.065339364 0.05414628 0.007302179 -0.049592722
-0.10102153 -0.046700686 -0.04298329 -0.07942821 -0.08225475 -0.061947294 0.02337435 0.048751835
-0.093764454 0.0034425498 -0.04500061 -0.08826931 -0.08515036 -0.10225051 0.06357282 0.050385643
-0.025200872 -0.018189387 0.09224513 0.003674456 0.06568674 0.048750516 0.061007023 0.036723435
0.053205557 -0.0728165 0.04392264 0.035883203 -0.006829382 -0.030108634 -0.04215175 -0.015752962
-0.058532506 -0.12461764 0.033724695 0.0073242662 0.096263096 0.1148003 0.057436578 -0.055750176
0.09349622 -0.035636596 -0.000593035 -0.11013939 0.11466124 -0.0037066343 -0.035247974 -0.11607842
0.06516298 -0.0011818978 -0.023056429 -0.054386184 0.024966342 -0.05001491 0.095379375 0.04105839

pair_mlp.4.weight f4 [1, 64]
00000000: 9ebb e83d 6dbb adbd 1912 69bd 599d 68bc
00000010: 230d de3c 01a0 0e3d 6245 57bd 1003 0cbd
00000020: 957f 983d a9d7 4d3c 4928 c4bd 133e 663d
00000030: b201 ae3d e624 10bb 8bf6 453d 216e db3c
00000040: d6e0 563d 1c32 2abd f45e 813a 3225 80bd
00000050: ace2 abbd c3c9 9ebd 305d 693d 980f d7bd
00000060: bcda c6bd cd1c ecbd 10be debd e15c afbd
00000070: c5d0 8fbd 0fc0 b4bd 2171 8abd 2d81 9a3d
00000080: 9780 a3bd e7f6 d73d 50a4 d53d 931f 8f3d
00000090: 3671 b13d 2fee 83bd 9cbd 153d 79e2 4cba
000000a0: 62d0 c93d 408d 213d f9d8 1dbd 7912 edbc
000000b0: 547d 7dbd c7f9 67bd ec30 04bd 14b9 c7bd
000000c0: 062e e23d cf4d 93bd ad78 eabd 59da 833d
000000d0: 60ae 793d d433 e13d 9f9b f4bc e8b1 85bd
000000e0: ab7c 3b3c 6c65 8cbd d43a f6bb 7bc1 5abd
000000f0: da61 b6bc 2ec0 32bd 17bc cfbd 2944 d2bd
0.1136391 -0.08483014 -0.056902025 -0.014197671 0.027105873 0.03482056 -0.052556403 -0.034182608
0.07446209 0.012563624 -0.09577996 0.056211542 0.08496417 -0.002199465 0.048330825 0.026785912
0.052460514 -0.041551694 0.0009870217 -0.062570944 -0.083928436 -0.07753327 0.056973636 -0.10501021
-0.09709689 -0.11528931 -0.10876095 -0.08562637 -0.070222415 -0.08825695 -0.06759859 0.075441696
-0.07983511 0.1054514 0.10431731 0.06988444 0.086641714 -0.06441914 0.03655778 -0.00078157295
0.09854199 0.039441347 -0.038537 -0.028939473 -0.0618871 -0.05663469 -0.032273218 -0.09752098
0.110439345 -0.07192575 -0.11448798 0.06438131 0.060957313 0.109962136 -0.029859362 -0.065280735
0.011443297 -0.06855282 -0.007514337 -0.053407174 -0.022263456 -0.043640308 -0.10143297 -0.10266907

exp_avg f4 [100, 16]
00000000: 0000 0000 0000 0000 0000 0000 0000 0000
00000010: 0000 0000 0000 0000 0000 0000 0000 0000
00000020: 0000 0000 0000 0000 0000 0000 0000 0000
00000030: 0000 0000 0000 0000 0000 0000 0000 0000
00000040: 88a2 00c7 3290 11c7 0c4e 4e46 1bb3 d146
00000050: 7dc2 cc46 3534 0b47 564c 0ec6 c856 dfc6
00000060: 4c87 7b44 a38b 2547 e68d 0147 fd82 1a45
00000070: 29a5 8046 28a5 09c7 a7af ecc5 4a74 0cc7
00000080: 0000 0000 0000 0000 0000 0000 0000 0000
00000090: 0000 0000 0000 0000 0000 0000 0000 0000
000000a0: 0000 0000 0000 0000 0000 0000 0000 0000
000000b0: 0000 0000 0000 0000 0000 0000 0000 0000
000000c0: 0000 0000 0000 0000 0000 0000 0000 0000
000000d0: 0000 0000 0000 0000 0000 0000 0000 0000
000000e0: 0000 0000 0000 0000 0000 0000 0000 0000
000000f0: 0000 0000 0000 0000 0000 0000 0000 0000
00000100: 0000 0000 0000 0000 0000 0000 0000 0000
00000110: 0000 0000 0000 0000 0000 0000 0000 0000
00000120: 0000 0000 0000 0000 0000 0000 0000 0000
00000130: 0000 0000 0000 0000 0000 0000 0000 0000
00000140: 0000 0000 0000 0000 0000 0000 0000 0000
00000150: 0000 0000 0000 0000 0000 0000 0000 0000
00000160: 0000 0000 0000 0000 0000 0000 0000 0000
00000170: 0000 0000 0000 0000 0000 0000 0000 0000
00000180: 0000 0000 0000 0000 0000 0000 0000 0000
00000190: 0000 0000 0000 0000 0000 0000 0000 0000
000001a0: 0000 0000 0000 0000 0000 0000 0000 0000
000001b0: 0000 0000 0000 0000 0000 0000 0000 0000
000001c0: 0000 0000 0000 0000 0000 0000 0000 0000
000001d0: 0000 0000 0000 0000 0000 0000 0000 0000
000001e0: 0000 0000 0000 0000 0000 0000 0000 0000
000001f0: 0000 0000 0000 0000 0000 0000 0000 0000
00000200: b5de 77c6 6b31 b0c6 fde3 8d45 8c4c 9746
00000210: bd7f ec45 f7f9 1c46 d07c 88c5 a4de 6fc6
00000220: 63c0 b645 b949 ad46 cbb0 8846 f430 cd43
00000230: 9bef b845 06d8 79c6 61b8 ca44 1dc3 4dc6
00000240: 0000 0000 0000 0000 0000 0000 0000 0000
00000250: 0000 0000 0000 0000 0000 0000 0000 0000
00000260: 0000 0000 0000 0000 0000 0000 0000 0000
00000270: 0000 0000 0000 0000 0000 0000 0000 0000
00000280: 0000 0000 0000 0000 0000 0000 0000 0000
00000290: 0000 0000 0000 0000 0000 0000 0000 0000
000002a0: 0000 0000 0000 0000 0000 0000 0000 0000
000002b0: 0000 0000 0000 0000 0000 0000 0000 0000
000002c0: 0000 0000 0000 0000 0000 0000 0000 0000
000002d0: 0000 0000 0000 0000 0000 0000 0000 0000
000002e0: 0000 0000 0000 0000 0000 0000 0000 0000
000002f0: 0000 0000 0000 0000 0000 0000 0000 0000
00000300: 0000 0000 0000 0000 0000 0000 0000 0000
00000310: 0000 0000 0000 0000 0000 0000 0000 0000
00000320: 0000 0000 0000 0000 0000 0000 0000 0000
00000330: 0000 0000 0000 0000 0000 0000 0000 0000
00000340: 0000 0000 0000 0000 0000 0000 0000 0000
00000350: 0000 0000 0000 0000 0000 0000 0000 0000
00000360: 0000 0000 0000 0000 0000 0000 0000 0000
00000370: 0000 0000 0000 0000 0000 0000 0000 0000
00000380: 0000 0000 0000 0000 0000 0000 0000 0000
00000390: 0000 0000 0000 0000 0000 0000 0000 0000
000003a0: 0000 0000 0000 0000 0000 0000 0000 0000
000003b0: 0000 0000 0000 0000 0000 0000 0000 0000
000003c0: 0000 0000 0000 0000 0000 0000 0000 0000
000003d0: 0000 0000 0000 0000 0000 0000 0000 0000
000003e0: 0000 0000 0000 0000 0000 0000 0000 0000
000003f0: 0000 0000 0000 0000 0000 0000 0000 0000
0.0 0.0 0.0 0.0 0.0 0.0 0.0 0.0
0.0 0.0 0.0 0.0 0.0 0.0 0.0 0.0
-32930.53 -37264.195 13203.512 26841.553 26209.244 35636.207 -9107.084 -28587.39
1006.114 42379.637 33165.9 2472.1868 16466.58 -35237.156 -7573.9565 -35956.29
0.0 0.0 0.0 0.0 0.0 0.0 0.0 0.0
0.0 0.0 0.0 0.0 0.0 0.0 0.0 0.0
0.0 0.0 0.0 0.0 0.0 0.0 0.0 0.0
0.0 0.0 0.0 0.0 0.0 0.0 0.0 0.0
0.0 0.0 0.0 0.0 0.0 0.0 0.0 0.0
0.0 0.0 0.0 0.0 0.0 0.0 0.0 0.0
0.0 0.0 0.0 0.0 0.0 0.0 0.0 0.0
0.0 0.0 0.0 0.0 0.0 0.0 0.0 0.0
0.0 0.0 0.0 0.0 0.0 0.0 0.0 0.0
0.0 0.0 0.0 0.0 0.0 0.0 0.0 0.0
0.0 0.0 0.0 0.0 0.0 0.0 0.0 0.0
0.0 0.0 0.0 0.0 0.0 0.0 0.0 0.0
-15863.677 -22552.709 4540.4985 19366.273 7567.9673 10046.491 -4367.6016 -15351.66
5848.0483 22180.861 17496.396 410.38245 5917.9507 -15990.006 1621.7618 -13168.778
0.0 0.0 0.0 0.0 0.0 0.0 0.0 0.0
0.0 0.0 0.0 0.0 0.0 0.0 0.0 0.0
0.0 0.0 0.0 0.0 0.0 0.0 0.0 0.0
0.0 0.0 0.0 0.0 0.0 0.0 0.0 0.0
0.0 0.0 0.0 0.0 0.0 0.0 0.0 0.0
0.0 0.0 0.0 0.0 0.0 0.0 0.0 0.0
0.0 0.0 0.0 0.0 0.0 0.0 0.0 0.0
0.0 0.0 0.0 0.0 0.0 0.0 0.0 0.0
0.0 0.0 0.0 0.0 0.0 0.0 0.0 0.0
0.0 0.0 0.0 0.0 0.0 0.0 0.0 0.0
0.0 0.0 0.0 0.0 0.0 0.0 0.0 0.0
0.0 0.0 0.0 0.0 0.0 0.0 0.0 0.0
0.0 0.0 0.0 0.0 0.0 0.0 0.0 0.0
0.0 0.0 0.0 0.0 0.0 0.0 0.0 0.0

exp_avg_sq f4 [100, 16]
00000000: 0000 0000 0000 0000 0000 0000 0000 0000
00000010: 0000 0000 0000 0000 0000 0000 0000 0000
00000020: 0000 0000 0000 0000 0000 0000 0000 0000
00000030: 0000 0000 0000 0000 0000 0000 0000 0000
00000040: da2d d14e 8b5d 214e 7fd1 674e 14fd 844d
00000050: 0740 144f 5971 154e f139 1e4e a845 e44d
00000060: 3689 0e4d 3cef 434f 90db 034e d9d2 c44d
00000070: a332 7e4c b996 134e edc6 034e 68c1 984e
00000080: 0000 0000 0000 0000 0000 0000 0000 0000
00000090: 0000 0000 0000 0000 0000 0000 0000 0000
000000a0: 0000 0000 0000 0000 0000 0000 0000 0000
000000b0: 0000 0000 0000 0000 0000 0000 0000 0000
000000c0: 0000 0000 0000 0000 0000 0000 0000 0000
000000d0: 0000 0000 0000 0000 0000 0000 0000 0000
000000e0: 0000 0000 0000 0000 0000 0000 0000 0000
000000f0: 0000 0000 0000 0000 0000 0000 0000 0000
00000100: 0000 0000 0000 0000 0000 0000 0000 0000
00000110: 0000 0000 0000 0000 0000 0000 0000 0000
00000120: 0000 0000 0000 0000 0000 0000 0000 0000
00000130: 0000 0000 0000 0000 0000 0000 0000 0000
00000140: 0000 0000 0000 0000 0000 0000 0000 0000
00000150: 0000 0000 0000 0000 0000 0000 0000 0000
00000160: 0000 0000 0000 0000 0000 0000 0000 0000
00000170: 0000 0000 0000 0000 0000 0000 0000 0000
00000180: 0000 0000 0000 0000 0000 0000 0000 0000
00000190: 0000 0000 0000 0000 0000 0000 0000 0000
000001a0: 0000 0000 0000 0000 0000 0000 0000 0000
000001b0: 0000 0000 0000 0000 0000 0000 0000 0000
000001c0: 0000 0000 0000 0000 0000 0000 0000 0000
000001d0: 0000 0000 0000 0000 0000 0000 0000 0000
000001e0: 0000 0000 0000 0000 0000 0000 0000 0000
000001f0: 0000 0000 0000 0000 0000 0000 0000 0000
00000200: cb6a b34d 881c 4f4d a981 3e4d 1f2e 924c
00000210: e471 b34d e06e 3c4d bd1d 0a4d 8117 c84c
00000220: 5118 9d4b 2121 574e b97c f84c 671f e64c
00000230: 55a8 074b 2668 f04c 6ea5 a44c 5ecf 524d
00000240: 0000 0000 0000 0000 0000 0000 0000 0000
00000250: 0000 0000 0000 0000 0000 0000 0000 0000
00000260: 0000 0000 0000 0000 0000 0000 0000 0000
00000270: 0000 0000 0000 0000 0000 0000 0000 0000
00000280: 0000 0000 0000 0000 0000 0000 0000 0000
00000290: 0000 0000 0000 0000 0000 0000 0000 0000
000002a0: 0000 0000 0000 0000 0000 0000 0000 0000
000002b0: 0000 0000 0000 0000 0000 0000 0000 0000
000002c0: 0000 0000 0000 0000 0000 0000 0000 0000
000002d0: 0000 0000 0000 0000 0000 0000 0000 0000
000002e0: 0000 0000 0000 0000 0000 0000 0000 0000
000002f0: 0000 0000 0000 0000 0000 0000 0000 0000
00000300: 0000 0000 0000 0000 0000 0000 0000 0000
00000310: 0000 0000 0000 0000 0000 0000 0000 0000
00000320: 0000 0000 0000 0000 0000 0000 0000 0000
00000330: 0000 0000 0000 0000 0000 0000 0000 0000
00000340: 0000 0000 0000 0000 0000 0000 0000 0000
00000350: 0000 0000 0000 0000 0000 0000 0000 0000
00000360: 0000 0000 0000 0000 0000 0000 0000 0000
00000370: 0000 0000 0000 0000 0000 0000 0000 0000
00000380: 0000 0000 0000 0000 0000 0000 0000 0000
00000390: 0000 0000 0000 0000 0000 0000 0000 0000
000003a0: 0000 0000 0000 0000 0000 0000 0000 0000
000003b0: 0000 0000 0000 0000 0000 0000 0000 0000
000003c0: 0000 0000 0000 0000 0000 0000 0000 0000
000003d0: 0000 0000 0000 0000 0000 0000 0000 0000
000003e0: 0000 0000 0000 0000 0000 0000 0000 0000
000003f0: 0000 0000 0000 0000 0000 0000 0000 0000
0.0 0.0 0.0 0.0 0.0 0.0 0.0 0.0
0.0 0.0 0.0 0.0 0.0 0.0 0.0 0.0
1.7547215e+09 6.7681555e+08 9.723166e+08 2.7889728e+08 2.487224e+09 6.268084e+08 6.6364934e+08 4.7872128e+08
1.494598e+08 3.2872356e+09 5.5305114e+08 4.1276906e+08 6.6636428e+07 6.190321e+08 5.52713e+08 1.281406e+09
0.0 0.0 0.0 0.0 0.0 0.0 0.0 0.0
0.0 0.0 0.0 0.0 0.0 0.0 0.0 0.0
0.0 0.0 0.0 0.0 0.0 0.0 0.0 0.0
0.0 0.0 0.0 0.0 0.0 0.0 0.0 0.0
0.0 0.0 0.0 0.0 0.0 0.0 0.0 0.0
0.0 0.0 0.0 0.0 0.0 0.0 0.0 0.0
0.0 0.0 0.0 0.0 0.0 0.0 0.0 0.0
0.0 0.0 0.0 0.0 0.0 0.0 0.0 0.0
0.0 0.0 0.0 0.0 0.0 0.0 0.0 0.0
0.0 0.0 0.0 0.0 0.0 0.0 0.0 0.0
0.0 0.0 0.0 0.0 0.0 0.0 0.0 0.0
0.0 0.0 0.0 0.0 0.0 0.0 0.0 0.0
3.7626506e+08 2.171721e+08 1.9976053e+08 7.6640504e+07 3.763232e+08 1.9758643e+08 1.448253e+08 1.04905736e+08
2.0590754e+07 9.0231814e+08 1.30278856e+08 1.2065055e+08 8.890453e+06 1.2604242e+08 8.632203e+07 2.2105034e+08
0.0 0.0 0.0 0.0 0.0 0.0 0.0 0.0
0.0 0.0 0.0 0.0 0.0 0.0 0.0 0.0
0.0 0.0 0.0 0.0 0.0 0.0 0.0 0.0
0.0 0.0 0.0 0.0 0.0 0.0 0.0 0.0
0.0 0.0 0.0 0.0 0.0 0.0 0.0 0.0
0.0 0.0 0.0 0.0 0.0 0.0 0.0 0.0
0.0 0.0 0.0 0.0 0.0 0.0 0.0 0.0
0.0 0.0 0.0 0.0 0.0 0.0 0.0 0.0
0.0 0.0 0.0 0.0 0.0 0.0 0.0 0.0
0.0 0.0 0.0 0.0 0.0 0.0 0.0 0.0
0.0 0.0 0.0 0.0 0.0 0.0 0.0 0.0
0.0 0.0 0.0 0.0 0.0 0.0 0.0 0.0
0.0 0.0 0.0 0.0 0.0 0.0 0.0 0.0
0.0 0.0 0.0 0.0 0.0 0.0 0.0 0.0

exp_avg f4 [64, 64]
00000000: cdcf 2247 2b32 5cc7 6f1d 9ac4 8c65 0f47
00000010: e25f 67c7 b4ae 9946 c36c e246 a711 b7c7
00000020: a866 5747 d833 72c7 d624 0947 67ce b846
00000030: 3a85 8146 da7c 25c7 1198 a5c6 7471 bdc6
00000040: ff72 1947 9cc9 58c7 87fa cdc4 4b20 d646
00000050: 4987 6ec7 cf03 0347 8660 f146 9334 b3c7
00000060: 71c9 4a47 c797 75c7 d224 fb46 6944 9b46
00000070: 9f4b 8f46 1472 1ec7 1453 e3c6 908f bfc6
00000080: 7467 e844 fa09 1345 ee36 3845 0696 6445
00000090: 1d83 8c45 2631 ab45 21bb ce45 ad79 f745
000000a0: 50d8 1246 63c3 2c46 cc7e 4946 eff3 6846
000000b0: 8d78 8546 bc92 9746 488f aa46 4123 be46
000000c0: 0ff2 d146 508e e546 e47b f846 a819 0547
000000d0: 3213 0d47 15e3 1347 2645 1947 48fc 1c47
000000e0: bbd6 1e47 f6b1 1e47 037e 1c47 bd3f 1847
000000f0: da11 1247 4e24 0a47 14ba 0047 b14a ec46
00000100: cd51 8046 27a9 aac6 5dd1 c5c3 1fb1 7446
00000110: e6af afc6 95dd a545 bb3c 2946 5334 0ec7
00000120: 44ce a946 be41 b9c6 86d5 5a46 a9ba 1746
00000130: d510 be45 52c1 81c6 ca2a d6c5 dd42 11c6
00000140: 8a29 7d46 1e07 aac6 aa13 d9c3 d432 6746
00000150: f203 b1c6 1b1a ce45 7803 2c46 a97c 0dc7
00000160: b076 a746 e5e2 b9c6 6289 5646 863e 1246
00000170: 012e c345 9a72 80c6 8a17 edc5 85a7 11c6
00000180: e1f9 3c44 3746 6d44 8e74 9344 5c83 b544
00000190: 7063 dd44 31d3 0545 226b 2045 42b7 3e45
000001a0: ace9 6045 ee91 8345 72b8 9845 85df af45
000001b0: 9cec c845 43b0 e345 08e3 ff45 9991 0e46
000001c0: b079 1d46 4c5d 2c46 d5e2 3a46 c6a5 4846
000001d0: 9f39 5546 4d2e 6046 df15 6946 b98a 6f46
000001e0: 6b36 7346 dad8 7346 c94d 7146 c291 6b46
000001f0: ffc3 6246 a426 5746 961b 4946 d01e 3946
00000200: 4c6c 8446 7650 bbc6 2ca5 2bc4 2af2 3946
00000210: 78b4 cdc6 5155 6146 3de7 4f46 78cf 1ac7
00000220: dbf7 ae46 5dd8 d3c6 7b57 5946 fdf5 0546
00000230: eab6 f645 c302 89c6 6b40 43c6 3da5 25c6
00000240: 549e 8e46 d805 bfc6 c332 e6c3 4183 8446
00000250: e6e9 c5c6 b9c9 d645 24a0 3f46 6e03 1fc7
00000260: 8aaf bc46 7227 d0c6 258a 7246 e91f 2646
00000270: 4f97 d845 b5ad 90c6 4711 00c6 d957 23c6
00000280: f493 8d44 7396 ae44 c231 d544 8ffa 0045
00000290: 59b7 1a45 2713 3845 074b 5945 e090 7e45
000002a0: 8d02 9445 47d8 aa45 c6be c345 3198 de45
000002b0: c030 fb45 159e 0c46 b629 1c46 7cfa 2b46
000002c0: 64c2 3b46 8827 4b46 0ac6 5946 3b33 6746
000002d0: 2601 7346 b3c3 7c46 f70a 8246 0750 8446
000002e0: b90e 8546 2631 8446 14b0 8146 0229 7b46
000002f0: 75f0 6f46 1b0a 6246 cde5 5146 9a09 4046
00000300: 6938 4446 c9dd 8bc6 b6d5 01c4 c3bb 0446
00000310: d566 9ac6 186a 3246 1da6 1c46 41f2 e6c6
00000320: b89c 8146 f8a7 9ec6 32a7 2046 76ac c245
00000330: 87d6 ba45 e8dc 4bc6 5461 17c6 e480 f8c5
00000340: 1167 5246 6172 8ec6 620e b5c3 b1c0 3b46
00000350: a0fb 94c6 39bd c045 5d53 1146 c8cb ecc6
00000360: 8a28 8b46 b116 9cc6 2c2e 3246 d56a ef45
00000370: faef a545 aa87 56c6 7647 d1c5 6e4c f5c5
00000380: 4b90 4144 01ba 6e44 25bf 9144 d84d b044
00000390: a368 d344 a56d fb44 265b 1445 95c9 2d45
000003a0: fb22 4a45 517d 6945 b8ef 8545 099e 9845
000003b0: 79b6 ac45 8816 c245 ff89 d845 cdc8 ef45
000003c0: 98ba 0346 c98d 0f46 7419 1b46 ab0f 2646
000003d0: 241b 3046 b7e2 3846 910d 4046 4348 4546
000003e0: 7a4a 4846 cfdc 4846 04de 4646 e646 4246
000003f0: f32c 3b46 56c2 3146 f053 2646 3a45 1946
41679.8 -56370.168 -1232.9198 36709.547 -59231.883 19671.352 28982.38 -93731.305
55142.656 -62003.844 35108.836 23655.201 16578.613 -42364.85 -21196.033 -24248.727
39282.996 -55497.61 -1647.829 27408.146 -61063.285 33539.81 30896.262 -91753.15
51913.44 -62871.777 32146.41 19874.205 18341.81 -40562.08 -29097.54 -24519.781
1859.2329 2352.6235 2947.433 3657.3765 4496.389 5478.1436 6615.391 7919.2095
9398.078 11056.847 12895.699 14908.983 17084.275 19401.367 21831.64 24337.627
26873.03 29383.156 31805.945 34073.656 36115.195 37859.082 39237.15 40188.28
40662.73 40625.96 40062.01 38975.74 37393.85 35364.305 32954.08 30245.346
16424.9 -21844.576 -395.63565 15660.28 -22487.95 5307.6978 10831.183 -36404.324
21735.133 -23712.871 14005.381 9710.665 6082.104 -16608.66 -6853.3486 -9296.716
16202.385 -21763.559 -434.15363 14796.707 -22657.973 6595.263 11008.867 -36220.66
21435.344 -23793.447 13730.346 9359.631 6245.7505 -16441.3 -7586.9424 -9321.88
755.90436 949.0971 1179.6423 1452.105 1771.1074 2141.1995 2566.6958 3051.4536
3598.6045 4210.241 4887.0557 5627.94 6429.576 7286.0327 8188.379 9124.399
10078.422 11031.324 11960.708 12841.443 13646.405 14347.575 14917.468 15330.681
15565.6045 15606.213 15443.446 15076.439 14512.999 13769.66 12870.896 11847.703
16950.148 -23976.23 -686.5808 11900.541 -26330.234 14421.329 13305.81 -39631.47
22395.928 -27116.182 13909.87 8573.497 7894.8643 -17537.38 -12496.1045 -10601.31
18255.164 -24450.922 -460.39658 16961.627 -25332.95 6873.2153 12264.035 -40707.43
24151.77 -26643.723 15522.536 10631.978 6930.9136 -18518.854 -8196.319 -10453.962
1132.6235 1396.7015 1705.5549 2063.66 2475.4592 2945.197 3476.6892 4073.0547
4736.319 5467.0347 6263.8467 7123.024 8038.0938 8999.5205 9994.428 11006.621
12016.598 13001.883 13937.51 14796.808 15552.287 16176.925 16645.482 16936.014
17031.361 16920.574 16600.04 16074.252 15356.114 14466.526 13433.45 12290.4
12558.103 -17902.893 -519.33923 8494.94 -19763.416 11418.523 10025.528 -29561.127
16590.36 -20307.984 10281.799 6229.5576 5978.816 -13047.227 -9688.332 -7952.1113
13465.767 -18233.19 -362.11237 12016.173 -19069.812 6167.653 9300.841 -30309.89
17812.27 -19979.346 11403.543 7661.354 5309.997 -13729.916 -6696.9326 -7849.5537
774.2546 954.9063 1165.9733 1410.4326 1691.2699 2011.4264 2373.6968 2780.5989
3234.1863 3735.8323 4285.965 4883.7544 5526.809 6210.8164 6929.2495 7673.1
8430.648 9187.446 9926.363 10627.917 11270.785 11832.679 12291.392 12626.065
12818.619 12855.202 12727.504 12433.725 11979.237 11376.584 10644.984 9809.307

exp_avg_sq f4 [64, 64]
00000000: 88d2 114f 07ff 814f 646b 084a 7564 f44e
00000010: 153d 8d4f eb0b b04d 36d0 854e b549 3450
00000020: e355 804f 01e5 9b4f 40aa cf4e d4e7 464e
00000030: 1b20 af4d b063 144f bc92 f84d c7f5 3c4e
00000040: c02c f54e 5f5d 784f cc09 954a a865 4d4e
00000050: 906d 9a4f 640e dc4e 904e a14e c35c 2950
00000060: 904e 574f 1260 a24f de33 a04e 313a ef4d
00000070: 215b eb4d 1a92 024f 6aa9 9d4e 9f3a 434e
00000080: 4088 874a f7f9 d84a d146 2a4b 531d 834b
00000090: 7341 c64b 0d40 134c 3ff8 564c ff41 9a4c
000000a0: 13aa d94c 88fd 164d f5f2 4d4d fd10 8a4d
000000b0: 6aec b54d 0081 eb4d 88b3 154e 76d4 3a4e
000000c0: 35c8 644e 845e 894e c3ad a14e a761 ba4e
000000d0: 6b4c d24e 4f13 e84e 8e49 fa4e c0c9 034f
000000e0: 5567 074f 2e9c 074f 7c46 044f 8918 fb4e
000000f0: b0b4 e74e d9b2 cf4e bdb4 b44e ce7a 984e
00000100: 89dd 104e ecfb 7a4e 72df cd48 de13 094e
00000110: a9fc 834e e6a7 264c 86dc 734d 3db8 2e4f
00000120: 081e 7f4e bb72 934e f7fc d14d ade7 524d
00000130: fed7 9a4c aeed 114e 4d04 af4c 2d05 334d
00000140: ea18 0c4e a3b0 784e 915b fd48 f01b ef4d
00000150: a37a 864e e291 994c 5beb 7d4d 788d 2c4f
00000160: 9d9f 764e 2db1 944e 2fff c74d bc00 414d
00000170: 7774 a54c 7852 0e4e 6baf e34c 083a 344d
00000180: a895 b649 ad5f 0e4a 488b 594a a503 a34a
00000190: 37db ef4a 5f65 2d4b eb86 764b c16e ac4b
000001a0: f46f ed4b 30f5 204c a4e4 564c 1d42 8d4c
000001b0: 70d8 b64c d8f6 e84c 7b07 124d c80c 344d
000001c0: 4b36 5a4d 0de5 814d d7cd 974d f403 ae4d
000001d0: 897f c34d cd0f d74d a471 e74d 066e f34d
000001e0: 3dfd f94d f469 fa4d 4d6e f44d b744 e84d
000001f0: 67a8 d64d 6ac3 c04d c10c a84d d61b 8e4d
00000200: 6e2c 6e4e 8974 e54e aa30 d249 9b51 074e
00000210: 1ba9 074f a520 fa4d e9d3 084e cd7a 9d4f
00000220: 8d69 d14e 9338 114f 6d0c 214e d7c8 854d
00000230: 7061 404d 840d 794e 6c9c d34d 000a af4d
00000240: b2ee 7b4e cbe3 e84e b980 a349 2be6 314e
00000250: e7c6 034f a19d 954d 18c0 004e 36b5 a04f
00000260: 1da9 dd4e 8f4f 0f4f 1622 2f4e df6c 9d4d
00000270: 82b9 2e4d 94cc 814e b65d 9c4d b230 ad4d
00000280: 5beb 834a 3c08 ca4a 18ae 174b b38b 5f4b
00000290: 9dd6 a14b 9863 e64b 7352 214c b654 5e4c
000002a0: 03cd 964c 9f5c c94c d550 044d 9e1b 2b4d
000002b0: 34aa 594d e822 884d 8961 a74d 8330 ca4d
000002c0: 4fd7 ef4d 049f 0b4e 6b77 1f4e 0c91 324e
000002d0: 99eb 434e 3f7c 524e 2945 5d4e 556f 634e
000002e0: 5264 644e aee3 5f4e 4510 564e 5772 474e
000002f0: 07ed 344e 79a7 1f4e 1bed 084e 6513 e44d
00000300: 7e94 574e e960 d54e caf8 e449 a0e7 d04d
00000310: 54b6 014f bfb2 194e 286b 054e 80ee 914f
00000320: 1f80 bd4e 3b7c 094f 1d13 0f4e 0ee7 604d
00000330: 73ba 3f4d 7c9f 634e 68cc eb4d b56b a54d
00000340: b528 6a4e 060e da4e 3f6a a149 4c51 1f4e
00000350: e1bf f84e 4789 9b4d 477c f44d 6a52 964f
00000360: 6109 ce4e 59de 064f d3f9 214e 89ac 8f4d
00000370: 8119 274d d1e6 714e f991 9b4d 16e4 a24d
00000380: 5c69 5b4a d780 a74a a8cb fa4a 3256 384b
00000390: 3c2a 854b c243 bd4b cb66 044c 9172 364c
000003a0: 95b0 774c 26aa a54c 2d59 da4c 13c1 0d4d
000003b0: 4145 354d b735 644d f55c 8d4d 8941 ac4d
000003c0: 6856 ce4d e0d1 f24d 1046 0c4e e300 1f4e
000003d0: e7b0 304e 6b54 404e bfe4 4c4e a06f 554e
000003e0: ee32 594e 1bb7 574e 77e3 504e 1708 454e
000003f0: 74da 344e f863 214e 67e4 0b4e d35a eb4d
2.4464937e+09 4.3619487e+09 2.235097e+06 2.0501121e+09 4.739181e+09 3.6919638e+08 1.1225075e+09 1.2098917e+10
4.3062246e+09 5.230953e+09 1.7420206e+09 8.3427046e+08 3.672646e+08 2.489561e+09 5.2129574e+08 7.9255597e+08
2.0566753e+09 4.1668687e+09 4.883686e+06 8.6149786e+08 5.181743e+09 1.8459653e+09 1.3531402e+09 1.1365715e+10
3.61225e+09 5.44841e+09 1.3438769e+09 5.0169603e+08 4.9357725e+08 2.190613e+09 1.3225628e+09 8.188497e+08
4.44112e+06 7.1098835e+06 1.1159249e+07 1.7185446e+07 2.5985766e+07 3.8600756e+07 5.635302e+07 8.087551e+07
1.1411881e+08 1.5832486e+08 2.1595323e+08 2.8954614e+08 3.815212e+08 4.938875e+08 6.2789274e+08 7.836215e+08
9.595815e+08 1.1523364e+09 1.3562597e+09 1.563481e+09 1.7641117e+09 1.9467898e+09 2.0995622e+09 2.2110372e+09
2.2716961e+09 2.2751596e+09 2.2192118e+09 2.1063446e+09 1.9436892e+09 1.7423023e+09 1.5158719e+09 1.2790925e+09
6.076094e+08 1.0527035e+09 421627.56 5.7494515e+08 1.1071868e+09 4.368783e+07 2.5570723e+08 2.9313098e+09
1.07003955e+09 1.2368849e+09 4.4037706e+08 2.211499e+08 8.11827e+07 6.120682e+08 9.175921e+07 1.877163e+08
5.8761075e+08 1.0430814e+09 518876.53 5.014482e+08 1.128092e+09 8.051483e+07 2.6625374e+08 2.8949524e+09
1.0344139e+09 1.2473197e+09 4.194237e+08 2.0237818e+08 8.674604e+07 5.9694234e+08 1.1937263e+08 1.8898138e+08
1.495733e+06 2.3326512e+06 3.564242e+06 5.3416505e+06 7.8596115e+06 1.1363679e+07 1.6156395e+07 2.260109e+07
3.1121384e+07 4.219411e+07 5.6332944e+07 7.406001e+07 9.586368e+07 1.2214035e+08 1.5312274e+08 1.8879603e+08
2.2881195e+08 2.72409e+08 3.183562e+08 3.6493683e+08 4.099894e+08 4.5101712e+08 4.8537306e+08 5.1050925e+08
5.2426538e+08 5.2515597e+08 5.1260867e+08 4.8710218e+08 4.5017008e+08 4.04254e+08 3.5242602e+08 2.980236e+08
9.989723e+08 1.9248099e+09 1.7218772e+06 5.6756806e+08 2.2760067e+09 5.2455542e+08 5.738973e+08 5.2841416e+09
1.7566778e+09 2.436404e+09 6.754865e+08 2.805665e+08 2.017257e+08 1.04460314e+09 4.4378048e+08 3.6708352e+08
1.0566811e+09 1.9536214e+09 1.3394151e+06 7.461629e+08 2.2108506e+09 3.1376694e+08 5.400182e+08 5.392461e+09
1.8594239e+09 2.4043558e+09 7.3456166e+08 3.3014474e+08 1.8321206e+08 1.088834e+09 3.279234e+08 3.632062e+08
4.3227335e+06 6.62019e+06 9.940504e+06 1.4650291e+07 2.1212474e+07 3.0197552e+07 4.2289612e+07 5.828271e+07
7.9063064e+07 1.05571576e+08 1.3874312e+08 1.7941962e+08 2.2823814e+08 2.8549862e+08 3.510234e+08 4.240221e+08
5.0298314e+08 5.856136e+08 6.688509e+08 7.4896256e+08 8.217493e+08 8.828395e+08 9.280743e+08 9.539311e+08
9.5794496e+08 9.390601e+08 8.978476e+08 8.3653984e+08 7.588582e+08 6.696382e+08 5.743101e+08 4.7830954e+08
9.0420826e+08 1.789949e+09 1.8757372e+06 4.381051e+08 2.17621e+09 6.446571e+08 5.595981e+08 4.8966533e+09
1.5896452e+09 2.3066202e+09 6.000986e+08 2.3582742e+08 2.0104171e+08 9.5472e+08 4.945052e+08 3.4691242e+08
9.821341e+08 1.829176e+09 1.3223119e+06 6.682263e+08 2.0866623e+09 3.2618314e+08 5.1272317e+08 5.043967e+09
1.7283606e+09 2.2627187e+09 6.7937606e+08 3.0130614e+08 1.7521666e+08 1.01460896e+09 3.2625437e+08 3.416071e+08
3.594839e+06 5.4887475e+06 8.218068e+06 1.208069e+07 1.74542e+07 2.48073e+07 3.4708268e+07 4.7827524e+07
6.4930388e+07 8.685598e+07 1.14477416e+08 1.4864005e+08 1.9007592e+08 2.3929534e+08 2.9645994e+08 3.61247e+08
4.3272115e+08 5.0923008e+08 5.8835046e+08 6.6690886e+08 7.410959e+08 8.066895e+08 8.593858e+08 8.952156e+08
9.109984e+08 9.0477536e+08 8.76142e+08 8.2641043e+08 7.5855386e+08 6.769208e+08 5.867504e+08 4.9357475e+08

exp_avg f4 [64]
00000000: f326 4c47 9d29 9d46 dd47 b046 83da 8346
00000010: 799e 41c7 aa49 e6c6 9c49 86c5 5c5c f947
00000020: 103d 6ec7 ebcd 6b47 1d44 4047 2e91 5246
00000030: f470 4147 8e02 6ac6 13a6 0145 03cd 0cc7
00000040: 0241 50c6 26a8 59c5 dccb 87c7 a7bd efc4
00000050: d725 fbc5 6942 ddc5 b493 2c47 50ec c4c5
00000060: aa1d 38c6 6f12 2cc7 4a14 6845 e4e1 01c7
00000070: 6f8f 18c7 c614 1846 9367 26c7 6038 1947
00000080: f7dd 1a47 aaf5 8ac7 7669 dac7 443b 4fc6
00000090: bd1a d747 4772 9546 acb0 b546 67a2 d746
000000a0: 6a5a 1346 43e8 a145 dbe5 3146 69f4 4c47
000000b0: 4d0f 8a44 a6fb 03c7 7bd1 d9c6 f4aa 7e47
000000c0: 11c3 9cc5 041b 9846 8dbe 09c7 0e3c b0c7
000000d0: 565d 39c7 d858 e147 d4a9 0548 985b b6c4
000000e0: ba98 3fc7 979e 3847 f17f 2946 da7b 2b47
000000f0: 6bf4 0f47 375b 0247 9de1 c647 8e3d 8fc7
52262.95 20116.807 22563.932 16877.256 -49566.473 -29476.832 -4297.201 127672.72
-60989.062 60365.918 49220.113 13476.295 49520.953 -14976.639 2074.3796 -36045.01
-13328.252 -3482.5093 -69527.72 -1917.9266 -8036.73 -7080.3013 44179.703 -6301.539
-11783.416 -44050.434 3713.268 -33249.89 -39055.434 9733.193 -42599.574 39224.375
39645.965 -71147.33 -111826.92 -13262.816 110133.48 19129.139 23256.336 27601.201
9430.604 5181.0327 11385.464 52468.41 1104.4781 -33787.65 -27880.74 65194.953
-5016.3833 19469.508 -35262.55 -90232.11 -47453.336 115377.69 136871.31 -1458.8623
-49048.727 47262.59 10847.985 43899.85 36852.418 33371.215 101827.23 -73339.11

exp_avg_sq f4 [64]
00000000: 91e9 5d4f 15f1 534e 087b c94e e724 bd4e
00000010: 4c69 d64e 78ce ae4e da28 d24d 73ba 6d50
00000020: 0d8f 424f abd2 874f eb07 284f 282f 3e4e
00000030: b954 fa4e 1fff 6b4e 1831 ae4b e41a 2e4f
00000040: f1ce 804e 6602 7a4c 40f4 584f 7db9 ad4b
00000050: 8443 304d bb1b 2a4d 9315 b34e 788c f54c
00000060: 4323 344f 45a9 8b4f e5da 004d 237f 074f
00000070: 062f 0a4f f034 064d 0a28 a04e 8e94 0e4f
00000080: 69c2 394f 6c39 df4f cac1 8e50 e39e ee4e
00000090: 6a3b 5b50 cbad d84e 529e 6b4d aa91 ba4d
000000a0: 56fc 3f4b 889a 3c4e f594 564c 8797 284f
000000b0: e064 0a4d 027e 674e 9a95 a04e 2717 864f
000000c0: b92b 314d 244e 1c4d cec8 574d 26a9 ed4f
000000d0: 2c74 f14e c870 3350 175e 8b50 1319 d74c
000000e0: 3801 ee4e 2668 d44f 7eca 554e f87d 384f
000000f0: 8a23 1c4f 944b 234e 9b47 0b50 ff41 e74f
3.7230717e+09 8.8894803e+08 1.6901417e+09 1.5866561e+09 1.7986125e+09 1.4663834e+09 4.4073658e+08 1.5953677e+10
3.264155e+09 4.557461e+09 2.8190912e+09 7.976904e+08 2.0999282e+09 9.8984134e+08 2.2831664e+07 2.920998e+09
1.0805229e+09 6.5538456e+07 3.6398858e+09 2.2770426e+07 1.8482592e+08 1.783715e+08 1.5022678e+09 1.2873824e+08
3.0222098e+09 4.6862525e+09 1.3511432e+08 2.2732562e+09 2.3183375e+09 1.4072602e+08 1.3434893e+09 2.3921004e+09
3.1165258e+09 7.4901647e+09 1.9160519e+10 2.0016951e+09 1.4712416e+10 1.8176342e+09 2.4706384e+08 3.9126355e+08
1.2581974e+07 7.91061e+08 5.6251348e+07 2.8285028e+09 1.4511667e+08 9.7094874e+08 1.3470794e+09 4.4993285e+09
1.8577704e+08 1.6389792e+08 2.2626634e+08 7.974571e+09 2.0254612e+09 1.2042052e+10 1.8705594e+10 1.1277327e+08
1.9965286e+09 7.1271905e+09 8.967044e+08 3.0952632e+09 2.6195748e+09 6.849098e+08 9.346903e+09 7.759724e+09
