checkpoints/run_20251206_140229.pt (torch, 130736 bytes, 19 tensors)

rbf_centers f4 [32]
0	0x00000000	0.0
1	0x3e46318c	0.19354838
2	0x3ec6318c	0.38709676
3	0x3f14a529	0.58064514
4	0x3f46318c	0.7741935
5	0x3f77bdef	0.9677419
6	0x3f94a529	1.1612903
7	0x3fad6b5a	1.3548386
8	0x3fc6318c	1.548387
9	0x3fdef7be	1.7419355
10	0x3ff7bdef	1.9354838
11	0x40084210	2.1290321
12	0x4014a529	2.3225806
13	0x40210842	2.516129
14	0x402d6b5a	2.7096772
15	0x4039ce73	2.9032257
16	0x4046318d	3.0967743
17	0x405294a6	3.2903228
18	0x405ef7be	3.483871
19	0x406b5ad7	3.6774194
20	0x4077bdf0	3.8709679
21	0x40821084	4.064516
22	0x40884210	4.2580643
23	0x408e739d	4.451613
24	0x4094a52a	4.6451616
25	0x409ad6b6	4.83871
26	0x40a10842	5.032258
27	0x40a739ce	5.225806
28	0x40ad6b5b	5.419355
29	0x40b39ce7	5.612903
30	0x40b9ce74	5.806452
31	0x40c00000	6.0

embedding.weight f4 [100, 16]
0	0xbfbd6a57	-1.4798077
1	0x3ef9802c	0.487306
2	0xc040d19d	-3.0127938
3	0x3ee340fd	0.4438552
4	0x3eb831f7	0.3597562
5	0xbc4a4fd0	-0.01234813
6	0x3e5fc459	0.21852244
7	0xbfa40728	-1.2814684
8	0x401a5108	2.4111958
9	0x3fffe36d	1.999128
10	0x3f48e7b7	0.7847857
11	0xbf827e08	-1.0194712
12	0xbe57a12e	-0.21057579
13	0x3f20787c	0.62683845
14	0x3f6e87fe	0.9317626
15	0x3e3f3ca2	0.18675473
16	0x3f753201	0.95779425
17	0xbf9103cc	-1.1329284
18	0x3b38f775	0.0028223668
19	0x3fa84df4	1.314879
20	0xbf81b190	-1.0132313
21	0xbf0ba21d	-0.5454424
22	0x3edb3895	0.42816606
23	0xbff5e59a	-1.9210694
24	0x3fa244fb	1.2677301
25	0xbf90aca3	-1.1302685
26	0x3f5d4f8f	0.8644952
27	0x3f33d162	0.7024137
28	0x3e46dbc2	0.19419768
29	0xbf6d4a53	-0.92691535
30	0x3df1f5ff	0.11814498
31	0xbee334d9	-0.44376257
32	0xbf5a61f6	-0.85305727
33	0xbf573afd	-0.84074384
34	0xbecaeb6b	-0.39632735
35	0xbe84acbe	-0.25913042
36	0xbf2d6454	-0.67731214
37	0x3d913a8c	0.07091245
38	0xbeeab06b	-0.4583772
39	0x3fd7a4ae	1.6847131
40	0x3e11c4d4	0.1423524
41	0x3f248951	0.6427203
42	0xbf338341	-0.7012215
43	0x3f85499c	1.0413089
44	0xc0166c1c	-2.3503485
45	0x3e3cd670	0.18441176
46	0x3f223351	0.6335955
47	0xbfc3ce11	-1.5297261
48	0xbf99ce7d	-1.201614
49	0x3d8ac35e	0.067755446
50	0x3d3b1ee4	0.045683756
51	0x3ef057e3	0.46942052
52	0x3f49417f	0.78615564
53	0xbf95eef9	-1.1713554
54	0x3f23abc5	0.63933975
55	0x3f19fa7d	0.6014784
56	0x3ec57e52	0.38572937
57	0xbeee140a	-0.46499664
58	0xbfe5b7b3	-1.7946686
59	0x3ec42d97	0.38316032
60	0xbf4d4f19	-0.8019882
61	0xbdbc43a7	-0.09192591
62	0xbefea1bc	-0.4973277
63	0xbfbe57bc	-1.4870524
64	0xbee6f4d5	-0.45108667
65	0xbf64c417	-0.8936171
66	0xbe8d34ca	-0.27579337
67	0x3f43bad2	0.7645694
68	0x3fa6ae62	1.3021967
69	0x3fe30ebc	1.7738872
70	0xbfbc5dbd	-1.4716107
71	0xbf4a45ac	-0.7901256
72	0xbf511d25	-0.81685096
73	0xbef3a5b6	-0.47587365
74	0x3f542708	0.82872057
75	0xbe26af5f	-0.16277836
76	0x3fd12d20	1.6341896
77	0xbff3d896	-1.9050472
78	0x3f1fd2d2	0.6243106
79	0x4013d12b	2.3096416
80	0x3f8e7ac6	1.1131217
81	0xbf06e6ad	-0.52695733
82	0x3d1db545	0.03850295
83	0xbef9f687	-0.48820898
84	0x3f05a526	0.5220512
85	0xbd8b35c4	-0.06797364
86	0xbf867039	-1.0502998
87	0xbdadd691	-0.08488191
88	0x3ebdfcdd	0.37106982
89	0x3fde455c	1.7364917
90	0x3eae576c	0.34051073
91	0x3c01978c	0.007909667
92	0xbf61bf1a	-0.8818222
93	0x3d85a821	0.06526209
94	0xbf422aa7	-0.7584633
95	0xbf0e2ae5	-0.555342
96	0x3f1318fd	0.57460004
97	0x3f7beff8	0.9841304
98	0xbf810f0d	-1.0082718
99	0xbfe2afd5	-1.770991
100	0x3ea2efe9	0.31823662
101	0xbf251887	-0.6449055
102	0xc0105522	-2.255196
103	0x3f748e39	0.95529515
104	0xbfa60bfe	-1.297241
105	0x3f385a73	0.72013015
106	0xbf5a1b98	-0.85198355
107	0x3e2707a2	0.16311505
108	0x3d7bda65	0.061487574
109	0xbf0c35d3	-0.5476963
110	0x3f47caea	0.78044
111	0x3db53cfe	0.08849524
112	0xbdb45246	-0.08804755
113	0x3fae16e9	1.3600742
114	0x3e136f3d	0.14397903
115	0x3ee15ec2	0.44017607
116	0xbf3e40df	-0.74317735
117	0x3f42a391	0.7603083
118	0x3f25bbdc	0.64739776
119	0x3e2a52c5	0.16633137
120	0x3f6a2cf4	0.91474843
121	0xbfde100f	-1.7348651
122	0xbfac5e1f	-1.3466223
123	0xbefa7111	-0.48914388
124	0xbd2a7419	-0.041614626
125	0xbe73533e	-0.23762223
126	0x3eba167e	0.36345285
127	0x3faa9357	1.3326215
128	0x3ed6cbbb	0.4195231
129	0xbf6fd181	-0.9367905
130	0xbdb89a04	-0.09013751
131	0xbf4678df	-0.77528185
132	0xbfb65211	-1.4243795
133	0x40248a93	2.570958
134	0x3f5ba5ad	0.85799676
135	0xbfbcf578	-1.4762411
136	0x3f0a2ad8	0.53971624
137	0xbfa9a0cd	-1.3252198
138	0x3e4bb993	0.1989501
139	0xbe16220e	-0.14661428
140	0x3f175a56	0.59122217
141	0xbf059d4a	-0.5219313
142	0xbfd43770	-1.6579418
143	0xbf013f72	-0.50487435
144	0xbd1b970b	-0.037985843
145	0xbffc5d4c	-1.9715972
146	0x3fed5be1	1.8543664
147	0xbf35269f	-0.70762056
148	0x3c1d82f2	0.009613739
149	0xbea3d078	-0.31994987
150	0xbe1878d0	-0.14889836
151	0x3d0b1aad	0.033960987
152	0xbe266a6a	-0.16251531
153	0xbf3f73c0	-0.74785995
154	0xbf038a43	-0.51382846
155	0xbfa7b03d	-1.3100659
156	0xbddd0e93	-0.107937954
157	0xbf03c63d	-0.5147436
158	0x3fd86f3a	1.6908944
159	0x3e7e35cd	0.24825211
160	0x3e24ba03	0.16086583
161	0x3d3bd631	0.045858566
162	0xbf2cd2e7	-0.6750931
163	0x3f6353db	0.8879983
164	0x3fb675e3	1.4254726
165	0xbff60024	-1.9218793
166	0xbf9f270d	-1.2433792
167	0x3f2b3739	0.6688114
168	0x3d8ce88e	0.06880294
169	0x3f85e413	1.0460228
170	0xbf7ae715	-0.98008853
171	0x3e4785af	0.1948459
172	0x3cebb699	0.028773593
173	0xbea99b84	-0.33126462
174	0xbdcd4dfe	-0.100246415
175	0x3f08172f	0.53160375
176	0x3e92fdb8	0.28709197
177	0x3d39885f	0.04529607
178	0x3e5ee5ff	0.21767424
179	0x3f48c5c2	0.78426754
180	0xbfe170cb	-1.7612547
181	0x3fe1d1e7	1.7642182
182	0x3eb218e7	0.34784624
183	0x3f257ba6	0.646418
184	0x3fadbf7c	1.3574061
185	0x3fcbc8e4	1.5920682
186	0x3eddb887	0.43304846
187	0xbf33fde3	-0.70309275
188	0x3e90c521	0.28275397
189	0x3fd34c93	1.6507744
190	0x3ee7ac19	0.45248488
191	0x3ea86556	0.32889813
192	0x3e34be1b	0.17650644
193	0xbf967db1	-1.1757108
194	0xbf7d77ec	-0.9901111
195	0xbfdeba51	-1.7400609
196	0xc00d49c8	-2.2076283
197	0x3ec396ca	0.3820098
198	0x40062b4b	2.0963924
199	0xbe7092d2	-0.23493508
200	0x3e3168cd	0.17325135
201	0x3eb3a3c6	0.35085887
202	0x3f4b7c7a	0.7948681
203	0x3e85fbd7	0.261687
204	0xbe2a57c5	-0.16635044
205	0x3ff5a4d2	1.9190924
206	0x3f84bf53	1.0370888
207	0x3f525705	0.8216403
208	0xbe5a8d5d	-0.21342988
209	0xbfb9a28f	-1.4502734
210	0x3e8346be	0.2563991
211	0x3e0f0847	0.13968001
212	0x3f8a9e1f	1.0829505
213	0xbf5ba5de	-0.8579997
214	0xbf1d992a	-0.61561835
215	0x3d40213e	0.046906702
216	0xbfa9a91b	-1.3254732
217	0x3f590756	0.8477682
218	0xbe4d4b3f	-0.20048235
219	0x3e95501a	0.29162675
220	0x3ea3abfd	0.31967154
221	0x3d0f5817	0.03499612
222	0xbf119e85	-0.56882507
223	0xbe343b6d	-0.17600794
224	0x3f878856	1.0588481
225	0xbe21d1b6	-0.15802655
226	0xbf069be4	-0.5258162
227	0xbeb24e02	-0.3482514
228	0xbe9f66d7	-0.31133148
229	0xbef609d8	-0.48054385
230	0xbf281938	-0.6566348
231	0xbfeae42d	-1.8350884
232	0xbe50e642	-0.20400336
233	0x40047abc	2.069991
234	0x3efa4736	0.48882455
235	0x3e4714ec	0.19441575
236	0xbf32b69a	-0.6980988
237	0x3f31ee85	0.69504577
238	0x3fac0118	1.3437834
239	0xbf8e9a77	-1.1140889
240	0xbf21ff9e	-0.63280666
241	0xc009e378	-2.1545086
242	0x3eb74b5c	0.35799682
243	0xbe37ed37	-0.17961584
244	0xbf105da5	-0.5639289
245	0x3ec36a7a	0.38167173
246	0xbe892d1b	-0.26792225
247	0xbfd86c5a	-1.6908066
248	0xbc12e052	-0.008964615
249	0x3f4d9a64	0.80313706
250	0x3da8032c	0.0820373
251	0x3e97bc48	0.29635835
252	0x3f7b3279	0.9812389
253	0xbed43891	-0.41449407
254	0xbf44d384	-0.7688525
255	0x3f0028ce	0.50062263

pair_mlp.0.weight f4 [64, 64]
0	0xbde90daa	-0.11379559
1	0x3d955a13	0.07292571
2	0x3dcdaf84	0.100432426
3	0x3cb94475	0.02261565
4	0x3d76b526	0.06023135
5	0xbcfc98c9	-0.030834572
6	0xbcd84ab4	-0.026402809
7	0xbcb5b4f4	-0.022181012
8	0x3ce05726	0.027385306
9	0x3d77fe55	0.060545284
10	0x3d3dcce5	0.04633798
11	0xbd14ca55	-0.03632577
12	0xbd9f7587	-0.077860884
13	0xbdecd2da	-0.11563654
14	0x3db305c2	0.087413326
15	0xbd076758	-0.03305754
16	0xbd731f6e	-0.059356146
17	0xbddbe82d	-0.107376434
18	0xbdbc5a4e	-0.09196912
19	0x3d06b54e	0.03288775
20	0x3cefa4d6	0.029253405
21	0x3df0bde8	0.11754972
22	0xbd8e7514	-0.06955925
23	0x3ddf3eb0	0.109006286
24	0xbd5640a5	-0.052307744
25	0xbcf45341	-0.029824855
26	0xbcb674e2	-0.022272531
27	0xbdd51e74	-0.10406199
28	0xbd6ad7a8	-0.057334572
29	0x3cb42c51	0.021993788
30	0xbb3dc0d2	-0.0028954041
31	0xbdda8a44	-0.10670903
32	0x3c6c1b59	0.014410817
33	0xbbd29a7f	-0.006427109
34	0xbdab1848	-0.08354241
35	0xbd9da375	-0.076971926
36	0x3d50f8ea	0.051018633
37	0x3d239862	0.039940245
38	0x3d1890db	0.03724752
39	0xbdc73b37	-0.09728091
40	0x3d6f8dc4	0.058484808
41	0x3ba84656	0.005135338
42	0xbd43c3a6	-0.047794007
43	0x3d8833d6	0.06650512
44	0xbc6186b5	-0.013765027
45	0xbde30bd1	-0.11086238
46	0xbd1f7ac7	-0.03893545
47	0x3d38d38d	0.045123626
48	0xbd1347f6	-0.0359573
49	0xbdc6a9f8	-0.09700388
50	0x3c0e2ad6	0.008677205
51	0xbdbb789a	-0.09153862
52	0xbc84e82c	-0.01622399
53	0xbcc6c7fd	-0.024265284
54	0x3dba2b67	0.090903096
55	0x3db0c3a4	0.086310655
56	0x3dfac215	0.122440495
57	0xbdf4a8f6	-0.11946289
58	0x3df192e0	0.11795592
59	0x3cba9ddd	0.022780353
60	0xbdf5832b	-0.11987909
61	0x3c658e79	0.014011019
62	0x3d8f8c6b	0.070092045
63	0xbd14e4ba	-0.036350943
64	0x3d91079f	0.07081532
65	0x3dd6730f	0.104711644
66	0xbdffec9f	-0.12496304
67	0x3d9b650d	0.07587633
68	0x3d902764	0.07038763
69	0xbdac2720	-0.084059
70	0xbd1f4280	-0.03888178
71	0xbdadf079	-0.08493132
72	0x3c890558	0.01672618
73	0xbdfd623c	-0.12372252
74	0xbcd72b38	-0.026265725
75	0xbda66cd6	-0.081262276
76	0xbc063b8a	-0.008192906
77	0x3da9ff98	0.08300704
78	0x3d55727c	0.052111134
79	0x3ca57629	0.020197945
80	0xbc2b9450	-0.010472372
81	0x3d440894	0.047859743
82	0x3df09293	0.11746707
83	0x3c5c18b1	0.013433621
84	0x3d81ec52	0.06343903
85	0xbd9481b7	-0.07251304
86	0xbd8aea33	-0.06782951
87	0x3d8ffa89	0.07030208
88	0x3cde1f38	0.027114496
89	0x3cefdced	0.02928015
90	0x3da4960d	0.080364324
91	0xbcbf7b5e	-0.023374256
92	0x3d975070	0.07388389
93	0xbd1d7f28	-0.038451344
94	0xbd5a7ba5	-0.053340573
95	0x3da43082	0.08017065
96	0xbd00ee85	-0.03147747
97	0x3e0101ed	0.12598391
98	0xbd60f9b1	-0.054925624
99	0x3db0158a	0.08597858
100	0xbdf7f9ef	-0.12108218
101	0xbd19ec62	-0.037578948
102	0xbce8ac10	-0.028402358
103	0xbdca166b	-0.09867557
104	0x3d739e9e	0.05947744
105	0x3d94b536	0.07261126
106	0x3db64977	0.08900731
107	0xbd8bb909	-0.06822402
108	0xbde4a385	-0.111640014
109	0xbca08e17	-0.019599004
110	0xbd3aba72	-0.045587964
111	0xbdd0222b	-0.10162767
112	0xbd974fbb	-0.07388254
113	0x3d8fc8f0	0.07020748
114	0x3b723ea0	0.0036963597
115	0x3df84e90	0.121243596
116	0xbd8d249d	-0.06891749
117	0x3d62b905	0.05535223
118	0xbcd8c843	-0.02646268
119	0xbdb52ac1	-0.08846045
120	0x3db09311	0.08621801
121	0xbda45e24	-0.080257684
122	0xbd8912ca	-0.06693037
123	0xba3c8b18	-0.00071923574
124	0xbd935cb1	-0.07195414
125	0x3d353cde	0.0442475
126	0x3da7c416	0.08191697
127	0x3cb402a6	0.02197392
128	0x3d583479	0.052784417
129	0xbdae78bd	-0.08519123
130	0x3d191595	0.037374098
131	0xbd0e9136	-0.034806453
132	0x3dc5cd98	0.096583545
133	0xbc1eabcf	-0.009684517
134	0xbd7fbea8	-0.062437683
135	0xbd8debb8	-0.069297254
136	0xbd176de3	-0.03697003
137	0x3ca19a51	0.019726904
138	0xbbb53c3f	-0.0055308635
139	0x3d4bc3db	0.04974733
140	0xbdaa2948	-0.08308655
141	0xbd839aee	-0.06426035
142	0xbd81275d	-0.06306336
143	0x3df56355	0.11981837
144	0x3d9b2c09	0.075767584
145	0x3d95d4a4	0.073159486
146	0xbd190513	-0.037358355
147	0xbd2d8ddf	-0.042371627
148	0xbd3d897b	-0.04627369
149	0x3d036923	0.032082688
150	0x3dde88cc	0.10865936
151	0x3deadb9c	0.114676684
152	0x3da9d7e4	0.08293131
153	0x3ddea378	0.10871023
154	0x3d8a97eb	0.06767257
155	0xbd81f7df	-0.06346106
156	0x3db64c8e	0.089013204
157	0xbd9f5621	-0.077801
158	0x3da98516	0.08277337
159	0xbd45899f	-0.04822695
160	0x3d9fb9a6	0.077990815
161	0x3df3b0f7	0.11898988
162	0xbc1a1af1	-0.009405837
163	0xbc1f111e	-0.009708671
164	0xbdf6b98d	-0.1204711
165	0x3d357fde	0.044311397
166	0x3ccf781b	0.025325825
167	0xbdb6d3b7	-0.089271
168	0xbdf4639c	-0.119330615
169	0xbd7c6be5	-0.061626334
170	0x3d0e2ad4	0.034708813
171	0x3c207f8d	0.0097960355
172	0xbcf80a61	-0.030278387
173	0xbd8b6841	-0.06806994
174	0x3e0083ec	0.12550324
175	0x3d8e9ca4	0.069634706
176	0xbd5dea07	-0.054178264
177	0x3dcaaa09	0.09895713
178	0x3ca93775	0.020656327
179	0x3d89fc74	0.06737605
180	0xbc499019	-0.012302422
181	0x3db0e134	0.08636704
182	0xbdd29140	-0.102816105
183	0x3d7f9eb0	0.062407196
184	0xbd485240	-0.048906565
185	0x3b005fe8	0.0019588415
186	0xbddb86c2	-0.107190624
187	0x3cf03934	0.029324152
188	0xbde0cebc	-0.109769315
189	0xbde499c8	-0.11162144
190	0xbdb65662	-0.08903195
191	0xbb0cbb0f	-0.00214738
192	0x3dd4adf6	0.10384743
193	0x3d544047	0.051819112
194	0x3ddc653d	0.10761497
195	0xbdadd9b6	-0.08488791
196	0x3df24975	0.11830417
197	0x3ccbbf9b	0.024871638
198	0x3cb9ab4b	0.022664687
199	0xbdb306f6	-0.08741562
200	0x3d9f67d2	0.07783474
201	0x3dca6fe6	0.09884624
202	0xbd9d7bd6	-0.076896355
203	0x3d1b10c6	0.037857793
204	0xbdf57d2b	-0.119867645
205	0xbd91ba79	-0.07115645
206	0xbdc8dbcd	-0.09807549
207	0xbcbb2822	-0.022846285
208	0x3d945bd2	0.07244076
209	0x3de14a00	0.110004425
210	0xbc4d5ca5	-0.012534295
211	0x3ca909a8	0.020634487
212	0xbdb37b28	-0.087637246
213	0x3da95487	0.082680754
214	0xbd27754c	-0.040883347
215	0xbbf69231	-0.0075247516
216	0xbd847e46	-0.06469397
217	0xbd9cd61f	-0.07658028
218	0xbd2db606	-0.04240992
219	0x3da984de	0.082772955
220	0xbcdd8af4	-0.027043797
221	0xbc8d33c3	-0.017236596
222	0xbd5be5f6	-0.053686105
223	0x3de5c9fe	0.112201676
224	0xbdfaccba	-0.1224608
225	0xbd4e62f1	-0.050387327
226	0x3c46d18d	0.012134922
227	0x3c748a5c	0.014925566
228	0x3d10217f	0.035188194
229	0x3df69e7d	0.12041948
230	0xbdddf786	-0.10838227
231	0x3bc0d2c8	0.005884502
232	0x3de372ab	0.111058556
233	0xbd523ff1	-0.05133051
234	0xbcc44482	-0.023958448
235	0xbab70cba	-0.0013965585
236	0x3dcde392	0.10053171
237	0xbdee3aa5	-0.11632279
238	0xbdcbaf34	-0.09945527
239	0x3d788511	0.060673777
240	0x3d1a787f	0.03771257
241	0x3db12c14	0.08650985
242	0x3c45d8a0	0.012075573
243	0xbd418cc4	-0.047253385
244	0xbc12cddc	-0.0089602135
245	0xbde0c278	-0.10974592
246	0x3de2e3a6	0.11078577
247	0x3d2294f4	0.039692834
248	0xbd612fda	-0.054977275
249	0xbde0cee2	-0.1097696
250	0xbd29394f	-0.04131442
251	0x3ca1bb5d	0.019742662
252	0xbdc06426	-0.09394102
253	0x3dae184c	0.08500728
254	0xbd572a90	-0.052530825
255	0xbdadfb47	-0.08495193

pair_mlp.0.bias f4 [64]
0	0x3cb98280	0.022645235
1	0x3d049188	0.032365352
2	0x3d8933a8	0.06699306
3	0xbc74ddad	-0.01494543
4	0xbdd44ba8	-0.10365993
5	0x3dd09ca5	0.101861276
6	0x3cce08f1	0.025150748
7	0xbd87e561	-0.066355474
8	0x3db77518	0.08957881
9	0xbdb7347f	-0.0894556
10	0xbd4f8bce	-0.050670438
11	0xbdc72d59	-0.09725446
12	0x3d8fd09b	0.0702221
13	0x3d04fac9	0.03246573
14	0xbdbae4a3	-0.0912564
15	0xbdcf50fa	-0.10122867
16	0x3d4ce40f	0.05002218
17	0xbd45c9cd	-0.048288155
18	0xbb977bab	-0.0046228967
19	0xbdba2826	-0.09089689
20	0xbdb16b6c	-0.08663067
21	0x3d069e47	0.03286579
22	0xbbdaa5ea	-0.0066726105
23	0x3bb5eb68	0.0055517443
24	0x3da8c4fc	0.08240697
25	0xbd22e8f5	-0.039772946
26	0xbda1a95c	-0.07893631
27	0xbdd2b05d	-0.10287545
28	0xbd425948	-0.047448426
29	0xbd7a06d1	-0.061041657
30	0xbd9e1396	-0.077185795
31	0xbc449e11	-0.012000577
32	0xbba579da	-0.005049926
33	0xbd697e00	-0.05700493
34	0x3d64fd76	0.05590578
35	0xbce22f36	-0.027610403
36	0x3c25bfd2	0.010116534
37	0xbd3de896	-0.04636439
38	0x3d704d47	0.058667447
39	0x3dab7c0f	0.08373272
40	0xbd8de48a	-0.06928356
41	0xbd920477	-0.07129758
42	0x3d5b5732	0.053549953
43	0x3d67a161	0.056550387
44	0xbde6ab3d	-0.1126313
45	0x3db53e57	0.08849781
46	0x3d039250	0.032121956
47	0xbdf3771c	-0.11887953
48	0xbd871067	-0.065949254
49	0x3b2e091d	0.0026555725
50	0xbd8a0eb0	-0.06741083
51	0xbd676a8c	-0.056498095
52	0xbd57d29f	-0.0526911
53	0x3d517058	0.05113253
54	0xbd895fdd	-0.067077376
55	0x3d43a2c4	0.047762647
56	0x3c3e37dd	0.0116099985
57	0xbd0b042f	-0.033939537
58	0xbdbfe688	-0.09370142
59	0x3ceb0ffc	0.028694145
60	0xbd9a9a9b	-0.0754902
61	0x3de3544a	0.11100061
62	0x3da32a52	0.07967056
63	0x3d3a0f8c	0.045424983

pair_mlp.2.weight f4 [64, 64]
0	0xbd9bfd61	-0.076166876
1	0x3d5635e8	0.052297503
2	0x3d87a9f9	0.066242166
3	0xbd4fd52c	-0.050740406
4	0x3d4dac9b	0.050213438
5	0x3ddcf5a1	0.107890375
6	0x3dfd8275	0.12378398
7	0x3d6c2556	0.057652794
8	0x3da36537	0.079782896
9	0x3d442528	0.047886997
10	0x3dc0a81c	0.09407064
11	0x3d528dae	0.051404648
12	0x3ba2b5c5	0.0049655163
13	0x3c8e5616	0.017375033
14	0x3de25eac	0.110532135
15	0x3cd1dabc	0.025616996
16	0x3b97a2c7	0.004627559
17	0x3b5351c0	0.0032244772
18	0xbd954262	-0.07288052
19	0x3d007c81	0.031368736
20	0x3c9c0d41	0.019049289
21	0x3df90de3	0.12160852
22	0xbd3944bf	-0.045231577
23	0x3dea2ac5	0.11433939
24	0x3e0d70a6	0.13812503
25	0xbda206f4	-0.079114825
26	0xbdded2af	-0.108800285
27	0x3da0cf4f	0.07852041
28	0xbd26d386	-0.04072907
29	0xbdc2e3f7	-0.09516137
30	0x3d31592f	0.043297943
31	0x3d9d2681	0.0767336
32	0x3a727786	0.0009249378
33	0xbd17a9b0	-0.03702706
34	0xbc743aae	-0.014906568
35	0xbce214c5	-0.027597794
36	0x3dfacb6a	0.122458294
37	0xbcbe405b	-0.023224046
38	0x3de56486	0.11200814
39	0xbd9458c0	-0.0724349
40	0x3df43100	0.119234085
41	0xbda83c2f	-0.08214604
42	0x3d203090	0.039108813
43	0xbca9fd8c	-0.020750783
44	0x3ce46ffe	0.027885433
45	0x3d444990	0.047921717
46	0xbcbb6f75	-0.022880295
47	0x3df933ae	0.1216806
48	0x3de3e35c	0.1112735
49	0xbd63cb91	-0.055614058
50	0xbda79b13	-0.08183875
51	0x3ce5ffbf	0.02807605
52	0xbc576659	-0.01314696
53	0x3cc09def	0.023512809
54	0x3d6a15c1	0.057149652
55	0xbdd406fa	-0.10352893
56	0xbcbc9966	-0.023022365
57	0xbda21cd2	-0.07915653
58	0x3c02b7d6	0.0079784
59	0x3b025435	0.0019886617
60	0x3dd94456	0.10608737
61	0xbd0c0b4a	-0.034190454
62	0xbcd3eef2	-0.025870774
63	0xbdb20dbb	-0.08694025
64	0x3dcbe6cb	0.0995613
65	0x3d2d278f	0.042274054
66	0x3d30ebc5	0.043193597
67	0xbd0d7328	-0.03453365
68	0xbdb7bbf2	-0.089713946
69	0x3c842bbd	0.016134137
70	0xbd69a597	-0.057042684
71	0x3d8b2486	0.06794076
72	0xbc4b6313	-0.012413758
73	0x3d08f529	0.033436928
74	0xbcbbab9e	-0.022908982
75	0x3cdfbbd1	0.027311238
76	0x3d66665b	0.056249958
77	0x3da24451	0.079231866
78	0xbd6868e8	-0.05674067
79	0x3cdb540f	0.02677348
80	0xbde9c0b1	-0.11413706
81	0x3dad978a	0.084761694
82	0x3d6f2043	0.058380377
83	0x3c97dc43	0.018537646
84	0xbdd502bc	-0.10400912
85	0xbc003188	-0.007824309
86	0x3ddd016e	0.10791288
87	0xbdc5f63e	-0.096661076
88	0xbd235fac	-0.03988616
89	0xbcfb190f	-0.030651597
90	0xbdad680b	-0.0846711
91	0x3d73fb1f	0.05956566
92	0x3a3b996d	0.0007156346
93	0xbcf6d290	-0.0301297
94	0xbdaa1a62	-0.08305813
95	0xbd2eeede	-0.04270827
96	0xbdd1b0de	-0.10238813
97	0x3dc64902	0.09681894
98	0x3de044f4	0.10950652
99	0x3c77caa1	0.015123994
100	0xbdf2bef9	-0.118528314
101	0xbd926f3d	-0.07150123
102	0x3d0e1f4b	0.034697812
103	0xbdb1df36	-0.08685152
104	0x3d320765	0.043464083
105	0x3dd91af2	0.106008425
106	0x3caa4323	0.020783966
107	0xbcb42a5a	-0.021992851
108	0xbc29d7d6	-0.010366401
109	0xbd64c7c2	-0.055854566
110	0xbdfb4f63	-0.12271001
111	0xbddccaf4	-0.10780898
112	0xbdb74b87	-0.089499526
113	0xbcb554a7	-0.022135092
114	0x3db79175	0.089632906
115	0x3de33b4f	0.110952966
116	0x3d8b6a5b	0.06807395
117	0xbdf502f7	-0.11963456
118	0x3bc8b1ab	0.0061246953
119	0xbddc72fb	-0.10764118
120	0x3d6f42cd	0.058413316
121	0xbdb9c06e	-0.09069906
122	0xbd241042	-0.040054567
123	0x3d89cbbe	0.06728314
124	0x3bb5d4c5	0.0055490457
125	0x3d876b84	0.06612304
126	0xbdfa5858	-0.122238815
127	0x3da7d534	0.08194962
128	0xbdfc4113	-0.123170994
129	0x3da872a4	0.08224991
130	0x3d85e484	0.065377265
131	0x3cddd4e8	0.02707906
132	0x3d96fc6a	0.07372363
133	0x3db155a6	0.08658914
134	0x3d5b31cc	0.053514287
135	0x3d007236	0.03135892
136	0xbddf872a	-0.109144524
137	0xbde46886	-0.11152749
138	0x3c995b67	0.018720342
139	0x3d485895	0.048912603
140	0xbd0c8ff0	-0.034316957
141	0xbbec381f	-0.0072088386
142	0x3c6d3fbb	0.014480527
143	0x3defa8a9	0.11702091
144	0x3c2c3cdb	0.010512556
145	0xbdbbd288	-0.09171015
146	0xbc99ebd6	-0.018789213
147	0x3db6f08a	0.08932598
148	0x3de7e446	0.113228366
149	0xbdc42301	-0.09576989
150	0xbccae9a0	-0.024769604
151	0xbc7d126f	-0.015446289
152	0x3d443193	0.04789884
153	0xbdf2c643	-0.11854222
154	0xbdf798d1	-0.12089694
155	0xbdb89664	-0.0901306
156	0xbda45464	-0.08023909
157	0x3c95264c	0.018206738
158	0xbd89cd13	-0.06728568
159	0xbdb3029f	-0.08740734
160	0x3c997fc4	0.018737681
161	0x3d64b47c	0.055836186
162	0xbde8a2d3	-0.11359181
163	0x3d458acd	0.048228074
164	0xbd1e8d03	-0.038708698
165	0x3dbcaade	0.09212278
166	0xbdd5214f	-0.10406744
167	0xbd45cc99	-0.048290823
168	0xbb927e48	-0.0044706203
169	0x3ca44603	0.020052915
170	0x3d051786	0.032493137
171	0x3dc685c5	0.09693483
172	0x3dadb7fa	0.08482356
173	0x3d2a4f1a	0.041579343
174	0x3d9e05bf	0.0771594
175	0x3d80f406	0.06296544
176	0xbdd6caa2	-0.10487868
177	0xbc8cd323	-0.017190522
178	0xbd8eda58	-0.069752395
179	0x3dfd988f	0.12382614
180	0x3d82d1ef	0.06387698
181	0xbdfbc20b	-0.1229287
182	0xbda1573f	-0.07877969
183	0xbd0dbd1b	-0.034604173
184	0x3d20e3c7	0.039279725
185	0xbd9d4e5a	-0.0768096
186	0xbd37dc5a	-0.044887878
187	0x3dcd22f1	0.1001643
188	0xbdb65ded	-0.08904634
189	0x3d2882de	0.04114043
190	0xbd3b7e4c	-0.045774743
191	0xbdd66377	-0.1046819
192	0x3c81b381	0.015832664
193	0x3dd225f0	0.10261142
194	0xbd6a6f74	-0.057235196
195	0xbbd8a2bf	-0.0066111977
196	0xbc9c7992	-0.019100938
197	0xbdb4263a	-0.08796354
198	0x3d1ace6e	0.037794523
199	0x3ccdb460	0.025110424
200	0x3dd99567	0.10624199
201	0xbde11ed9	-0.10992212
202	0x3c982743	0.018573409
203	0x3d6e950f	0.058247622
204	0xbc8779bb	-0.016537538
205	0x3d9ebde9	0.07751066
206	0x3d72b7dc	0.059257373
207	0xbcebf08d	-0.028801227
208	0x3d812f11	0.06307805
209	0x3d976ead	0.073941566
210	0x3dbcb803	0.09214785
211	0x3dd04ed1	0.10171283
212	0x3c69b184	0.014263514
213	0xbcd106e8	-0.025515988
214	0xbd801034	-0.062530905
215	0xbdc325e5	-0.09528712
216	0xbd03918c	-0.032121226
217	0x3dd36cf1	0.10323513
218	0x3d8cf945	0.06883482
219	0xbd125df6	-0.03573414
220	0xbd5b0fce	-0.05348187
221	0x3d6335c3	0.055471193
222	0x3d70ad31	0.05875892
223	0x3d846b37	0.06465762
224	0x3d47c1c7	0.048768785
225	0x3bdf2b4d	0.006810582
226	0x3d3acfca	0.04560832
227	0xbd807ec4	-0.062741786
228	0x3d8caca5	0.06868867
229	0x3df84e0a	0.1212426
230	0xbd8e38a8	-0.069444
231	0xbc923576	-0.017847758
232	0xbd3c16ee	-0.045920305
233	0xbde34d82	-0.11098768
234	0xbd8496ac	-0.06474051
235	0x3cd78136	0.02630673
236	0x3daa5a4c	0.08318004
237	0xbcd37cc3	-0.025816327
238	0xbdb5c93f	-0.08876275
239	0xbd7700a9	-0.060303364
240	0xbdb7a5a4	-0.0896714
241	0xbde5ed59	-0.11226911
242	0xbdccd721	-0.1000197
243	0xbdc4ce98	-0.09609717
244	0x3d23aa9b	0.039957624
245	0xbd9baa48	-0.07600838
246	0xbdbbcd3b	-0.09170004
247	0x3d97d49e	0.074136004
248	0xbdbaade2	-0.09115197
249	0xbdb10f38	-0.08645481
250	0x3c421ef4	0.0118482
251	0xbc8223c8	-0.015886202
252	0xbdd8fcc7	-0.105950885
253	0xbd975f0e	-0.07391177
254	0xbd3c0d70	-0.045911252
255	0x3d8ae181	0.06781293

pair_mlp.2.bias f4 [64]
0	0xbcaabfb3	-0.020843362
1	0xbdf6838b	-0.120368086
2	0xbb0fcc22	-0.002194174
3	0xbc85ebdb	-0.016347816
4	0xbd852de7	-0.06502896
5	0x3d5e7d9c	0.05431901
6	0x3be843d5	0.0070881643
7	0xbd4b9d0d	-0.049710322
8	0xbdce78b0	-0.10081613
9	0xbd3efbe3	-0.046626937
10	0xbd30cd0e	-0.043164305
11	0xbda2375c	-0.07920715
12	0xbda833db	-0.08213016
13	0xbd796245	-0.060884733
14	0x3cc11fbe	0.023574706
15	0x3d48ff5e	0.049071662
16	0xbdbf8bdb	-0.09352847
17	0x3b5285ae	0.0032123136
18	0xbd34de1b	-0.04415713
19	0xbdb50b8d	-0.08840094
20	0xbdaed657	-0.08536976
21	0xbdd1bc39	-0.10240979
22	0x3d826339	0.063665815
23	0x3d4d9587	0.05019143
24	0xbcd049e8	-0.025425866
25	0xbc96c27d	-0.018403286
26	0x3dbc8b60	0.09206271
27	0x3b66d4a5	0.003522196
28	0x3d863c26	0.06554441
29	0x3d46f8b4	0.048577026
30	0x3d790b6d	0.060801912
31	0x3d17615a	0.036958076
32	0x3d5941d2	0.053041287
33	0xbd9493d4	-0.072547585
34	0x3d348903	0.044075977
35	0x3d1385b6	0.03601619
36	0xbbdb6a63	-0.006696032
37	0xbcf8bb1d	-0.03036266
38	0xbd2b7adc	-0.041865215
39	0xbc599e1f	-0.013282328
40	0xbd6f0bbd	-0.058360804
41	0xbdfec787	-0.124404006
42	0x3d0a0d99	0.033704374
43	0x3bef0068	0.0072937496
44	0x3dc4d69c	0.09611246
45	0x3deae14a	0.11468752
46	0x3d6ab67a	0.05730293
47	0xbd651175	-0.05592485
48	0x3dbfd235	0.09366266
49	0xbd1262b5	-0.035738666
50	0xba4331aa	-0.000744606
51	0xbde162a0	-0.11005139
52	0x3deb4137	0.11487048
53	0xbb69647a	-0.0035612867
54	0xbd1196a0	-0.035544038
55	0xbdedf846	-0.1161962
56	0x3d85034d	0.0649477
57	0xbab67efc	-0.0013923342
58	0xbcba3ab5	-0.022733072
59	0xbd5f4166	-0.05450573
60	0x3ccbff21	0.024901928
61	0xbd4d4409	-0.05011371
62	0x3dc2d8c1	0.09513999
63	0x3d27a57d	0.040929306

pair_mlp.4.weight f4 [1, 64]
0	0x3de675a7	0.11252909
1	0xbdaa461a	-0.08314152
2	0xbd5ed46d	-0.054401804
3	0xbc660cc4	-0.0140411295
4	0x3ccefd62	0.025267307
5	0x3d002900	0.0312891
6	0xbd5458ca	-0.05184249
7	0xbcf00c59	-0.029302763
8	0x3d94d7ef	0.072677486
9	0x3c5f0ebe	0.013614355
10	0xbdc1098d	-0.0942565
11	0x3d645082	0.05574084
12	0x3dab549c	0.08365747
13	0xbaf081a4	-0.0018349183
14	0x3d3db45d	0.046314586
15	0x3cd70909	0.026249425
16	0x3d4b329b	0.049608808
17	0xbd1996ab	-0.037497204
18	0x3a5c699a	0.000840807
19	0xbd7c1c7d	-0.061550606
20	0xbdabb3c1	-0.08383895
21	0xbd9d7601	-0.07688523
22	0x3d686d7f	0.05674505
23	0xbdd3a71a	-0.103346065
24	0xbdc42eee	-0.09579264
25	0xbdea7586	-0.11448197
26	0xbdd34230	-0.10315359
27	0xbdadcbd4	-0.08486143
28	0xbd8e18ab	-0.06938299
29	0xbdb11558	-0.08646649
30	0xbd88e433	-0.066841505
31	0x3d953357	0.07285183
32	0xbd9de87d	-0.07710359
33	0x3dd7025b	0.10498496
34	0x3dd3a54f	0.103342645
35	0x3d892cc9	0.06697995
36	0x3db193f6	0.086707994
37	0xbd83891d	-0.06422637
38	0x3d129ce6	0.03579416
39	0xb8d119b6	-9.970686e-05
40	0x3dc8c9c7	0.09804111
41	0x3d1d2bf7	0.038372006
42	0xbd1b3a3a	-0.037897326
43	0xbcec2f63	-0.02883119
44	0xbd7c46e9	-0.061591063
45	0xbd63bced	-0.055600096
46	0xbd08f8c4	-0.033440366
47	0xbdbeaa11	-0.09309781
48	0x3dde2e59	0.10848684
49	0xbd8fb13a	-0.07016225
50	0xbde6a4be	-0.11261891
51	0x3d794e92	0.060865946
52	0x3d72ddb9	0.059293482
53	0x3ddf4e96	0.10903661
54	0xbcea7322	-0.028619353
55	0xbd856ef2	-0.06515302
56	0x3c18d5a1	0.009328277
57	0xbd8a96d6	-0.06767051
58	0xbbceba9f	-0.006308868
59	0xbd56f3cb	-0.052478593
60	0xbca60e66	-0.020270538
61	0xbd297255	-0.0413688
62	0xbdce9fc3	-0.10089066
63	0xbdce31f8	-0.100681245

exp_avg f4 [100, 16]
0	0x00000000	0.0
1	0x00000000	0.0
2	0x00000000	0.0
3	0x00000000	0.0
4	0x00000000	0.0
5	0x00000000	0.0
6	0x00000000	0.0
7	0x00000000	0.0
8	0x00000000	0.0
9	0x00000000	0.0
10	0x00000000	0.0
11	0x00000000	0.0
12	0x00000000	0.0
13	0x00000000	0.0
14	0x00000000	0.0
15	0x00000000	0.0
16	0x43b17dde	354.98334
17	0x43416d41	193.42677
18	0xc31dfdee	-157.99191
19	0xc32446da	-164.27676
20	0xc38aee43	-277.86142
21	0xc33dd669	-189.83754
22	0x43368321	182.51222
23	0x42f33e63	121.62185
24	0x431581bc	149.50677
25	0xc4048d92	-530.21204
26	0xc3251a5c	-165.10297
27	0x42db0bdb	109.523155
28	0xc16d90e7	-14.847877
29	0x4385aeee	267.36664
30	0xc0af3163	-5.4747787
31	0x436ce320	236.8872
32	0x00000000	0.0
33	0x00000000	0.0
34	0x00000000	0.0
35	0x00000000	0.0
36	0x00000000	0.0
37	0x00000000	0.0
38	0x00000000	0.0
39	0x00000000	0.0
40	0x00000000	0.0
41	0x00000000	0.0
42	0x00000000	0.0
43	0x00000000	0.0
44	0x00000000	0.0
45	0x00000000	0.0
46	0x00000000	0.0
47	0x00000000	0.0
48	0x00000000	0.0
49	0x00000000	0.0
50	0x00000000	0.0
51	0x00000000	0.0
52	0x00000000	0.0
53	0x00000000	0.0
54	0x00000000	0.0
55	0x00000000	0.0
56	0x00000000	0.0
57	0x00000000	0.0
58	0x00000000	0.0
59	0x00000000	0.0
60	0x00000000	0.0
61	0x00000000	0.0
62	0x00000000	0.0
63	0x00000000	0.0
64	0x00000000	0.0
65	0x00000000	0.0
66	0x00000000	0.0
67	0x00000000	0.0
68	0x00000000	0.0
69	0x00000000	0.0
70	0x00000000	0.0
71	0x00000000	0.0
72	0x00000000	0.0
73	0x00000000	0.0
74	0x00000000	0.0
75	0x00000000	0.0
76	0x00000000	0.0
77	0x00000000	0.0
78	0x00000000	0.0
79	0x00000000	0.0
80	0x00000000	0.0
81	0x00000000	0.0
82	0x00000000	0.0
83	0x00000000	0.0
84	0x00000000	0.0
85	0x00000000	0.0
86	0x00000000	0.0
87	0x00000000	0.0
88	0x00000000	0.0
89	0x00000000	0.0
90	0x00000000	0.0
91	0x00000000	0.0
92	0x00000000	0.0
93	0x00000000	0.0
94	0x00000000	0.0
95	0x00000000	0.0
96	0x00000000	0.0
97	0x00000000	0.0
98	0x00000000	0.0
99	0x00000000	0.0
100	0x00000000	0.0
101	0x00000000	0.0
102	0x00000000	0.0
103	0x00000000	0.0
104	0x00000000	0.0
105	0x00000000	0.0
106	0x00000000	0.0
107	0x00000000	0.0
108	0x00000000	0.0
109	0x00000000	0.0
110	0x00000000	0.0
111	0x00000000	0.0
112	0x00000000	0.0
113	0x00000000	0.0
114	0x00000000	0.0
115	0x00000000	0.0
116	0x00000000	0.0
117	0x00000000	0.0
118	0x00000000	0.0
119	0x00000000	0.0
120	0x00000000	0.0
121	0x00000000	0.0
122	0x00000000	0.0
123	0x00000000	0.0
124	0x00000000	0.0
125	0x00000000	0.0
126	0x00000000	0.0
127	0x00000000	0.0
128	0x4328e54d	168.8957
129	0x42e6532e	115.16246
130	0xc281e302	-64.943375
131	0xc2b56fd5	-90.71842
132	0xc2ae912c	-87.28354
133	0xc2c382f5	-97.755775
134	0x429ea3c6	79.31987
135	0x425946fb	54.319317
136	0x421ebe86	39.686058
137	0xc3896364	-274.7765
138	0xc2b78039	-91.750435
139	0x428f4b9d	71.64768
140	0x4136e605	11.431157
141	0x42e92324	116.568634
142	0xbf753a75	-0.95792323
143	0x42b8adcd	92.339455
144	0x00000000	0.0
145	0x00000000	0.0
146	0x00000000	0.0
147	0x00000000	0.0
148	0x00000000	0.0
149	0x00000000	0.0
150	0x00000000	0.0
151	0x00000000	0.0
152	0x00000000	0.0
153	0x00000000	0.0
154	0x00000000	0.0
155	0x00000000	0.0
156	0x00000000	0.0
157	0x00000000	0.0
158	0x00000000	0.0
159	0x00000000	0.0
160	0x00000000	0.0
161	0x00000000	0.0
162	0x00000000	0.0
163	0x00000000	0.0
164	0x00000000	0.0
165	0x00000000	0.0
166	0x00000000	0.0
167	0x00000000	0.0
168	0x00000000	0.0
169	0x00000000	0.0
170	0x00000000	0.0
171	0x00000000	0.0
172	0x00000000	0.0
173	0x00000000	0.0
174	0x00000000	0.0
175	0x00000000	0.0
176	0x00000000	0.0
177	0x00000000	0.0
178	0x00000000	0.0
179	0x00000000	0.0
180	0x00000000	0.0
181	0x00000000	0.0
182	0x00000000	0.0
183	0x00000000	0.0
184	0x00000000	0.0
185	0x00000000	0.0
186	0x00000000	0.0
187	0x00000000	0.0
188	0x00000000	0.0
189	0x00000000	0.0
190	0x00000000	0.0
191	0x00000000	0.0
192	0x00000000	0.0
193	0x00000000	0.0
194	0x00000000	0.0
195	0x00000000	0.0
196	0x00000000	0.0
197	0x00000000	0.0
198	0x00000000	0.0
199	0x00000000	0.0
200	0x00000000	0.0
201	0x00000000	0.0
202	0x00000000	0.0
203	0x00000000	0.0
204	0x00000000	0.0
205	0x00000000	0.0
206	0x00000000	0.0
207	0x00000000	0.0
208	0x00000000	0.0
209	0x00000000	0.0
210	0x00000000	0.0
211	0x00000000	0.0
212	0x00000000	0.0
213	0x00000000	0.0
214	0x00000000	0.0
215	0x00000000	0.0
216	0x00000000	0.0
217	0x00000000	0.0
218	0x00000000	0.0
219	0x00000000	0.0
220	0x00000000	0.0
221	0x00000000	0.0
222	0x00000000	0.0
223	0x00000000	0.0
224	0x00000000	0.0
225	0x00000000	0.0
226	0x00000000	0.0
227	0x00000000	0.0
228	0x00000000	0.0
229	0x00000000	0.0
230	0x00000000	0.0
231	0x00000000	0.0
232	0x00000000	0.0
233	0x00000000	0.0
234	0x00000000	0.0
235	0x00000000	0.0
236	0x00000000	0.0
237	0x00000000	0.0
238	0x00000000	0.0
239	0x00000000	0.0
240	0x00000000	0.0
241	0x00000000	0.0
242	0x00000000	0.0
243	0x00000000	0.0
244	0x00000000	0.0
245	0x00000000	0.0
246	0x00000000	0.0
247	0x00000000	0.0
248	0x00000000	0.0
249	0x00000000	0.0
250	0x00000000	0.0
251	0x00000000	0.0
252	0x00000000	0.0
253	0x00000000	0.0
254	0x00000000	0.0
255	0x00000000	0.0

exp_avg_sq f4 [100, 16]
0	0x00000000	0.0
1	0x00000000	0.0
2	0x00000000	0.0
3	0x00000000	0.0
4	0x00000000	0.0
5	0x00000000	0.0
6	0x00000000	0.0
7	0x00000000	0.0
8	0x00000000	0.0
9	0x00000000	0.0
10	0x00000000	0.0
11	0x00000000	0.0
12	0x00000000	0.0
13	0x00000000	0.0
14	0x00000000	0.0
15	0x00000000	0.0
16	0x4e9dc47c	1.3234499e+09
17	0x4dec2c25	4.952895e+08
18	0x4e2446dd	6.890269e+08
19	0x4d50965e	2.1871971e+08
20	0x4ed417fe	1.7791711e+09
21	0x4de24dd6	4.74594e+08
22	0x4de54900	4.8084582e+08
23	0x4da17afe	3.3864902e+08
24	0x4ce2b997	1.18869176e+08
25	0x4f145b5e	2.4890158e+09
26	0x4dc2b03d	4.0829123e+08
27	0x4d8aa539	2.9076048e+08
28	0x4c316eef	4.6513084e+07
29	0x4de7bf78	4.8601062e+08
30	0x4daf3e55	3.6751222e+08
31	0x4e5ea72b	9.3387437e+08
32	0x00000000	0.0
33	0x00000000	0.0
34	0x00000000	0.0
35	0x00000000	0.0
36	0x00000000	0.0
37	0x00000000	0.0
38	0x00000000	0.0
39	0x00000000	0.0
40	0x00000000	0.0
41	0x00000000	0.0
42	0x00000000	0.0
43	0x00000000	0.0
44	0x00000000	0.0
45	0x00000000	0.0
46	0x00000000	0.0
47	0x00000000	0.0
48	0x00000000	0.0
49	0x00000000	0.0
50	0x00000000	0.0
51	0x00000000	0.0
52	0x00000000	0.0
53	0x00000000	0.0
54	0x00000000	0.0
55	0x00000000	0.0
56	0x00000000	0.0
57	0x00000000	0.0
58	0x00000000	0.0
59	0x00000000	0.0
60	0x00000000	0.0
61	0x00000000	0.0
62	0x00000000	0.0
63	0x00000000	0.0
64	0x00000000	0.0
65	0x00000000	0.0
66	0x00000000	0.0
67	0x00000000	0.0
68	0x00000000	0.0
69	0x00000000	0.0
70	0x00000000	0.0
71	0x00000000	0.0
72	0x00000000	0.0
73	0x00000000	0.0
74	0x00000000	0.0
75	0x00000000	0.0
76	0x00000000	0.0
77	0x00000000	0.0
78	0x00000000	0.0
79	0x00000000	0.0
80	0x00000000	0.0
81	0x00000000	0.0
82	0x00000000	0.0
83	0x00000000	0.0
84	0x00000000	0.0
85	0x00000000	0.0
86	0x00000000	0.0
87	0x00000000	0.0
88	0x00000000	0.0
89	0x00000000	0.0
90	0x00000000	0.0
91	0x00000000	0.0
92	0x00000000	0.0
93	0x00000000	0.0
94	0x00000000	0.0
95	0x00000000	0.0
96	0x00000000	0.0
97	0x00000000	0.0
98	0x00000000	0.0
99	0x00000000	0.0
100	0x00000000	0.0
101	0x00000000	0.0
102	0x00000000	0.0
103	0x00000000	0.0
104	0x00000000	0.0
105	0x00000000	0.0
106	0x00000000	0.0
107	0x00000000	0.0
108	0x00000000	0.0
109	0x00000000	0.0
110	0x00000000	0.0
111	0x00000000	0.0
112	0x00000000	0.0
113	0x00000000	0.0
114	0x00000000	0.0
115	0x00000000	0.0
116	0x00000000	0.0
117	0x00000000	0.0
118	0x00000000	0.0
119	0x00000000	0.0
120	0x00000000	0.0
121	0x00000000	0.0
122	0x00000000	0.0
123	0x00000000	0.0
124	0x00000000	0.0
125	0x00000000	0.0
126	0x00000000	0.0
127	0x00000000	0.0
128	0x4d885b04	2.8595827e+08
129	0x4d19102a	1.6049834e+08
130	0x4d068bed	1.4108232e+08
131	0x4c69300a	6.1128744e+07
132	0x4d7d9d52	2.6593411e+08
133	0x4d0cba4a	1.4756368e+08
134	0x4cc693c3	1.0411164e+08
135	0x4c8f3a7d	7.509297e+07
136	0x4b691839	1.5276089e+07
137	0x4e2302b4	6.8371584e+08
138	0x4cbc130b	9.8605144e+07
139	0x4ca6094e	8.705086e+07
140	0x4ab967c4	6.075362e+06
141	0x4cbb6614	9.825091e+07
142	0x4c5d8e2b	5.8079404e+07
143	0x4d199252	1.6103146e+08
144	0x00000000	0.0
145	0x00000000	0.0
146	0x00000000	0.0
147	0x00000000	0.0
148	0x00000000	0.0
149	0x00000000	0.0
150	0x00000000	0.0
151	0x00000000	0.0
152	0x00000000	0.0
153	0x00000000	0.0
154	0x00000000	0.0
155	0x00000000	0.0
156	0x00000000	0.0
157	0x00000000	0.0
158	0x00000000	0.0
159	0x00000000	0.0
160	0x00000000	0.0
161	0x00000000	0.0
162	0x00000000	0.0
163	0x00000000	0.0
164	0x00000000	0.0
165	0x00000000	0.0
166	0x00000000	0.0
167	0x00000000	0.0
168	0x00000000	0.0
169	0x00000000	0.0
170	0x00000000	0.0
171	0x00000000	0.0
172	0x00000000	0.0
173	0x00000000	0.0
174	0x00000000	0.0
175	0x00000000	0.0
176	0x00000000	0.0
177	0x00000000	0.0
178	0x00000000	0.0
179	0x00000000	0.0
180	0x00000000	0.0
181	0x00000000	0.0
182	0x00000000	0.0
183	0x00000000	0.0
184	0x00000000	0.0
185	0x00000000	0.0
186	0x00000000	0.0
187	0x00000000	0.0
188	0x00000000	0.0
189	0x00000000	0.0
190	0x00000000	0.0
191	0x00000000	0.0
192	0x00000000	0.0
193	0x00000000	0.0
194	0x00000000	0.0
195	0x00000000	0.0
196	0x00000000	0.0
197	0x00000000	0.0
198	0x00000000	0.0
199	0x00000000	0.0
200	0x00000000	0.0
201	0x00000000	0.0
202	0x00000000	0.0
203	0x00000000	0.0
204	0x00000000	0.0
205	0x00000000	0.0
206	0x00000000	0.0
207	0x00000000	0.0
208	0x00000000	0.0
209	0x00000000	0.0
210	0x00000000	0.0
211	0x00000000	0.0
212	0x00000000	0.0
213	0x00000000	0.0
214	0x00000000	0.0
215	0x00000000	0.0
216	0x00000000	0.0
217	0x00000000	0.0
218	0x00000000	0.0
219	0x00000000	0.0
220	0x00000000	0.0
221	0x00000000	0.0
222	0x00000000	0.0
223	0x00000000	0.0
224	0x00000000	0.0
225	0x00000000	0.0
226	0x00000000	0.0
227	0x00000000	0.0
228	0x00000000	0.0
229	0x00000000	0.0
230	0x00000000	0.0
231	0x00000000	0.0
232	0x00000000	0.0
233	0x00000000	0.0
234	0x00000000	0.0
235	0x00000000	0.0
236	0x00000000	0.0
237	0x00000000	0.0
238	0x00000000	0.0
239	0x00000000	0.0
240	0x00000000	0.0
241	0x00000000	0.0
242	0x00000000	0.0
243	0x00000000	0.0
244	0x00000000	0.0
245	0x00000000	0.0
246	0x00000000	0.0
247	0x00000000	0.0
248	0x00000000	0.0
249	0x00000000	0.0
250	0x00000000	0.0
251	0x00000000	0.0
252	0x00000000	0.0
253	0x00000000	0.0
254	0x00000000	0.0
255	0x00000000	0.0

exp_avg f4 [64, 64]
0	0xc3e95120	-466.6338
1	0x441b94f7	622.3276
2	0x41541fd5	13.2577715
3	0xc3d4397d	-424.44913
4	0x44229b0a	650.4225
5	0xc3378df3	-183.55449
6	0xc39de935	-315.82193
7	0x4481ab04	1037.3442
8	0xc419c929	-615.1431
9	0x442ad9b7	683.4018
10	0xc3c4304b	-392.3773
11	0xc386c90e	-269.57074
12	0xc32f89af	-175.53783
13	0x43eb05e9	470.04617
14	0x4357d414	215.82843
15	0x4384e6db	265.80356
16	0xc3d6918c	-429.1371
17	0x44182a7d	608.6639
18	0x419dddc7	19.73329
19	0xc38b6c11	-278.84427
20	0x4429c419	679.064
21	0xc3c85325	-400.64957
22	0xc3ace1e4	-345.76477
23	0x447b96d5	1006.35675
24	0xc40d1b51	-564.4268
25	0x442e3edc	696.9822
26	0xc3ad01c3	-346.01376
27	0xc3526d35	-210.42659
28	0xc34b32ac	-203.19794
29	0x43dceadb	441.8348
30	0x43a9c6e6	339.5539
31	0x438707cc	270.0609
32	0xc1a56f19	-20.679247
33	0xc1d0025b	-26.00115
34	0xc201a17f	-32.40771
35	0xc22034bf	-40.05151
36	0xc2445b47	-49.089138
37	0xc26eb385	-59.675312
38	0xc28fe964	-71.95584
39	0xc2ac1e28	-86.0589
40	0xc2cc2b56	-102.08464
41	0xc2f03040	-120.09424
42	0xc30c194f	-140.09886
43	0xc3220c49	-162.04799
44	0xc339d135	-185.81721
45	0xc353335c	-211.20062
46	0xc36de636	-237.89926
47	0xc384c253	-265.51816
48	0xc392c84a	-293.56476
49	0xc3a0b956	-321.44794
50	0xc3ae3edb	-348.49106
51	0xc3baf915	-373.94595
52	0xc3c6823b	-397.01743
53	0xc3d072c7	-416.8967
54	0xc3d86679	-432.80057
55	0xc3de0259	-444.01834
56	0xc3e0faf4	-449.96057
57	0xc3e11a4b	-450.2054
58	0xc3de451b	-444.5399
59	0xc3d87e92	-432.98883
60	0xc3cfea28	-415.82935
61	0xc3c4cacb	-393.58432
62	0xc3b77faf	-366.99753
63	0xc3a87edd	-336.99112
64	0xc35de811	-221.90651
65	0x4392709b	292.87973
66	0x40b56399	5.668408
67	0xc35340d5	-211.25325
68	0x43973d84	302.4806
69	0xc2877486	-67.727585
70	0xc311854b	-145.52068
71	0x43f471a3	488.8878
72	0xc39251bc	-292.63855
73	0x439f9afa	319.21075
74	0xc33bd878	-187.84558
75	0xc3035b33	-131.35625
76	0xc29fe7df	-79.95287
77	0x435eb91b	222.72307
78	0x42b577f2	90.73427
79	0x42f87b68	124.24103
80	0xc35b251f	-219.145
81	0x4391efd2	291.8736
82	0x40c4a657	6.145305
83	0xc34887bf	-200.53026
84	0x43984b7f	304.5898
85	0xc2a76e5a	-83.71553
86	0xc313b9d1	-147.72585
87	0x43f34d89	486.60574
88	0xc3907397	-288.90305
89	0x43a01afd	320.21085
90	0xc3386e6f	-184.43138
91	0xc2fe0056	-127.000656
92	0xc2a3facc	-81.98984
93	0x435ca544	220.64557
94	0x42c7b12f	99.84606
95	0x42f91bef	124.55456
96	0xc13d54f5	-11.833241
97	0xc16a50f6	-14.644766
98	0xc18faefe	-17.960445
99	0xc1aeb462	-21.838078
100	0xc1d2afb0	-26.335785
101	0xc1fc14d5	-31.510172
102	0xc215a7b7	-37.413784
103	0xc2305e02	-44.091805
104	0xc24e504e	-51.578423
105	0xc26f924e	-59.892876
106	0xc28a11c6	-69.03471
107	0xc29df545	-78.97904
108	0xc2b35839	-89.67231
109	0xc2ca0dd9	-101.02705
110	0xc2e1d665	-112.91874
111	0xc2fa5d5d	-125.18235
112	0xc3099c12	-137.60965
113	0xc315f371	-149.95094
114	0xc321eab0	-161.91675
115	0xc32d2f00	-173.1836
116	0xc3376789	-183.40443
117	0xc34038cf	-192.22191
118	0xc3474933	-199.28593
119	0xc34c4628	-204.27405
120	0xc34ee9ef	-206.9138
121	0xc34f0147	-207.00499
122	0xc34c7045	-204.43855
123	0xc3473639	-199.2118
124	0xc33f6fae	-191.43625
125	0xc33555f3	-181.33574
126	0xc3293cce	-169.23752
127	0xc31b8d7c	-155.55267
128	0xc33d37ad	-189.21748
129	0x43843c6e	264.4721
130	0x40fc837a	7.8910494
131	0xc306ec5f	-134.92332
132	0x43915d2d	290.72794
133	0xc317c22d	-151.7585
134	0xc31283f0	-146.51538
135	0x43db0d4d	438.1039
136	0xc379020d	-249.00801
137	0x4395fb04	299.96106
138	0xc31a28d2	-154.15945
139	0xc2c19d82	-96.80763
140	0xc2aa385c	-85.11008
141	0x4341ca2a	193.7897
142	0x4306917a	134.56827
143	0x42e8a6e9	116.326
144	0xc3459984	-197.59967
145	0x4385c369	267.52664
146	0x40ce30fa	6.4434786
147	0xc3277910	-167.4729
148	0x438e29a5	284.32535
149	0xc2ce749d	-103.22776
150	0xc30bd263	-139.82182
151	0x43de8411	445.03177
152	0xc3822c38	-260.34546
153	0x43947678	296.92554
154	0xc3248614	-164.52374
155	0xc2dc0eef	-110.02917
156	0xc29dda73	-78.92666
157	0x4348189c	200.09613
158	0x42d5d1f7	106.91009
159	0x42e6bf93	115.37417
160	0xc15a8203	-13.656741
161	0xc1856cad	-16.678064
162	0xc1a18ae6	-20.192822
163	0xc1c2048f	-24.252226
164	0xc1e74208	-28.907242
165	0xc208d373	-34.206493
166	0xc220c54c	-40.192673
167	0xc23b9887	-46.898952
168	0xc259607b	-54.34422
169	0xc27a1d17	-62.528408
170	0xc28edb0d	-71.42783
171	0xc2a1fb52	-80.99086
172	0xc2b644fe	-91.13475
173	0xc2cb7c47	-101.74273
174	0xc2e153ca	-112.66365
175	0xc2f76c24	-123.71121
176	0xc306aabc	-134.66693
177	0xc3114887	-145.28331
178	0xc31b4a2d	-155.28975
179	0xc324666c	-164.40009
180	0xc32c52be	-172.32321
181	0xc332c65e	-178.77487
182	0xc3377e02	-183.49222
183	0xc33a3fcf	-186.24925
184	0xc33adf36	-186.87192
185	0xc339410c	-185.25409
186	0xc3355e51	-181.36842
187	0xc32f467f	-175.27538
188	0xc3271fd3	-167.12431
189	0xc31d26ab	-157.15105
190	0xc311aa77	-145.66588
191	0xc305095f	-133.0366
192	0xc2f52a7d	-122.582985
193	0x432ee9f0	174.91382
194	0x40bb56c2	5.8543406
195	0xc298debd	-76.435036
196	0x43444f25	196.30916
197	0xc2f2453a	-121.13521
198	0xc2c8ba51	-100.3639
199	0x43907d12	288.9771
200	0xc321310a	-161.19156
201	0x434911d1	201.0696
202	0xc2c4d276	-98.41106
203	0xc26c1b87	-59.026882
204	0xc26cfeb1	-59.248722
205	0x42fcf8e8	126.486145
206	0x42ca20c2	101.06398
207	0x429bc3b3	77.882225
208	0xc304e81b	-132.90666
209	0x4332acef	178.67552
210	0x408249fa	4.0715303
211	0xc2e90ba5	-116.52274
212	0x433c6c7d	188.42378
213	0xc27575df	-61.36511
214	0xc2b83d7b	-92.12008
215	0x4394c120	297.5088
216	0xc32f2790	-175.15454
217	0x4345549e	197.33054
218	0xc2de5a0a	-111.17586
219	0xc2969ee5	-75.31034
220	0xc24e888f	-51.633358
221	0x430640e0	134.25342
222	0x4286000e	67.00011
223	0x42996b8d	76.71006
224	0xc1013be4	-8.077122
225	0xc11dc50b	-9.860606
226	0xc13ef664	-11.935154
227	0xc165503d	-14.332089
228	0xc188ab8a	-17.08376
229	0xc1a1c7d4	-20.222572
230	0xc1be3cca	-23.779682
231	0xc1de43b7	-27.783064
232	0xc2010554	-32.255203
233	0xc214d7d5	-37.210773
234	0xc22a9d17	-42.653408
235	0xc2424ae3	-48.57313
236	0xc25bc5af	-54.94305
237	0xc276ddae	-61.716484
238	0xc289a623	-68.824486
239	0xc29858a5	-76.173134
240	0xc2a74937	-83.643
241	0xc2b62cb0	-91.08728
242	0xc2c4ab37	-98.334404
243	0xc2d2618d	-105.19053
244	0xc2dee3bf	-111.44482
245	0xc2e9c1b7	-116.87835
246	0xc2f28c0b	-121.27352
247	0xc2f8db46	-124.42827
248	0xc2fc563b	-126.16842
249	0xc2fcba3e	-126.363754
250	0xc2f9e049	-124.93806
251	0xc2f3c364	-121.88162
252	0xc2ea8220	-117.25415
253	0xc2de5f94	-111.186676
254	0xc2cfbfdd	-103.87473
255	0xc2bf2294	-95.567535

exp_avg_sq f4 [64, 64]
0	0x4ede7eff	1.8664324e+09
1	0x4f465a09	3.3277893e+09
2	0x49ce6574	1.6907985e+06
3	0x4eba20a8	1.5613512e+09
4	0x4f57a1cf	3.6177057e+09
5	0x4d871768	2.8330726e+08
6	0x4e4c44a5	8.567627e+08
7	0x50098f59	9.231492e+09
8	0x4f439a21	3.281658e+09
9	0x4f6dffa2	3.9929533e+09
10	0x4e9e5550	1.3281956e+09
11	0x4e176b43	6.350973e+08
12	0x4d85206b	2.7918678e+08
13	0x4ee26174	1.8990188e+09
14	0x4dbe108b	3.985944e+08
15	0x4e103938	6.0491725e+08
16	0x4ebb0bf9	1.569062e+09
17	0x4f3d7ab5	3.1789356e+09
18	0x4a6211f8	3.703934e+06
19	0x4e1c47c2	6.554871e+08
20	0x4f6bc2bc	3.955408e+09
21	0x4ea86238	1.4125046e+09
22	0x4e763a8e	1.03275814e+09
23	0x500138f3	8.671972e+09
24	0x4f240c0b	2.7522527e+09
25	0x4f77e3bb	4.158897e+09
26	0x4e74452d	1.02454355e+09
27	0x4db6025e	3.8170106e+08
28	0x4db2fae7	3.7534845e+08
29	0x4ec73203	1.6709718e+09
30	0x4e70f31e	1.0106162e+09
31	0x4e15024b	6.2498886e+08
32	0x4a4eed00	3.390272e+06
33	0x4aa59426	5.425683e+06
34	0x4b01e506	8.512774e+06
35	0x4b47f6e6	1.310487e+07
36	0x4b971edd	1.9807674e+07
37	0x4be06325	2.941089e+07
38	0x4c23b770	4.291731e+07
39	0x4c6ad916	6.156399e+07
40	0x4ca59c3c	8.682749e+07
41	0x4ce5a706	1.2040402e+08
42	0x4d1c8cbd	1.6415432e+08
43	0x4d51cf84	2.2000237e+08
44	0x4d8a2dbd	2.8978166e+08
45	0x4db2d319	3.7502237e+08
46	0x4de34d39	4.766861e+08
47	0x4e0dd3b4	5.948654e+08
48	0x4e2dae45	7.284698e+08
49	0x4e509a5b	8.749442e+08
50	0x4e7596fe	1.03007834e+09
51	0x4e8d9d62	1.1879508e+09
52	0x4e9fdf1d	1.3410996e+09
53	0x4eb08985	1.4809012e+09
54	0x4ebe86c9	1.5982522e+09
55	0x4ec8ccc8	1.6844319e+09
56	0x4ece7b2e	1.7320896e+09
57	0x4ecef9fe	1.736245e+09
58	0x4eca111f	1.6950598e+09
59	0x4ebff639	1.6102924e+09
60	0x4eb14b9a	1.4872609e+09
61	0x4e9f1036	1.3343199e+09
62	0x4e8a81d3	1.161882e+09
63	0x4e69ee5e	9.8117824e+08
64	0x4ddb3369	4.5969744e+08
65	0x4e3e04c8	7.969961e+08
66	0x489b5ff2	318207.56
67	0x4dce8d6d	4.3317187e+08
68	0x4e481e6e	8.3935936e+08
69	0x4c01dd4a	3.4043176e+07
70	0x4d38f5a7	1.9394418e+08
71	0x4f04481e	2.2193188e+09
72	0x4e40d199	8.087404e+08
73	0x4e5f7ceb	9.3737645e+08
74	0x4d9eb86a	3.3286074e+08
75	0x4d1f0476	1.6674186e+08
76	0x4c6a2084	6.137499e+07
77	0x4ddcd5a5	4.6312362e+08
78	0x4c85ea7e	7.021054e+07
79	0x4d07a72a	1.4224246e+08
80	0x4dd3f967	4.4454218e+08
81	0x4e3c4783	7.897008e+08
82	0x48bf57c7	391870.22
83	0x4db40ae1	3.7757648e+08
84	0x4e4be632	8.552152e+08
85	0x4c6d8d03	6.2272524e+07
86	0x4d409748	2.0194624e+08
87	0x4f02a37f	2.191753e+09
88	0x4e3a61c1	7.8174214e+08
89	0x4e615fec	9.4529e+08
90	0x4d9726ac	3.1698675e+08
91	0x4d11789b	1.5253752e+08
92	0x4c7a3506	6.5590296e+07
93	0x4dd75e4c	4.5166016e+08
94	0x4cae07a5	9.124177e+07
95	0x4d089177	1.4320216e+08
96	0x498a75cf	1.1342659e+06
97	0x49d7d79e	1.7681798e+06
98	0x4a24d434	2.700557e+06
99	0x4a76e976	4.0454055e+06
100	0x4ab5904c	5.949478e+06
101	0x4b03303a	8.597562e+06
102	0x4b3a6b5e	1.2217182e+07
103	0x4b8251a8	1.7081168e+07
104	0x4bb358e5	2.3507402e+07
105	0x4bf30617	3.1853614e+07
106	0x4c2224e6	4.250511e+07
107	0x4c5510fe	5.585407e+07
108	0x4c89d73d	7.2268264e+07
109	0x4caf913c	9.204784e+07
110	0x4cdc0df9	1.15371976e+08
111	0x4d07a5f5	1.4223752e+08
112	0x4d2467e9	1.7239208e+08
113	0x4d43c410	2.052754e+08
114	0x4d64db99	2.399748e+08
115	0x4d833acc	2.7520858e+08
116	0x4d938353	3.0935715e+08
117	0x4da261c5	3.4053955e+08
118	0x4daee1cf	3.6675427e+08
119	0x4db816a6	3.860615e+08
120	0x4dbd3616	3.968048e+08
121	0x4dbdb386	3.978324e+08
122	0x4db955e0	3.886766e+08
123	0x4db0456c	3.6966746e+08
124	0x4da30c93	3.4193878e+08
125	0x4d928b0f	3.0732336e+08
126	0x4d7fb7db	2.6813995e+08
127	0x4d58692d	2.2692322e+08
128	0x4e2c6df4	7.2322176e+08
129	0x4ea62b9e	1.3939382e+09
130	0x4997b86a	1.2428932e+06
131	0x4dc35d79	4.0971037e+08
132	0x4ec49cad	1.6493011e+09
133	0x4db62579	3.8198864e+08
134	0x4dc6533a	4.159179e+08
135	0x4f641981	3.8268767e+09
136	0x4e977c89	1.2707606e+09
137	0x4ed2718e	1.7653286e+09
138	0x4de90ea1	4.8875626e+08
139	0x4d4141ba	2.0264438e+08
140	0x4d0b1e15	1.4587528e+08
141	0x4e345018	7.56287e+08
142	0x4d99b879	3.2237546e+08
143	0x4d7da582	2.6596765e+08
144	0x4e366ee0	7.651799e+08
145	0x4ea8ab0b	1.4148909e+09
146	0x496bc1be	965659.9
147	0x4e009bdd	5.394246e+08
148	0x4ebef689	1.601914e+09
149	0x4d59c118	2.283319e+08
150	0x4dba9329	3.912758e+08
151	0x4f68cb9b	3.9056576e+09
152	0x4ea06458	1.3454653e+09
153	0x4ecfaa3c	1.7420201e+09
154	0x4dfd8856	5.3169632e+08
155	0x4d6397b6	2.3864816e+08
156	0x4cfc9c14	1.3244022e+08
157	0x4e3bfad5	7.884445e+08
158	0x4d62fdc2	2.3801757e+08
159	0x4d7af4e5	2.6314709e+08
160	0x4a3fb92a	3.1411945e+06
161	0x4a92ac8d	4.8062145e+06
162	0x4adc086d	7.2100385e+06
163	0x4b21fddb	1.0616283e+07
164	0x4b6a55a4	1.5357348e+07
165	0x4ba6a4c5	2.1842314e+07
166	0x4be92996	3.0561068e+07
167	0x4c208750	4.20816e+07
168	0x4c599449	5.7037092e+07
169	0x4c912632	7.609998e+07
170	0x4cbe9dd3	9.9937944e+07
171	0x4cf65748	1.291536e+08
172	0x4d1c9942	1.642056e+08
173	0x4d43cdda	2.0531549e+08
174	0x4d70ad1e	2.5236733e+08
175	0x4d9158ca	3.048144e+08
176	0x4dac6c19	3.6159568e+08
177	0x4dc8cb82	4.2109754e+08
178	0x4de56e16	4.8114963e+08
179	0x4e0087e6	5.390975e+08
180	0x4e0d20d7	5.919349e+08
181	0x4e17c1e4	6.365166e+08
182	0x4e1fb2e6	6.698254e+08
183	0x4e24562e	6.892778e+08
184	0x4e253b56	6.930323e+08
185	0x4e222f1b	6.80249e+08
186	0x4e1b45cb	6.512606e+08
187	0x4e10dd67	6.0760723e+08
188	0x4e0396b0	5.519227e+08
189	0x4de88a1e	4.8767072e+08
190	0x4dc7b08e	4.187796e+08
191	0x4da68331	3.4920195e+08
192	0x4e18a6f5	6.4026963e+08
193	0x4e9724e8	1.2678892e+09
194	0x49a1e246	1.3261528e+06
195	0x4d938159	3.0934096e+08
196	0x4eb7db9d	1.5423116e+09
197	0x4ddab94d	4.5869712e+08
198	0x4dbd2325	3.9664963e+08
199	0x4f4ebd7d	3.4685248e+09
200	0x4e861a84	1.1249423e+09
201	0x4ec2da96	1.6345526e+09
202	0x4dca872b	4.24732e+08
203	0x4d1eed01	1.6664578e+08
204	0x4d07b350	1.4229222e+08
205	0x4e213121	6.760879e+08
206	0x4da778ef	3.5121507e+08
207	0x4d6a71a3	2.4583224e+08
208	0x4e25debb	6.957094e+08
209	0x4e9a78c9	1.2958035e+09
210	0x4963e278	933415.5
211	0x4de184c5	4.7294685e+08
212	0x4eb0430a	1.4785917e+09
213	0x4d5d09a4	2.3177478e+08
214	0x4dad3b6e	3.6329414e+08
215	0x4f54fd12	3.573355e+09
216	0x4e91de46	1.2236316e+09
217	0x4ebf2134	1.6033121e+09
218	0x4de56af3	4.8112394e+08
219	0x4d4b503f	2.1318962e+08
220	0x4cec68b5	1.2394641e+08
221	0x4e2b5999	7.1869395e+08
222	0x4d5cb152	2.3141302e+08
223	0x4d66d7c8	2.4205632e+08
224	0x4a1b2fa3	2.5425688e+06
225	0x4a6cbfd6	3.8789015e+06
226	0x4ab1174d	5.8029185e+06
227	0x4b020e48	8.523336e+06
228	0x4b3bc036	1.2304438e+07
229	0x4b85507c	1.7473784e+07
230	0x4bba5fa9	2.442837e+07
231	0x4c004fa9	3.3636004e+07
232	0x4c2e115a	4.5630824e+07
233	0x4c68b105	6.0998676e+07
234	0x4c994158	8.034989e+07
235	0x4cc6e4db	1.0427772e+08
236	0x4cfe3fd1	1.3329985e+08
237	0x4d2002c7	1.6778354e+08
238	0x4d463aa6	2.0785827e+08
239	0x4d719643	2.5332229e+08
240	0x4d90be79	3.0355024e+08
241	0x4daa6e1d	3.574179e+08
242	0x4dc50ee4	4.1326093e+08
243	0x4ddf9453	4.6887997e+08
244	0x4df8b9db	5.2161622e+08
245	0x4e078a46	5.684965e+08
246	0x4e109805	6.0647046e+08
247	0x4e16d823	6.326868e+08
248	0x4e19bd84	6.4483354e+08
249	0x4e18ee53	6.414389e+08
250	0x4e145397	6.221265e+08
251	0x4e0c20c1	5.877392e+08
252	0x4e00d207	5.40312e+08
253	0x4de64210	4.8288614e+08
254	0x4dc7def2	4.191596e+08
255	0x4da85be8	3.5307443e+08
